ActorModel.pt (torch, 10699 bytes, 7 tensors)

fc1.weight f4 [30, 3]
0	0x3d364b10	0.04450518
1	0xbed87305	-0.42275253
2	0x3e3c1504	0.18367392
3	0x3f648070	0.8925848
4	0x3e874466	0.2641937
5	0xbe38121a	-0.17975655
6	0xbc88d6e0	-0.016704023
7	0x3ea44898	0.32086635
8	0x3e4d4e8c	0.20049495
9	0x3e74cf77	0.23907267
10	0x3f40e99f	0.7535648
11	0xbebf1142	-0.37317854
12	0x402ae535	2.6702397
13	0x3fe1fc74	1.7655168
14	0xbfbbc673	-1.4669937
15	0x400049c7	2.004503
16	0xbddcbfce	-0.10778771
17	0xbedfbddf	-0.43699548
18	0x3f87e4fa	1.0616753
19	0xbd70fd32	-0.058835216
20	0x3eb3ab85	0.35091797
21	0x402b2e46	2.6746993
22	0x3f82470c	1.0177932
23	0xbfd3ff50	-1.656229
24	0x3f485a0d	0.78262407
25	0xbf21f056	-0.6325735
26	0x3ea5b74a	0.323664
27	0x4017d83a	2.3725724
28	0x3f9c9a91	1.223467
29	0xbfb38b19	-1.4026824
30	0x3f879afe	1.0594175
31	0x3d438782	0.047736652
32	0xbea06593	-0.31327495
33	0x3f88b24c	1.0679412
34	0x3eef9e3d	0.46800414
35	0xbe6df40d	-0.23237629
36	0x3ed0938a	0.40737563
37	0xbf4089f4	-0.752105
38	0x3e8a215b	0.26978573
39	0x3f3c6012	0.7358409
40	0x3ef046e8	0.46929097
41	0xbf7b5171	-0.98171145
42	0x3ebf3f0c	0.37352788
43	0x3d08f990	0.033441126
44	0x3d9e7308	0.07736784
45	0x3ea50633	0.32231292
46	0xbf09356c	-0.5359714
47	0x3e21d190	0.15802598
48	0x402863cf	2.6310918
49	0x3fe3745f	1.7769889
50	0xbfcfdf6d	-1.6240059
51	0x3f0db713	0.55357474
52	0x3f193aa7	0.5985512
53	0x3dbbae0b	0.091640554
54	0x3f180d2d	0.59395105
55	0x3f299a2d	0.6625088
56	0xbd83c463	-0.06433942
57	0x3f7ea131	0.9946471
58	0xbf463757	-0.7742819
59	0x3f5c71a1	0.86110884
60	0x3f954b5f	1.1663626
61	0x3fcfcf1a	1.6235077
62	0xbf702496	-0.93805826
63	0x3f05d660	0.52280235
64	0x3cfc2c20	0.03078276
65	0xbee95cfa	-0.45578748
66	0x3f081e20	0.5317097
67	0xbe4f3dde	-0.20238444
68	0x3e8bdd88	0.27317452
69	0x3fa2b8d4	1.2712655
70	0x3f6a5faa	0.9155222
71	0xbf809dc9	-1.0048152
72	0x3f7de19c	0.9917238
73	0x3e45a330	0.19300532
74	0xbe55cb90	-0.20878434
75	0x3f75e289	0.9604879
76	0x3f959864	1.1687131
77	0xbf27f43c	-0.6560705
78	0x4034826f	2.820461
79	0x40014977	2.020109
80	0xbfd07fa7	-1.6288956
81	0xbdb0de54	-0.08636156
82	0xbe1ac6ce	-0.151149
83	0xbd57e890	-0.052712023
84	0x3f8c0138	1.0937872
85	0xbd7aa356	-0.061190926
86	0xbf04fddb	-0.5194985
87	0x3f2ec91b	0.6827561
88	0x3e1c3c63	0.1525741
89	0xbc903e0b	-0.01760771

fc1.bias f4 [30]
0	0xbef868f3	-0.4851757
1	0xbef0128b	-0.46889147
2	0xbf026bc9	-0.5094572
3	0xbf6dede3	-0.9294111
4	0xc02eba2e	-2.7301135
5	0xc031195b	-2.7671726
6	0xbd0000ca	-0.031250753
7	0xc03313db	-2.798087
8	0xbf64701b	-0.8923356
9	0xc0177a07	-2.366823
10	0xbe62ee86	-0.22161302
11	0xbebaeb67	-0.36507723
12	0xbf54d3c2	-0.83135617
13	0xbfb1a55c	-1.3878589
14	0xbefcf6b1	-0.4940696
15	0xbf33088a	-0.69934905
16	0xc025274c	-2.5805235
17	0xbe2eb5ff	-0.17061614
18	0xbf68053e	-0.90633
19	0xbfb1c1c5	-1.3887259
20	0xbf5e9799	-0.8695007
21	0xbe8a7912	-0.27045494
22	0xbd8f1f28	-0.069883645
23	0xbf762157	-0.9614462
24	0xbebe2c29	-0.37143067
25	0xbf831afe	-1.0242612
26	0xc011f0af	-2.2803152
27	0xbe54c8c8	-0.20779717
28	0xbe087e82	-0.13329509
29	0xbf193a37	-0.59854454

fc2.weight f4 [30, 30]
0	0x3d3cce58	0.046095222
1	0xbd053314	-0.032519415
2	0x3d86ce5e	0.0658233
3	0xbd9b7d8b	-0.07592305
4	0xbefa3f73	-0.48876533
5	0xbd5125c0	-0.05106139
6	0xbf31d2da	-0.6946236
7	0xbeed76eb	-0.4637979
8	0x3d355408	0.04426959
9	0xbf2eb51b	-0.68245095
10	0xbc9ebbb0	-0.019376606
11	0xbcf918c8	-0.030407324
12	0xbf136f5d	-0.575918
13	0xbf393e5c	-0.7236078
14	0xbe32ce1a	-0.17461434
15	0xbf2f9088	-0.6857991
16	0xbf097de6	-0.5370773
17	0xbf1699ee	-0.5882863
18	0xbe1d2d9b	-0.15349428
19	0xbc78a630	-0.015176341
20	0xbf0e80ed	-0.55665475
21	0x3d75060c	0.05982022
22	0xbdda38ad	-0.10655341
23	0xbf1bc85d	-0.60852605
24	0x3e23a9f2	0.15982798
25	0xbedf9a04	-0.43672192
26	0xbf3fd512	-0.74934494
27	0x3ddbee2c	0.10738787
28	0x3f3190b1	0.69361407
29	0xbf196891	-0.5992518
30	0x3e0d7c1e	0.13816878
31	0x3d8d15f0	0.0688895
32	0xbe19e9c9	-0.15030588
33	0x3d132194	0.035920694
34	0xbd219178	-0.03944537
35	0xbca31e50	-0.019911915
36	0xbdd9223d	-0.106022336
37	0x3dba2ff8	0.090911806
38	0xbd56bc60	-0.052425742
39	0xbda71a9a	-0.08159371
40	0xbdd8eff1	-0.1059264
41	0x3d2f2b0c	0.042765662
42	0xbe19e2dc	-0.15027946
43	0x3e3849dc	0.17996925
44	0xbcfe6090	-0.031051904
45	0x3e3509e4	0.17679554
46	0xbd9315d0	-0.07181895
47	0xbf77eb91	-0.9684382
48	0xbbb060c0	-0.0053826272
49	0xbdf2d8b3	-0.11857738
50	0xbfa50fbd	-1.2895428
51	0x3da39c68	0.079888165
52	0x3d22f308	0.039782554
53	0x3df31ba4	0.118705064
54	0xbf85907a	-1.0434716
55	0xbf95dee6	-1.1708648
56	0x3db131ec	0.086521
57	0x3cf8c558	0.030367538
58	0x3df339c4	0.11876252
59	0xbe22a3eb	-0.15882842
60	0x3d110118	0.035401434
61	0x3d79de48	0.061003
62	0xbd898f2c	-0.06716761
63	0xbc99b030	-0.01876077
64	0xbddb4827	-0.10707121
65	0x3e390882	0.18069652
66	0x3e1efb02	0.1552544
67	0x3d36e7a4	0.044654503
68	0x3db94d00	0.0904789
69	0xbd2a525c	-0.04158245
70	0x3d94e014	0.07269302
71	0xbdef5d85	-0.11687759
72	0xbca26e20	-0.019827902
73	0xbe26c478	-0.16285884
74	0x3d9adb9c	0.075614184
75	0xbe319ec6	-0.17345724
76	0x3b19edc0	0.0023487657
77	0x3e029fce	0.12756273
78	0xbd9e93ab	-0.07743009
79	0xbe6a0411	-0.22853114
80	0xbc4cecf0	-0.012507662
81	0x3e073e0c	0.13207263
82	0xbdd90423	-0.10596492
83	0xbe2d113b	-0.16901104
84	0xbe243da6	-0.16039142
85	0xbf3423d6	-0.7036718
86	0x3df29e88	0.11846644
87	0xbe1fa0e4	-0.15588719
88	0x3e291238	0.16510856
89	0x3dd59410	0.10428631
90	0x3e239938	0.15976417
91	0xbdcf4b75	-0.10121814
92	0x3dfb21b8	0.12262291
93	0x3e0b56b6	0.13607296
94	0xbf20f2fd	-0.6287077
95	0xbdfcb262	-0.12338711
96	0xbeffd328	-0.49965787
97	0xbf145058	-0.57935095
98	0x3ddfde00	0.10931015
99	0xbef55ee3	-0.47923955
100	0x3dd65a28	0.10466415
101	0x3da561cc	0.08075294
102	0xbf10abdf	-0.56512254
103	0xbf037954	-0.5135701
104	0xbd278870	-0.0409016
105	0xbf3ea912	-0.7447673
106	0xbf03e514	-0.5152142
107	0xbf1b67bd	-0.6070517
108	0xbddb5e47	-0.10711341
109	0x3e2d7658	0.16939676
110	0xbf3ed539	-0.745441
111	0xbe1a8e8c	-0.1509344
112	0xbe328839	-0.17434777
113	0xbee9a880	-0.45636368
114	0xbd684e00	-0.05671501
115	0xbf056dfc	-0.5212095
116	0xbf0eb77f	-0.5574874
117	0xbe00ea88	-0.12589467
118	0x3f242db9	0.6413227
119	0xbee1370a	-0.43987304
120	0x3d3fdb6c	0.046840116
121	0xbe059856	-0.13046393
122	0x3de377c4	0.11106828
123	0xbdfeb79d	-0.12437365
124	0x3f0cb704	0.5496676
125	0x3d952af8	0.07283586
126	0xbf293479	-0.6609569
127	0xbf15ca10	-0.5851145
128	0xbda8ae95	-0.08236424
129	0xbf0a7988	-0.5409169
130	0x3df65a2c	0.12028918
131	0x3dac01c0	0.08398771
132	0xbf1f859f	-0.62313265
133	0xbf00d15e	-0.5031947
134	0xbe065790	-0.1311934
135	0xbf1fb63c	-0.6238744
136	0xbedacfc4	-0.42736638
137	0xbee3fdca	-0.44529563
138	0x3e10773c	0.14107984
139	0x3ccbd410	0.024881393
140	0xbefd77b2	-0.49505383
141	0xbcbbadd0	-0.022910029
142	0x3e10738c	0.14106578
143	0xbf2aa04e	-0.66650856
144	0x3dec523c	0.115391225
145	0xbf252154	-0.6450398
146	0xbef22aa6	-0.47298163
147	0xbda10e3d	-0.07864044
148	0x3f0f74e3	0.5603773
149	0xbf23ef2a	-0.6403681
150	0x3e18c83e	0.14920136
151	0xbd5e6590	-0.054296076
152	0x3c2d0b30	0.010561749
153	0xbf2d61ca	-0.6772734
154	0x3e43f384	0.19135863
155	0x3d1e7fa0	0.03869593
156	0xbf141c7b	-0.5785596
157	0xbf2019ea	-0.6253954
158	0x3d87f56a	0.06638606
159	0xbf365410	-0.7122202
160	0x3d8d5770	0.06901443
161	0xbee09013	-0.4385992
162	0xbed630ff	-0.41834256
163	0xbf585c29	-0.84515625
164	0x3e02229e	0.12708518
165	0xbf0736fb	-0.5281827
166	0xbf465f61	-0.77489287
167	0xbab6ab7e	-0.0013936607
168	0xbf2982ea	-0.66215384
169	0xbe26c921	-0.16287662
170	0xbf63781b	-0.8885514
171	0x3c866bb0	0.016408771
172	0x3dc7fc08	0.09764868
173	0xbf0ce58a	-0.5503775
174	0x3d58b4a0	0.052906632
175	0xbf192b96	-0.5983213
176	0xbf4fd8d8	-0.8119025
177	0x3d391c80	0.045193195
178	0x3ef16407	0.47146627
179	0xbe854629	-0.2603009
180	0x3d663274	0.05620046
181	0x3e2dace4	0.16960484
182	0x3d32d98c	0.0436645
183	0xbd2675c4	-0.040639654
184	0x3e181168	0.1485039
185	0xbe0797b8	-0.1324147
186	0xbe0b5e0c	-0.13610095
187	0x3cd7d670	0.026347369
188	0xbced2770	-0.02894947
189	0xbee59c06	-0.448456
190	0xbe0fa6db	-0.14028494
191	0x3bef2b20	0.007298842
192	0xbe01505d	-0.12628312
193	0xbb097c00	-0.002097845
194	0x3dda1e80	0.10650349
195	0xb940d800	-0.00018391013
196	0x3c90d893	0.017681396
197	0xbea285d2	-0.31742722
198	0xbdef1dd3	-0.116756104
199	0xbf07bf68	-0.5302644
200	0xbef670c5	-0.4813291
201	0x3d963264	0.0733383
202	0x3e1c9b68	0.15293658
203	0xbf2e3b27	-0.6805901
204	0x3deb129e	0.1147816
205	0xbdf0ec24	-0.1176379
206	0xbe60ad9f	-0.21941231
207	0x3e273fc6	0.16332921
208	0xbe034da8	-0.12822592
209	0xbe2eea42	-0.1708155
210	0x3debd0cc	0.11514434
211	0xbc5475e0	-0.012967557
212	0x3d964ef8	0.07339281
213	0x3de11c5c	0.10991737
214	0xbfc8c16a	-1.5684025
215	0xbfedf9d3	-1.8591865
216	0xbe03294f	-0.12808727
217	0xbffd1e78	-1.9774923
218	0x3f2f845d	0.68561345
219	0xbf0a5f2e	-0.5405148
220	0xbff6c437	-1.927863
221	0x3df6b414	0.12046066
222	0xbcc67708	-0.02422668
223	0xc001e386	-2.029512
224	0xbc2bf170	-0.010494575
225	0xbda12bf9	-0.07869715
226	0xbfce0e0f	-1.609804
227	0x3ea3e0a2	0.3200732
228	0xbe0f650d	-0.14003392
229	0xbe0741e2	-0.13208726
230	0xbfc45fb2	-1.5341704
231	0xbd8daa46	-0.06917243
232	0x3de1e338	0.11029667
233	0xbf973aac	-1.181478
234	0xbfe63d65	-1.7987486
235	0xbfee2184	-1.8603978
236	0xc004ed1a	-2.0769715
237	0x3e365804	0.17807013
238	0xbe2ba29f	-0.16761254
239	0xbfcd8bad	-1.6058251
240	0x3e167b0c	0.14695376
241	0xbf0d1bc1	-0.55120474
242	0x3e2a341a	0.16621438
243	0x3f1c8572	0.6114112
244	0xbe3abcc4	-0.18236071
245	0xc01f1e5b	-2.4862278
246	0x3c82bd38	0.015959367
247	0x3f983592	1.1891348
248	0x3dbf2cb4	0.09334698
249	0xbe27b331	-0.1637695
250	0xbfdfbc92	-1.7479422
251	0xbf127fc0	-0.5722618
252	0xbdb8155a	-0.089884475
253	0xbfc4da6d	-1.5379158
254	0xbdf6fc25	-0.120598115
255	0x3daeff10	0.08544743

fc2.bias f4 [30]
0	0xbf0249d6	-0.50893915
1	0xbfa04fc3	-1.2524341
2	0xbe33e3e9	-0.1756741
3	0xbf328380	-0.69731903
4	0xbf1728ef	-0.59046835
5	0xbf29bcfa	-0.6630398
6	0xbf244309	-0.6416479
7	0xbf62a808	-0.88537645
8	0xbf1aff46	-0.60545766
9	0xbedfb4f7	-0.43692753
10	0xc033ff49	-2.8124564
11	0xbecf2c75	-0.40463606
12	0xbf395761	-0.72398955
13	0xbee55580	-0.44791794
14	0xbf9dfde5	-1.2343107
15	0xbe951fbc	-0.29125774
16	0xbe9b5959	-0.30341604
17	0xc0208bb1	-2.508526
18	0xbe19b8f8	-0.15011966
19	0xbf0f8f19	-0.56077725
20	0xbf190c01	-0.5978394
21	0xbfd77353	-1.6832069
22	0xbf8aa0ed	-1.0830361
23	0xbf198e33	-0.59982604
24	0xbee4b3a1	-0.44668296
25	0xbe25bdb9	-0.16185655
26	0xbf75357c	-0.95784736
27	0xbf9b69b3	-1.2141632
28	0xbe0d8f3c	-0.13824171
29	0xbf54dbbb	-0.8314778

fc3.weight f4 [30, 30]
0	0x3dec4e84	0.11538413
1	0xba970c80	-0.0011524111
2	0x3d39e544	0.04538466
3	0x3e35bbe6	0.17747459
4	0x3dc21470	0.094765544
5	0x3e0abe48	0.13549149
6	0xbd9c94f9	-0.07645602
7	0x3e23f710	0.16012216
8	0xbd63af14	-0.05558689
9	0xbdb72227	-0.08942061
10	0xbd21c2f8	-0.039492577
11	0xbcfc25f0	-0.030779809
12	0xbded2366	-0.11579017
13	0x3df70098	0.1206066
14	0xbc94a230	-0.018143743
15	0xbfc71aa7	-1.5555009
16	0xbf89acba	-1.0755837
17	0xbe116e77	-0.14202295
18	0xbbf6d120	-0.007532254
19	0xbdfbd45c	-0.12296364
20	0xbe079558	-0.13240564
21	0x3c46ce30	0.01213412
22	0x3e0cd65e	0.1375365
23	0xbd3374e4	-0.043812647
24	0x3d378490	0.044804156
25	0xbf626be6	-0.8844589
26	0xbd26f4c0	-0.040760756
27	0xbe24e601	-0.16103365
28	0x3d8ca7a4	0.068679124
29	0x3d3ee7e8	0.04660788
30	0xbdb6e2d2	-0.08929981
31	0xbd97c24d	-0.07410107
32	0x3de2ec3c	0.110802144
33	0x3d4efe38	0.05053541
34	0xbd880e3c	-0.0664334
35	0x3e114bbe	0.1418905
36	0x3db9fba8	0.09081203
37	0xbff60edd	-1.9223286
38	0x3fe498b8	1.7859106
39	0x3b618140	0.0034409314
40	0x3fe1b902	1.7634585
41	0xbd9f4169	-0.07776148
42	0xc00354a9	-2.0520422
43	0x3cfab270	0.030602664
44	0xc00bf858	-2.1870327
45	0xbfeb844b	-1.8399748
46	0xbe27ae86	-0.16375169
47	0xbfd470d4	-1.6596932
48	0x3dbb7948	0.09153992
49	0xbe238e59	-0.1597227
50	0xbd08c654	-0.033392265
51	0xc00f117c	-2.2354422
52	0xbfa1c02a	-1.2636769
53	0xbdda17ca	-0.10649069
54	0x3e19c67a	0.15017119
55	0xbe23c784	-0.15994078
56	0xbe354dfe	-0.17705533
57	0x40060d9e	2.0945811
58	0x3db3d5c0	0.08781004
59	0xbd88b5ba	-0.066752866
60	0x3ef17486	0.47159213
61	0x3e196790	0.14980912
62	0x3b2cf0c0	0.0026388615
63	0x3f09ce68	0.53830576
64	0x3f1d3a17	0.61416763
65	0x3f2600d4	0.64845014
66	0x3df6d13c	0.12051627
67	0xbe291f7b	-0.16515915
68	0xbeda2357	-0.42605087
69	0x3d8af704	0.06785396
70	0xbcda38b0	-0.026638359
71	0xbe3882a1	-0.18018581
72	0xbf2ed441	-0.68292624
73	0x3f13dd85	0.57759887
74	0xbdfe7484	-0.12424567
75	0xbe517a1a	-0.20456734
76	0xbe5b0151	-0.21387221
77	0x3dd8adb0	0.10580003
78	0xbdf4d127	-0.11953955
79	0xbd457efe	-0.048216812
80	0xbf3779fd	-0.71670514
81	0xbe57c8f7	-0.21072756
82	0x3cf0e7e8	0.029407457
83	0x3ef70cf6	0.48252076
84	0x3f0634ec	0.524245
85	0xbe5b1060	-0.21392965
86	0x3f1ee1cb	0.6206328
87	0xbe60cdd5	-0.21953519
88	0xbd64181c	-0.055687055
89	0xbee66eb7	-0.45006344
90	0xbefc6f27	-0.49303553
91	0x3d91d920	0.071214914
92	0x3dfa06ac	0.12208304
93	0xbf0353d1	-0.5129977
94	0xbf00da64	-0.5033324
95	0xbf156d9a	-0.58370364
96	0xbdad4e99	-0.08462257
97	0xbff3b8d6	-1.9040782
98	0x4002880c	2.0395536
99	0xbe29363e	-0.16524598
100	0x3fff7dc6	1.9960258
101	0xbee35b48	-0.4440558
102	0xc0062c54	-2.0964556
103	0xbf0d925d	-0.5530146
104	0xc0064d99	-2.0984862
105	0xbf9815c2	-1.188164
106	0xbee4860a	-0.44633514
107	0xbfd0cffa	-1.631347
108	0xbe0bbae0	-0.13645506
109	0xbf1a46de	-0.60264385
110	0xbcd43998	-0.02590637
111	0xc00eb089	-2.2295249
112	0xbf356d82	-0.7087022
113	0xbf31aea2	-0.69407094
114	0xbf1af3ce	-0.60528266
115	0xbf172af3	-0.5904991
116	0x3f32c892	0.69837296
117	0x3e0fc04f	0.14038204
118	0xbc573050	-0.013134077
119	0xbc69b590	-0.014264479
120	0xbe1c9b8a	-0.15293708
121	0x3e351134	0.17682344
122	0xbd8bff82	-0.068358436
123	0xbc43bb00	-0.01194644
124	0x3e0f5968	0.1399895
125	0xbf3a3c27	-0.72748035
126	0xbd8d941a	-0.06913014
127	0xbe12b482	-0.14326671
128	0xbe03d598	-0.12874448
129	0x3dde37ac	0.10850462
130	0xbd181f94	-0.03713949
131	0xbe3c9662	-0.18416741
132	0xbe37fc3b	-0.17967312
133	0x3cdfbcc0	0.027311683
134	0xbdd24aab	-0.10268148
135	0xbebe2fb7	-0.3714578
136	0xbeb9112e	-0.3614592
137	0x3d7bd7a0	0.061484933
138	0xbd9c8e12	-0.07644285
139	0xbea1c36d	-0.3159441
140	0xbf183906	-0.5946201
141	0xbe974b50	-0.29549646
142	0x3dd656b0	0.10465753
143	0x3ddf5aac	0.10905966
144	0xbe224ed6	-0.15850386
145	0xbe9fa5d8	-0.31181216
146	0xbf1ea003	-0.6196291
147	0xbec28fca	-0.38000327
148	0x3d2f1530	0.042744815
149	0xbeda6e35	-0.42662206
150	0xbefdcf8c	-0.49572408
151	0xbd2c19c0	-0.042016745
152	0xbc9b60b8	-0.018967018
153	0xbf3327c9	-0.6998258
154	0xbf4349ed	-0.76284677
155	0xbf256f20	-0.6462269
156	0x3e125418	0.14289892
157	0xbc43b730	-0.011945531
158	0xbeb5f916	-0.355416
159	0x3d7a7718	0.061148733
160	0x3e1ed50e	0.15510961
161	0xbf4388c8	-0.76380587
162	0xbebdaa47	-0.37043974
163	0xbf294c33	-0.66131896
164	0xbdb6d0e8	-0.089265645
165	0xbe48f0bf	-0.19623087
166	0xbf5100de	-0.8164195
167	0x3e0ee8b8	0.13955963
168	0x3d702e18	0.05863771
169	0xbf14ede2	-0.5817548
170	0xbc666ad0	-0.014063552
171	0xbebba012	-0.3664556
172	0xbdfacf73	-0.12246599
173	0xbf06e3d2	-0.52691376
174	0xbee01c35	-0.4377152
175	0xbf6c5091	-0.92310435
176	0x3f259e30	0.646945
177	0xbf4a01ec	-0.7890918
178	0xbe381a80	-0.17978859
179	0xbb986d40	-0.0046516955
180	0xbb3ed540	-0.0029118806
181	0xbcbb4fb0	-0.022865146
182	0xbcfb9308	-0.030709758
183	0x3e174e42	0.14775947
184	0x39f5e200	0.00046898425
185	0x3e0cc4e2	0.1374698
186	0xbe1e9089	-0.15484823
187	0xbfed16b7	-1.8522557
188	0x3fdecde3	1.7406582
189	0xbd1c28e0	-0.03812492
190	0x3ff29b52	1.895365
191	0x3dc2e2f4	0.09515944
192	0xbffa791a	-1.9568207
193	0x3c21f920	0.009886056
194	0xbff9a6d7	-1.950404
195	0xbfdfd55b	-1.7486986
196	0xbdbe51fc	-0.09292981
197	0xbfe1fef9	-1.7655936
198	0x3c7a80d0	0.0152895
199	0x3d740374	0.059573606
200	0x3d9ad3f4	0.07559958
201	0xc0032d93	-2.0496566
202	0xbfa52797	-1.2902707
203	0x3d377708	0.04479125
204	0xbe30ea2e	-0.17276832
205	0xbe147782	-0.14498714
206	0xbde1725c	-0.110081404
207	0x40007d22	2.0076375
208	0xbb56aa00	-0.0032755136
209	0x3dee3cac	0.11632666
210	0x3e02cbea	0.127731
211	0x3d0fc398	0.035098642
212	0xbfa89731	-1.317114
213	0xbc07cce0	-0.008288592
214	0xbe029d6f	-0.12755369
215	0x3d181b1c	0.03713523
216	0xbf2ff944	-0.68739724
217	0xbc7f1369	-0.015568593
218	0xbd7d2554	-0.061803177
219	0xbd6e09e5	-0.058114905
220	0xbde802d1	-0.11328662
221	0x3e74674f	0.23867534
222	0xbf5dd54e	-0.866536
223	0xbe1bee5d	-0.15227647
224	0xbd4064e8	-0.04697123
225	0xbf1f4dca	-0.6222807
226	0xbe2f2e55	-0.17107518
227	0xbd8d2891	-0.06892503
228	0x3da8fa7c	0.08250901
229	0xbf31a0cb	-0.69385976
230	0xbd868f49	-0.06570298
231	0xbdde3679	-0.108502336
232	0x3db2bb9c	0.0872719
233	0xbe335a2b	-0.17514865
234	0x3d9ef210	0.077610135
235	0xbebca284	-0.3684274
236	0xbde53934	-0.11192551
237	0x3ebf49a3	0.37360868
238	0x3e0ac894	0.13553077
239	0x3f1a868a	0.6036154
240	0xbdff64de	-0.12470411
241	0xbb337f00	-0.002738893
242	0xbdb871c8	-0.09006077
243	0x3daa3990	0.083117604
244	0x3db0e2b4	0.0863699
245	0x3d69aad0	0.057047665
246	0xbd8c4c0a	-0.06850441
247	0xbd4de8a8	-0.050270706
248	0xbd9fd84b	-0.078049265
249	0x3c2545a0	0.010087401
250	0x3e066ed2	0.13128212
251	0xbe02e114	-0.12781173
252	0xbd8c7235	-0.06857721
253	0x3dcea21c	0.10089514
254	0xbd563374	-0.052295163
255	0xbcb21f78	-0.021743521

fc3.bias f4 [30]
0	0xbf958728	-1.1681871
1	0xbfa0761e	-1.2536047
2	0xbe9dd551	-0.3082681
3	0xbfa391e0	-1.2778893
4	0xbee17d27	-0.44040796
5	0xbf7e99df	-0.9945354
6	0xc0259ff6	-2.5878882
7	0xbe2d924e	-0.16950342
8	0xbe1b31df	-0.15155743
9	0xbf201caf	-0.6254377
10	0xbfbd8e28	-1.4809008
11	0x3fac47b2	1.345938
12	0xbf90ba36	-1.1306827
13	0xbee6c37c	-0.45071018
14	0xbef08247	-0.46974394
15	0xbf3c4bc4	-0.7355311
16	0xbdd93d4d	-0.10607395
17	0xbe32e257	-0.17469154
18	0xbd40d776	-0.04708048
19	0xbf734267	-0.95023197
20	0xbfcab16d	-1.5835396
21	0xbf0b9ed5	-0.54539233
22	0xbf6b92fd	-0.9202116
23	0xc01be6d7	-2.4359643
24	0xbe14d581	-0.1453457
25	0xbf3b54a8	-0.7317605
26	0xbf01dc2f	-0.507266
27	0xbf286b55	-0.65788776
28	0xbf9cc0da	-1.2246354
29	0xbe86b750	-0.2631173

fc4.weight f4 [1, 30]
0	0x3f9e176f	1.2350901
1	0xbff1571f	-1.8854712
2	0xbe909d7c	-0.2824515
3	0xbf8583fe	-1.0430906
4	0xbecacbe3	-0.39608678
5	0x3ede0e6f	0.43370387
6	0xbfc94789	-1.5724956
7	0x3e2e5510	0.17024636
8	0xbe31dcd0	-0.1736939
9	0xbeaeb3f3	-0.34121665
10	0xbf747b57	-0.955007
11	0xbebc1e21	-0.36741737
12	0xbf709d5a	-0.939901
13	0xbeacb585	-0.33732238
14	0x3ecf0811	0.40435842
15	0xbef9531c	-0.4869622
16	0xbeabd087	-0.3355753
17	0xbe172b75	-0.14762671
18	0x3e28bf09	0.16479124
19	0x3e5b0c1a	0.21391335
20	0xbf727922	-0.94716084
21	0x3f0689ae	0.5255383
22	0x3e9efdd9	0.31053045
23	0xbeecf39b	-0.46279606
24	0xbe2547b7	-0.16140638
25	0xbf05e956	-0.5230917
26	0x3eb4c640	0.35307503
27	0xbee13517	-0.43985817
28	0xbf7a78db	-0.9784066
29	0xbe99d9d9	-0.30049017
