ActorModel.pt (torch, 70027 bytes, 7 tensors)

fc1.weight f4 [90, 3]
000000 4c 70 b4 3e 2c 42 dd 3e 6d 4a 63 3e b6 d6 e1 bd
       0.35241926 0.43214548 0.2219636 -0.11027281
000010 31 88 dc 3e 1a 5c 01 bf 3f 97 20 be 59 3c 33 bc
       0.43072656 -0.5053116 -0.15682696 -0.010939681
000020 ce 18 82 be 01 10 74 3e ea 02 e8 3d bb 59 a7 bd
       -0.2540955 0.2383423 0.11328681 -0.081714116
000030 51 46 b6 3d 81 46 db be f3 0f 05 3f d5 29 cd 3e
       0.089001305 -0.42827228 0.5197746 0.40070978
000040 49 ba a3 bb 46 20 06 3d 02 03 49 3e a7 01 ca 3d
       -0.004996572 0.032745622 0.19630054 0.098635964
000050 86 2b ab 3e 5d 56 79 3d 55 ba 9b 3e 44 a1 b5 3e
       0.33431643 0.060873378 0.30415598 0.35474598
000060 01 0d a6 be 03 ad 31 be e3 5d 4f 3d 53 6e b2 3e
       -0.32431796 -0.17351155 0.050626647 0.34849796
000070 fc 50 b6 be d6 90 04 3f c8 77 4c be 3b 09 51 be
       -0.3560866 0.517835 -0.19967568 -0.20413677
000080 7c 24 9f be 95 e6 81 be db a1 1c 3e c6 3f 8a be
       -0.31082523 -0.25371233 0.15296118 -0.2700178
000090 c1 fc 35 be e0 fe 7f 3e aa a4 ae 3e eb 4d a6 be
       -0.17772199 0.24999571 0.34110004 -0.32481322
0000a0 8e e5 0b be 58 ed bf 3e fd 78 ab 3e a9 f2 88 3e
       -0.13661787 0.37485766 0.33490744 0.26747635
0000b0 fd 57 46 3e 5c 0e e1 be d1 3d b2 be da 29 f6 3e
       0.19369502 -0.43956268 -0.34812787 0.48078805
0000c0 3d 5b 97 be 56 81 14 be c3 0a 47 3d c3 0f 1d 3e
       -0.29561797 -0.14502463 0.048594248 0.15338044
0000d0 c0 bc 07 bf e4 4e 5b bd 88 a0 5f be d1 9a e4 be
       -0.53022385 -0.053542033 -0.21838582 -0.44649366
0000e0 b1 eb 0f bf a3 8f 01 bf 0b ce 4a 3e d3 34 80 3e
       -0.5621901 -0.506098 0.19805162 0.25040302
0000f0 61 25 ae be 37 71 9e 3e 69 48 50 3e c4 f4 cd 3e
       -0.34012893 0.3094575 0.20340122 0.40225804
000100 1d 24 fa 3e 4f f2 c6 be 22 96 b7 3e 3f 03 35 be
       0.48855677 -0.38856742 0.3585673 -0.1767702
000110 25 87 90 be c2 10 dc 3e 77 49 a4 be c9 7b 8a 3d
       -0.28228107 0.42981535 -0.320873 0.067618914
000120 8d c6 b9 3d 9c a0 4b be 32 dc 08 bf f9 d9 4c be
       0.09071074 -0.19885486 -0.5346099 -0.20005025
000130 7e e8 93 3d 11 42 98 be 0f af 3c 3e 6b 3f ed be
       0.07222079 -0.29737905 0.18426155 -0.46337447
000140 86 d9 f8 be 62 b8 7c bd 9c 11 05 bf 96 d4 4c be
       -0.48603457 -0.06169928 -0.51979995 -0.2000297
000150 76 e1 83 be 15 1d a5 3e 6c da e7 3e 8b a4 40 be
       -0.2575795 0.3224875 0.4528383 -0.18812768
000160 4a df 80 be c8 cc d4 be 05 a6 b7 3e 42 5f de bd
       -0.25170356 -0.41562486 0.3586885 -0.10858013
000170 e7 56 00 bf a8 f7 ce 3d d4 0d 38 3e 00 89 d4 3b
       -0.501326 0.101058304 0.17974025 0.0064860582
000180 37 5c 19 3e 7f ca c5 be 3d 23 92 be f2 07 f2 bd
       0.14976583 -0.38631055 -0.2854251 -0.11817922
000190 5a 9f e6 3e fe b4 e0 be 11 81 25 3e 4d 6c 3f bd
       0.4504345 -0.43888086 0.16162516 -0.046734143
0001a0 35 22 cd 3e 1b f5 4a 3e e7 7f 01 bf 83 a2 d5 be
       0.4006516 0.19820063 -0.5058579 -0.4172555
0001b0 5a 4b e3 be 27 0f f3 3e 1b 8d fb 3e 27 29 71 3e
       -0.44393426 0.47472498 0.49131092 0.23550855
0001c0 51 79 d8 bd d7 4e e1 3d e3 90 03 3e 01 1d 42 be
       -0.10570014 0.11001366 0.12848239 -0.18956377
0001d0 84 c1 11 bf 8a 03 a2 3d 2d a4 b6 3e 51 a5 c7 be
       -0.56935906 0.07910831 0.3567213 -0.38993314
0001e0 fe 18 0b be 5e 06 d5 be c0 6b cf be db a6 c3 be
       -0.13583753 -0.4160642 -0.40511894 -0.38213238
0001f0 3f cc cf 3e cf 00 82 3e 25 f7 ea bb da 09 db 3e
       0.40585515 0.25391242 -0.007170575 0.42780954
000200 4b 58 da be 5e f4 91 be c7 dd 22 3e ff 28 63 3e
       -0.42645487 -0.2850675 0.15904914 0.22183608
000210 a9 50 05 3f 59 1a 5f 3e 5a 99 bc be f1 f4 8a be
       0.520762 0.21787395 -0.36835748 -0.2714
000220 4c 3f bb 3c 3e f7 09 3f df 22 d0 3e 3a c9 36 bc
       0.02285733 0.53892887 0.40651605 -0.011156375
000230 bb c9 05 be 83 d6 07 3f 8b db be 3e ed df 94 bd
       -0.13065235 0.53061694 0.37276873 -0.07269273
000240 34 ad 8c 3e f2 85 93 be ee b6 72 3e 9f 31 9b bd
       0.27475893 -0.2881313 0.23702595 -0.07577824
000250 90 c6 9b bd 42 88 ee be a4 bc 04 bf 1d 4d 8c be
       -0.07606232 -0.4658833 -0.5185034 -0.27402583
000260 9a f1 ec be 9d 76 58 bc 09 fd be be eb aa 3a be
       -0.46278077 -0.013211873 -0.37302426 -0.18229263
000270 0b 75 90 3e 01 ef bf 3e 92 d3 af 3e c5 19 9f be
       0.28214297 0.37487033 0.34341103 -0.31074348
000280 40 15 8f 3c 00 7c ae bb 3e c7 3b 3e 65 a7 cc bd
       0.017466187 -0.0053248405 0.18337724 -0.099928655
000290 95 8d 12 3f 47 19 b8 3e 23 ac d0 3e d3 40 02 bf
       0.5724729 0.35956785 0.4075633 -0.50880164
0002a0 d0 d3 f8 3e 87 0a 32 3e 3a 47 b0 3d 64 bf a1 be
       0.485991 0.17386828 0.086073354 -0.31591332
0002b0 a9 45 8b be 01 d2 f7 3e 35 50 a3 be de b3 10 be
       -0.27201584 0.48402408 -0.3189713 -0.14131114
0002c0 00 70 60 3e 32 16 db be 2b da 0f bf 44 41 bc be
       0.21917725 -0.4279037 -0.5619227 -0.36768544
0002d0 0e 2d 79 3e 0a 60 9a bd 91 b0 0b bd 88 16 b2 3e
       0.24333593 -0.07537849 -0.034103934 0.34782815
0002e0 7c 66 f7 3e 91 91 bf 3e bc 96 5e be 19 6c f2 3d
       0.48320377 0.37415746 -0.21737188 0.11837024
0002f0 ef 18 9f be b3 dc 85 3e 38 5a 14 3f d7 29 f9 bd
       -0.3107371 0.26144943 0.5795016 -0.121661834
000300 20 43 80 3e b9 1b 05 bf ff a1 bf 3e 1f b4 fc 3e
       0.25051212 -0.51995426 0.3742828 0.4935617
000310 6d da 35 3e 44 f2 f3 bd 3d bb d6 be 08 bd a8 3e
       0.17759104 -0.11911443 -0.41939726 0.3295672
000320 91 27 03 bf 49 d8 1a 3f a2 08 12 3f f1 14 b8 3d
       -0.5123225 0.60486275 0.5704442 0.08988369
000330 6f aa e0 3e 28 58 e5 bd 2a e0 94 3e 4a 42 e0 3d
       0.4388003 -0.11198455 0.29077274 0.10950144
000340 8e 88 7e 3e 1d 85 2e bd 22 42 1e 3f 0a 2b 6d be
       0.24856779 -0.042607415 0.6181966 -0.2316095
000350 97 1d a0 bb c9 40 af bc 64 36 83 be d3 c9 87 be
       -0.00488634 -0.021393197 -0.25627434 -0.26521167
000360 3e a7 80 be 18 82 6f 3e c0 a5 2d bc 63 24 8a 3e
       -0.25127596 0.2338947 -0.0105986 0.26980886
000370 6b 15 61 be 6f 33 c8 be 8c 79 01 3f 9d 0e 22 bd
       -0.21980827 -0.3910174 0.5057609 -0.039564718
000380 23 d8 8d bc a8 54 4e be 9e 85 c7 3e 29 56 a7 be
       -0.017314976 -0.20149481 0.3896913 -0.32682922
000390 f5 f0 a9 be 8f a0 a8 3e a7 65 05 3f 47 4e a2 3e
       -0.33191648 0.32934996 0.52108234 0.31700346
0003a0 8f 35 e5 3e 2e 4d 95 3d c0 a5 33 bd 4f 09 14 3e
       0.44767424 0.072901115 -0.043859243 0.14456676
0003b0 83 2a 07 3f b6 ba 05 3f 3a f5 f8 be 0a dc 93 be
       0.5279924 0.52238023 -0.48624593 -0.28878814
0003c0 19 96 03 bf fe 18 0d bf 6e dd ce 3e 7a 3d c2 be
       -0.51400906 -0.5511626 0.40403312 -0.37937528
0003d0 14 0c 85 3e 7c cd ae be 49 c6 8d 3e f3 80 cc be
       0.25985777 -0.34141147 0.27690342 -0.3994213
0003e0 2f 5d f1 bd 2f 9f ee 3c a1 1b bf bd 4e 32 06 3e
       -0.117853515 0.029128639 -0.09331442 0.13105127
0003f0 b6 58 1f bf a5 58 0b 3f 11 13 44 3e ab 33 6c be
       -0.6224474 0.54432136 0.19147898 -0.23066585

fc1.bias f4 [90]
000000 a9 71 98 3b 3b ac 0e 3d ad 95 b8 3d 92 02 8d 3e
       0.004652221 0.03483222 0.090129234 0.27541023
000010 1b d6 f4 3e 16 d7 c8 3e c5 95 c8 3c 26 6d c4 3e
       0.478196 0.39226598 0.024485478 0.38364524
000020 68 c4 95 be 20 05 01 bf f4 2d ae 3e e2 ad b6 be
       -0.2925141 -0.50398445 0.34019434 -0.35679537
000030 95 71 bf 3e 54 6a ed be 57 0a 9e 3e 0c 43 b9 bc
       0.37391344 -0.46370184 0.30867264 -0.022614978
000040 21 48 8d be 1b 1d 1d be 59 37 14 bf 81 38 43 bb
       -0.27594092 -0.15343134 -0.57896954 -0.0029788318
000050 6a 89 49 3d af 89 ab 3c 3f df bc bd bc 3d 93 be
       0.049203314 0.020939676 -0.09222268 -0.28758037
000060 0e 0b 0f 3f 2e 56 a2 3e 73 97 a4 be 26 46 e7 3d
       0.55876243 0.31706375 -0.32146797 0.11292677
000070 cc d4 b4 be 1e 1e bb be 4a c9 27 3d 5a 97 ae be
       -0.353186 -0.36546415 0.04096345 -0.34099847
000080 79 b1 01 bf 4e f0 0d 3f 6f a1 09 3f de f7 a5 3e
       -0.50661427 0.554448 0.53761953 0.3241567
000090 25 a5 50 be b7 86 49 3e b4 b0 09 bf ef 70 10 3f
       -0.20375498 0.19680296 -0.5378525 0.56422323
0000a0 f7 bd b0 3e 55 04 8f 3e 94 66 93 be af 9d 05 bf
       0.34519932 0.27932993 -0.28789198 -0.5219373
0000b0 87 11 6b be 91 c3 55 3e 95 ac db 3e db 40 7e 3e
       -0.22955905 0.20875384 0.42905107 0.24829428
0000c0 53 e1 ba be e0 e9 85 bb 16 c1 1e 3e 68 91 b8 3e
       -0.36500034 -0.004086718 0.15503344 0.36048436
0000d0 fe 59 28 be 7c f2 e3 be 5d 59 d4 3e 77 49 dc be
       -0.1644058 -0.44520938 0.4147443 -0.430248
0000e0 4c 88 b7 be 4a 3d 0b 3f b5 cb e1 3d 8f 4f b8 be
       -0.35846174 0.54390395 0.11025182 -0.35998198
0000f0 77 b7 bb 3e b3 a2 38 be 30 ec bb 3e 28 96 dd bd
       0.3666341 -0.18030815 0.36703634 -0.10819656
000100 40 a8 0f be b0 be 0d bd 5f 4f 61 3e 2e 2a 04 3f
       -0.14029026 -0.034605682 0.22002934 0.5162686
000110 26 1e 47 3e 87 15 c4 bd 99 51 0a 3e be 8c 01 3e
       0.19445094 -0.095744185 0.1350769 0.12651345
000120 a9 3f 01 bf d4 9b ee be d5 30 ed bd 2d 8f 51 be
       -0.5048776 -0.46603262 -0.115815796 -0.20464773
000130 21 42 0d bf 2e 40 01 bf a5 e5 1d be b8 14 fc be
       -0.5517903 -0.50488555 -0.15419634 -0.49234557
000140 1f 53 ac be 1e f5 b3 3e cc ea 56 be 78 5e 43 bc
       -0.33657166 0.35147947 -0.20988005 -0.011924379
000150 8e 93 ff 3e 72 ac af be 96 18 8f 3e 2e 52 af 3e
       0.49917263 -0.34311253 0.27948445 0.34242386
000160 5a d2 9d 3d f8 1c fd 3e
       0.07706137 0.49436164

fc2.weight f4 [90, 90]
000000 e1 3f b5 3d ec b9 fc 3c 78 b0 77 bd 2d f0 3f 3d
       0.088500746 0.030850373 -0.060471028 0.04685991
000010 5b 0d c0 3c 49 3a 2a 3d 94 63 89 3d 84 b0 75 bd
       0.023443868 0.04155949 0.06708446 -0.05998279
000020 70 5a a2 bd d7 a8 a6 bd bf ee f0 bd 3b 63 73 bd
       -0.07927406 -0.081376724 -0.11764287 -0.059420805
000030 97 f4 19 3d d5 96 ce 3c 76 7b dd 3d ae a4 c7 3b
       0.037586775 0.025218407 0.10814564 0.0060926294
000040 e6 50 c8 3a 84 7d 95 3d d6 84 d9 bc be 2d b2 3b
       0.0015282899 0.07299331 -0.026552599 0.005437582
000050 b2 c9 8f 3d 04 ca 03 3d 7d 18 8f 3d d9 12 7e 3d
       0.07020892 0.03217508 0.06987093 0.062029693
000060 ae 22 4d 3d 46 13 ac bd d6 d0 c8 bc 53 1a d5 bd
       0.0500819 -0.084021136 -0.024513643 -0.104054116
000070 d0 0f 18 bd ba 1f 2a 3d 30 f3 de bd 49 88 b2 3d
       -0.037124455 0.041534163 -0.10886228 0.087174006
000080 80 cb 99 bd 60 2f b3 3d 30 ce d3 3c ab a4 47 3d
       -0.07509518 0.087492704 0.025855154 0.048741024
000090 c9 49 83 3c 2d ff 11 bd 89 dc 9a bd 60 43 d9 bc
       0.016026394 -0.035643745 -0.07561595 -0.026521385
0000a0 e6 f2 62 3d dd eb 92 3c 8f b1 24 3c 3f bc c3 bc
       0.055407427 0.017934734 0.010052099 -0.023893474
0000b0 3b a9 db bd f7 1c 98 3d 32 6b 2a 3d 51 05 ca 3c
       -0.107256375 0.074273996 0.041606136 0.024660738
0000c0 b6 c7 d4 3d f5 b9 c7 3c 97 23 8f bd 6a b3 b4 bd
       0.10389654 0.024380663 -0.0698921 -0.08823283
0000d0 d3 eb b5 3d 1a 29 02 bd 81 75 35 3d 2b 03 47 bd
       0.088828705 -0.03177748 0.044301514 -0.048587006
0000e0 8c 63 0b 3e 89 1a e9 bc 1a 60 ae bc 0d 63 e2 bd
       0.13612193 -0.028455036 -0.02128606 -0.11054049
0000f0 ed 5c 80 bd d5 2b 3e 3d 7e ad 82 bd aa 8e a0 3d
       -0.06267724 0.04642852 -0.06380747 0.07839711
000100 57 e2 8c 3c 4e 68 89 bd 0e 19 b0 bd 80 c8 b0 3d
       0.017197771 -0.06709348 -0.08598529 0.08631992
000110 e3 45 07 3d 9b 02 59 bd 96 da a6 bc a6 93 58 3d
       0.033025634 -0.052981 -0.020367902 0.052875184
000120 60 f6 03 bd dd 81 8d 3d 7d aa cc 3d b6 7d 40 3c
       -0.032217383 0.06909535 0.099934556 0.011748722
000130 a0 a5 a0 3d 51 08 fb 3c 50 b1 c8 3d 11 9a 37 bd
       0.078440905 0.030643614 0.09799445 -0.044824664
000140 a1 bd bc 3d 78 79 dc bd 73 82 93 3d ba d1 c3 bd
       0.09215856 -0.10765356 0.072026156 -0.095614865
000150 8f 2e 4a 3d 2f 7e 94 bd 8f bc e1 3c f2 14 af bd
       0.049360808 -0.0725063 0.027555732 -0.08548917
000160 af 24 72 bd fd 31 60 3d 6a 6d 82 bd 86 82 81 bd
       -0.059117015 0.054735173 -0.06368525 -0.063237235
000170 88 bf 48 bc 2e c3 4d 3d 67 cd bd 3d f3 ca d4 bd
       -0.012252696 0.050234966 0.09267693 -0.10390272
000180 48 8e b8 bd 7f 67 a8 3d a1 ac d4 3d 42 c1 2d bd
       -0.09011513 0.08222865 0.10384489 -0.042420633
000190 c2 22 2f 3d 28 78 93 bd 80 59 70 bb 7c 65 ef 3c
       0.042757757 -0.07200652 -0.003667444 0.029223196
0001a0 1e 93 83 bd 07 f3 9d 3d 3c 45 fe 3c 0e 4b 1c 3d
       -0.06424545 0.077123694 0.031038873 0.038157515
0001b0 9d 5e cc 3d 54 8a b3 3c c0 69 5b bc 09 41 c9 bd
       0.099789836 0.021916546 -0.013391912 -0.098268576
0001c0 f6 ae 6a 3d aa 36 2e 3d 80 37 fd bb 36 dc b3 bd
       0.057295762 0.0425326 -0.0077275634 -0.08782236
0001d0 6e ee b1 bd 83 86 c8 bd 75 e0 8b 3d da 7d 64 3d
       -0.08688055 -0.09791281 0.06829921 0.055784084
0001e0 1c dd be 3c 18 1f be bc 08 bf 28 3c 03 ec 95 bd
       0.023298793 -0.023208186 0.010299452 -0.07320406
0001f0 d0 4c 75 bd 6e ab 5c bd ee 0e 95 bd 20 61 80 3c
       -0.059887707 -0.053874426 -0.07278238 0.015671313
000200 64 45 63 bd 00 47 3d bd 8c e7 fe 3c da 6b a9 bd
       -0.055486098 -0.04621029 0.03111627 -0.08272524
000210 1e a4 18 3d 48 fe a0 bd 91 d9 69 bd ba 3a b0 bd
       0.03726589 -0.07861 -0.057092253 -0.08604951
000220 32 08 85 bd d4 b5 22 bd f0 3e b2 bb 70 85 65 3c
       -0.06495704 -0.039724186 -0.0054396316 0.014008865
000230 bc b8 cd bc 00 5b e3 b9 b5 19 8d 3d 93 73 bc 3d
       -0.025112502 -0.00043364614 0.06889669 0.092017315
000240 50 9a 20 bd 29 27 af bd c2 f0 a0 bd 5f 48 97 3d
       -0.039209664 -0.08552391 -0.07858421 0.073868506
000250 af 50 7c bd d6 f4 68 3d f4 ac b6 bd 42 7f 93 bd
       -0.061600383 0.05687412 -0.08919707 -0.07202007
000260 b0 74 8c bb 17 75 7f bd f9 f7 cc 3d 06 85 4e 3d
       -0.004286371 -0.062367525 0.100082345 0.05041983
000270 00 27 00 bd 55 6b 88 3d 1b 46 ba bd 00 af 32 bb
       -0.031287193 0.06661097 -0.09095403 -0.0027264953
000280 9c 6f b5 3c 8e d8 68 3d e5 2e 51 bd 1c eb 5a bd
       0.022147946 0.056847148 -0.051070113 -0.053446874
000290 96 e2 8e bd b2 9c 6b 3d b4 f9 d9 3c ac 54 ab 3c
       -0.069768116 0.057522483 0.026608326 0.020914398
0002a0 24 35 98 bc 9a f2 79 3d aa b5 6f 3d 40 5d 73 bb
       -0.018580027 0.06102238 0.058522858 -0.0037134439
0002b0 0c a7 9d 3c 2d 62 a6 bd d4 2e c7 3c 90 0d b7 bd
       0.019244693 -0.08124194 0.024314322 -0.08938134
0002c0 18 82 84 3c 8d ed a9 bd 14 48 c8 bd f4 d7 b9 bd
       0.016175315 -0.08297262 -0.09779373 -0.09074393
0002d0 d5 64 a7 bd 11 7f 76 3d 90 e7 29 3d 71 f3 84 bd
       -0.08173529 0.060179774 0.0414806 -0.06491745
0002e0 dd 25 d1 3d 2a 64 35 3d 1c 98 f7 3c 25 e2 82 3d
       0.102123 0.044284977 0.030223899 0.0639079
0002f0 2d bd 7c bd 69 9b 04 bd bf 67 14 bd 3b 13 d3 3d
       -0.06170385 -0.032374773 -0.036231752 0.10306402
000300 3c aa e0 3c c7 1f 90 bd 6c a7 a3 bd 54 95 4a 3c
       0.027424924 -0.07037311 -0.079909176 0.012364704
000310 48 f5 8e 3c 77 e6 85 bd c3 82 81 bd 11 91 7d 3d
       0.017450944 -0.06538098 -0.06323769 0.061905924
000320 a8 57 7a bd c1 eb 7b 3b 80 70 39 3d 19 e6 26 bd
       -0.06111875 0.003844008 0.045273304 -0.040746782
000330 37 f5 8b bd e2 7a 5a 3d eb 34 2b 3d 9d d5 cc 3b
       -0.068338804 0.053339846 0.041798513 0.0062510506
000340 07 22 0d 3c b7 07 bf bd 80 6f 6b 3c c3 3d bd 3d
       0.00861407 -0.09327643 0.014369845 0.09240296
000350 7d 64 86 3d 29 5a 51 3b db 0f 18 bc 19 4a 80 3d
       0.06562135 0.0031944609 -0.009281124 0.06264133
000360 55 71 33 3c 2a af 96 3c ed c1 81 bd 5b 8b 2b 3c
       0.010952313 0.018394072 -0.063358165 0.010470237
000370 32 ac 16 bc b7 27 25 3c aa 6d 02 bc 75 96 a0 3d
       -0.009196328 0.01008027 -0.007960716 0.078411974
000380 32 5c 88 3c 2d 07 81 3d 60 12 88 bd 2d 51 e6 3b
       0.016645525 0.06300197 -0.0664413 0.00702872
000390 a1 45 97 3b d5 bf 06 bd 55 d9 c9 3c 80 03 10 bd
       0.0046164547 -0.03289779 0.024639765 -0.035159588
0003a0 d9 11 3b 3c 52 10 0e 3d e4 71 45 3d ca e4 80 3d
       0.011417829 0.034683533 0.048204318 0.06293638
0003b0 71 c2 2a bd 15 a5 ab 3d b6 32 1a 3b 8e 03 dc bd
       -0.04168934 0.08381096 0.0023528761 -0.107428655
0003c0 9b 12 f6 3a 05 de 24 3d 62 61 10 3d db 82 d2 3d
       0.0018773855 0.040250797 0.03524912 0.10278865
0003d0 9e 15 65 3d f1 81 ba bd d9 2e 9c 3c 45 f7 92 3d
       0.05592882 -0.091068156 0.019065307 0.07176069
0003e0 77 2e 41 3d f8 00 eb 3d c2 a8 8b bd b5 7b 97 bd
       0.047163453 0.11474794 -0.068192974 -0.07396642
0003f0 00 d4 ab bd c2 c6 af bc 3e 06 05 bd 65 6c cc 3c
       -0.08390045 -0.02145708 -0.032476656 0.02495403

fc2.bias f4 [90]
000000 f8 99 7c bd 89 e5 bb 3d c8 34 e3 3d 5f d4 18 3d
       -0.061670274 0.0917464 0.110940516 0.037311908
000010 ad 09 6d bd a2 8e 90 3d 64 94 a8 3d 0c b3 44 bd
       -0.057870556 0.07058455 0.08231428 -0.048022315
000020 5b d9 64 bd 1e 9a b7 bd 84 e1 be bd 33 7d 10 bc
       -0.05587135 -0.089649424 -0.093203574 -0.008818912
000030 18 38 85 3d 74 38 c1 bc 7b 6b 31 3d 13 c8 0f bd
       0.0650484 -0.02358649 0.043315392 -0.035102915
000040 d6 1c 0a bd d7 df e4 3b 13 6a 62 3c 45 52 80 3d
       -0.033718906 0.0069846916 0.013819235 0.06265692
000050 ed c1 45 bc a4 5f 33 bd 35 a2 c9 bd b2 3a 69 bd
       -0.012070161 -0.043792382 -0.09845392 -0.05694074
000060 d7 bf 21 bd 7f cc b7 3d 3e b8 9b 3d 6d 9e 88 3c
       -0.039489593 0.089745514 0.07603501 0.016677106
000070 e0 38 40 bc 87 d9 e1 3d db 0c 7f 3c b5 6d 24 3d
       -0.01173231 0.11027818 0.01556703 0.040143687
000080 5b 98 8a 3c 2a 98 21 3d 58 ef a3 bc 95 ea 1e 3d
       0.016918352 0.039451756 -0.020011589 0.038797934
000090 c8 4d 90 3a b7 32 35 3d 7e b0 65 bd c7 d0 8b 3d
       0.0011009509 0.04423782 -0.05607652 0.068269305
0000a0 77 14 5e bd c9 36 8f 3d bc 51 66 3d aa 8b 3a bd
       -0.054218736 0.06992871 0.05623029 -0.04554335
0000b0 7e b7 83 3d b4 54 8d bd 8d 0b 8f 3d 60 e6 57 3d
       0.06431483 -0.069009215 0.06984625 0.052709937
0000c0 bd bf 6f bd 56 17 bf bd 14 da 4b 3d 11 5e b4 3c
       -0.058532465 -0.09330623 0.049768522 0.02201751
0000d0 1b 11 d5 3c 75 eb 32 bd 29 73 80 3d 5d a8 07 3d
       0.026009133 -0.04368158 0.06271965 0.033119548
0000e0 e5 1b c0 bd 21 99 ad bd df 69 85 bd 6b 26 e9 3c
       -0.093803205 -0.08476473 -0.06514334 0.028460702
0000f0 ef c9 9d bb aa ac cd bd 7d 99 53 3c f6 a9 93 bd
       -0.004815332 -0.10042699 0.012915012 -0.07210152
000100 a6 31 b1 bd 20 ab 50 bb c4 6a f1 3c 27 32 0b bd
       -0.08652048 -0.003184028 0.029469855 -0.033983376
000110 b1 ca 96 bd bb b8 0c ba 14 6d 14 3d 77 de dc bd
       -0.07362879 -0.0005368103 0.036236838 -0.10784619
000120 ab 9f 55 3d e0 8f 51 3d ce 7f b3 3d d0 40 ad bc
       0.052154224 0.0511626 0.08764611 -0.02114907
000130 23 fa c0 3d f9 a1 9e 3d 60 c4 a5 3d 90 c0 97 3d
       0.0942271 0.077457376 0.08094096 0.07409775
000140 ec a1 e6 bd 17 56 c3 3d 6c cc 9a 3d 39 5d 8c bd
       -0.11261353 0.09537905 0.07558522 -0.06853718
000150 98 e1 a3 bc c8 f0 a1 3c 4d 5c 18 3d 03 f9 05 bd
       -0.020005032 0.019768134 0.0371974 -0.03270818
000160 25 28 d7 bd 3a af 68 3d
       -0.10505704 0.056807734

fc3.weight f4 [90, 90]
000000 ee 87 a5 3d 8f 08 af bd 3e a4 8a 3d bf 7e 92 3d
       0.08082567 -0.08546554 0.06769608 0.07153081
000010 aa b0 3c 3c f1 f2 f3 bc 28 b1 31 3d f1 e3 3d bd
       0.011516729 -0.02977893 0.04338184 -0.04635996
000020 00 67 2a 3b 5f 37 9f 3d 10 22 08 3e 38 ed 7e 3d
       0.0026001334 0.07774233 0.13294244 0.06223795
000030 27 65 b0 3d e2 e2 33 3d cc 2c 13 bd 51 99 70 bd
       0.08613043 0.043917544 -0.035931394 -0.058739964
000040 cd ef b8 bd 45 07 33 3d 7b 0b 2c 3d 7d 92 24 3b
       -0.09030113 0.043708105 0.042003136 0.0025111728
000050 42 fe 74 3d 42 a4 5b bc d7 57 a7 3d 35 7f 08 3a
       0.05981279 -0.013405861 0.08171051 0.00052069436
000060 00 b8 89 bd 72 f3 a0 bb fc 43 63 b7 f7 bc 7b 3c
       -0.06724548 -0.0049118334 -1.3546083e-05 0.015364877
000070 91 f5 88 3b 69 0f a0 3c cc f5 4a 3c fa 0a 55 3d
       0.0041796644 0.019538598 0.012387704 0.05201242
000080 e3 37 3d bd 31 9d 9b 3b a7 dc 67 3d c9 07 86 bd
       -0.046195876 0.0047489633 0.056606915 -0.06544454
000090 a2 f6 f0 bb 4a 84 5a bd 07 67 87 3d 26 c5 29 bd
       -0.0073536197 -0.053348817 0.06611448 -0.04144778
0000a0 e3 bc ad bd d8 2d d3 3d 93 d9 9a 3c 74 16 8f 3c
       -0.08483293 0.103114784 0.018902576 0.017466761
0000b0 5d 13 90 bd 1b 8c d7 3d 46 2a 39 3d c3 94 54 3d
       -0.07034943 0.1052477 0.04520633 0.051899683
0000c0 64 48 1d bd 37 d4 d8 bd 65 94 0d 3e d5 45 67 bd
       -0.038399115 -0.10587352 0.1382614 -0.05646308
0000d0 78 ab 90 bc 04 7d d2 3d c5 53 3f 3c 26 24 ef 3c
       -0.017659888 0.10277751 0.011677687 0.029192042
0000e0 f7 9d 1e bc f4 b0 d8 3c b0 1d 7f bd df 5c 49 bd
       -0.009681216 0.026451565 -0.06228417 -0.049160834
0000f0 a9 b8 99 bd 26 ff a6 3d 35 f2 89 3d 6a 75 05 3d
       -0.07505924 0.081541345 0.067356504 0.032582678
000100 5c 29 7a 3d 06 f1 0a bd fb a6 03 bd 25 79 c2 3d
       0.0610746 -0.033921264 -0.032141667 0.09495763
000110 17 58 b3 ba 8f 61 01 3d 69 ed ef 3c c0 b0 97 3c
       -0.0013682869 0.03158718 0.02928801 0.018516898
000120 92 b2 fd bc bf 08 a8 bd 42 a5 66 bd 2f 93 d3 bd
       -0.030968938 -0.08204793 -0.056309946 -0.103308074
000130 a8 c7 6b bb 93 aa c3 3c b9 d1 07 bd 48 b7 ef bb
       -0.0035977159 0.023885047 -0.03315899 -0.00731555
000140 20 7a 91 3d 06 9b 53 3d bd 29 8f bd 23 b0 0a bd
       0.071033716 0.051661514 -0.06990383 -0.033859383
000150 62 b0 c2 bd b9 9e 9d bc ff 03 e2 bc 08 ae 9d bd
       -0.095062986 -0.019240724 -0.027589796 -0.076992095
000160 99 47 84 3d fc ed 9d bd 85 8b cf bb b1 01 9f 3d
       0.06458969 -0.077114075 -0.0063337707 0.077639945
000170 ce dd a9 bd f4 5c 8b bd 06 f7 82 bc 72 54 7c 3d
       -0.08294259 -0.06804839 -0.01598693 0.06160397
000180 95 3c c6 bd 3e 7d e7 3c 6d 5d 4f bc 5b 29 a2 bd
       -0.09679524 0.028257962 -0.012656552 -0.07918044
000190 ae 47 7d 3d 12 13 8f bd 67 e7 8c 3d a7 a7 7e 3c
       0.061835937 -0.06986059 0.06880074 0.015542901
0001a0 c6 a0 ce bc ac b3 1a bd 4e 5b f4 bd b9 99 fd bc
       -0.025223147 -0.037769005 -0.119314775 -0.03095709
0001b0 b9 10 f8 3c 0b 8d ee 3c e5 dd 79 bc 49 f0 7f bd
       0.030281411 0.029119989 -0.015250658 -0.062485013
0001c0 f0 7a 01 3c 10 03 93 bd 43 f5 c3 bc 83 f8 a5 bc
       0.007902846 -0.071783185 -0.02392066 -0.020260101
0001d0 e3 18 66 3d 58 8b 5b 3c 21 98 5a 3d cd 26 ab 3d
       0.056176078 0.013399921 0.053367738 0.0835701
0001e0 e9 6a cd 3d 6a ef 24 3d 86 6a 40 bd 63 c5 88 bb
       0.10030157 0.040267386 -0.04697659 -0.004173921
0001f0 66 ab 59 3d 8d 0a b2 3d ac f7 56 3d f0 47 d5 bd
       0.053141974 0.08693419 0.052482292 -0.104141116
000200 85 5b 6e 3d 11 98 33 3c 80 d2 4a 3d 58 a1 3d 3d
       0.05819275 0.010961548 0.049517155 0.046296448
000210 cc 87 b6 3c 9e e9 6d 3d 55 05 83 bd 18 ae 06 3d
       0.02228155 0.058084123 -0.063975014 0.032880872
000220 c5 90 8d 3d ea 56 79 3d 8c 25 c4 bd dd 3f 08 bd
       0.06912378 0.060873903 -0.09577474 -0.03326403
000230 28 8d 0f 3c 3a 57 48 bd 85 68 95 3d a2 11 17 bd
       0.008761682 -0.04891131 0.07295326 -0.03688205
000240 25 4d e5 bb 6d 8e 53 bd 46 41 aa bd 26 90 36 3d
       -0.0069977217 -0.0516495 -0.08313231 0.044571064
000250 aa 56 4a 3d e8 ea 96 bd 4b 32 a5 3d 07 32 4c 3d
       0.049399056 -0.073690236 0.08066233 0.049852397
000260 8a d2 ce bc f5 70 a7 bd 3a 62 f2 3c 94 1f a3 bd
       -0.025246877 -0.08175842 0.029587854 -0.079650074
000270 40 f7 ad 3c 17 86 95 bd 94 dc 2f bc bb 53 b2 3c
       0.021236062 -0.07300966 -0.010733742 0.021768441
000280 dd 50 b3 3d 75 24 c6 3d 81 63 97 3d 59 14 b1 bd
       0.08755658 0.096749224 0.07392026 -0.08646459
000290 20 b9 26 3d 73 de c0 3d d7 19 c7 3c b6 bb ce bc
       0.040703893 0.09417429 0.024304314 -0.025235992
0002a0 35 72 86 3c 2a 5a 5d bd 61 08 8d 3d be 98 a2 bd
       0.01641188 -0.054041065 0.06886364 -0.079392895
0002b0 62 53 97 3d 0d 2b be bd 00 e8 c1 bd 66 78 8f 3d
       0.07388951 -0.09285555 -0.094680786 0.07005386
0002c0 f7 c4 e7 bc 27 61 ea bd d2 bf be bd 9e c1 07 3c
       -0.028292162 -0.114443116 -0.093139306 0.008285908
0002d0 49 e0 cc bd 45 24 bc 3d b0 44 af 3c 58 7e 39 bc
       -0.100037165 0.09186605 0.021395057 -0.011321627
0002e0 76 1b 47 3d c4 2c a2 3d ae 61 ca 3d 6f 70 ac bd
       0.048610173 0.079186946 0.09881912 -0.084198825
0002f0 83 f0 5e bd 24 e1 19 bd 00 5e 3f 3b 1d d2 92 bd
       -0.05442859 -0.037568226 0.0029200315 -0.07168982
000300 50 e8 c8 3b be cc ac 3d 1a 5a f0 3c a2 f3 75 bd
       0.0061312094 0.08437489 0.029339839 -0.0600468
000310 84 37 c9 3c 36 f9 7a 3c 7b 0a 92 3d 8e e6 fb 3c
       0.024562605 0.015318206 0.07130905 0.030749585
000320 0c 7a 9c 3d ef 9e c9 3d 41 d6 93 3d 6b a0 b0 bd
       0.07640466 0.09844767 0.072186 -0.08624347
000330 25 dd af bd 61 06 ac 3d e3 f8 7a 3d 01 76 80 bd
       -0.08587102 0.08399654 0.061272513 -0.062725075
000340 bd 0f 17 3d d6 c8 d7 bd 34 4a 8f bd 89 70 af bd
       0.036880244 -0.10536353 -0.06996575 -0.08566386
000350 bf d2 d3 bd 89 8d cf 3d 52 43 15 bd 9e e3 3a ba
       -0.10342931 0.101344176 -0.036441155 -0.00071292545
000360 d6 d1 09 bd 1c 45 bf 3c 74 92 95 bd 25 12 c3 bd
       -0.03364738 0.023348384 -0.07303324 -0.09524945
000370 11 45 3f 3c 2b 8e d4 bd 83 88 6c 3d e4 47 87 3c
       0.011674182 -0.10378679 0.057747375 0.016513772
000380 79 92 d5 bc 77 4b 93 3d 72 12 0c bd ab 3b ac bd
       -0.02607082 0.07192128 -0.03419728 -0.08409818
000390 a7 24 d7 bc fd 7c 12 3d 47 65 e6 bd a3 31 31 bd
       -0.026262594 0.03576373 -0.11249786 -0.043260228
0003a0 32 95 a3 bd 4b f0 ec 3c 2d 8a 01 3d 03 17 8c 3c
       -0.07987441 0.028923174 0.031625915 0.017100817
0003b0 3a b9 6b bd 12 52 41 3d fc 0f 85 3d 1c 66 32 3d
       -0.057549693 0.04719741 0.064971894 0.04355441
0003c0 d2 64 10 3c 3c bd a6 3a 4c b9 55 bc b1 3c b6 3d
       0.0088131 0.0012721191 -0.0130446665 0.08898295
0003d0 b0 93 f2 bc cd df ae 3d d2 51 1b 3d 45 c5 4e bd
       -0.029611439 0.0853878 0.037919827 -0.0504811
0003e0 b3 cc 78 3c 3b 6a 94 3d 29 9c b7 3d 9e ce 5f 3d
       0.015185523 0.07246824 0.08965332 0.054640405
0003f0 6c 6f c7 ba 56 61 8d 3b a9 37 29 3d dd d7 95 3d
       -0.0015215701 0.004314582 0.041312847 0.07316563

fc3.bias f4 [90]
000000 9f c6 a3 3d c3 c9 a8 3d a6 0e d5 bd f7 cf 7d bd
       0.07996868 0.08241608 -0.104031846 -0.06196591
000010 77 5f a8 3d 11 ba af bd 1d d4 81 bc db 21 1a bd
       0.082213335 -0.08580411 -0.015848214 -0.037629943
000020 8b f6 b3 3c 3d 8c dd 3d 7c 2e 97 bd 56 a8 27 3c
       0.021968147 0.10817764 -0.07381913 0.0102330055
000030 05 52 74 3d f8 d1 99 bc eb 4f c0 3b 8d fa 8c 3c
       0.059648532 -0.018776879 0.005868902 0.017209316
000040 e1 dc 9f 3d f1 e1 e5 3c da 79 91 3d 18 50 ef 3c
       0.07805801 0.028061839 0.071033195 0.029212996
000050 e7 66 38 3d 7a 91 7d 3d 40 db 41 bd f2 ab 91 bd
       0.04502001 0.061906315 -0.047328234 -0.07112874
000060 c0 53 dc bd f5 d3 96 3b 5b 7e a6 bc be 9c 1a 3d
       -0.107581615 0.004602904 -0.020323923 0.037747137
000070 24 7c de 3c 46 98 f9 bc 38 00 7b bc a3 70 63 3d
       0.027158804 -0.030468117 -0.015319876 0.05552734
000080 fa 9a c8 3c 90 3b d3 3c 65 2b a9 3d d0 c1 54 3d
       0.024487961 0.025785238 0.0826023 0.051942647
000090 09 17 2e 3d e1 2d 7e 3d 2f 04 05 bd 67 09 ea 3c
       0.042502437 0.062055472 -0.032474693 0.028568937
0000a0 79 25 a9 bd d5 6b b9 3d f7 24 48 3d 37 fb ce 3d
       -0.082591005 0.090537705 0.048863377 0.10106509
0000b0 c7 b2 f2 3c 5a ee cf bd 72 6d 58 bd fa 58 86 bd
       0.029626263 -0.10152884 -0.05283875 -0.0655994
0000c0 08 d5 74 bd b8 2e 9a 3b 57 e4 a9 bd 8e 81 ba 3d
       -0.059773475 0.0047052763 -0.082955055 0.09106742
0000d0 46 86 a3 bd 26 69 77 bd c0 c8 99 3d 12 b8 dc 3c
       -0.07984595 -0.06040301 0.07508993 0.02694324
0000e0 94 31 f2 3c 8c 40 b4 bd a2 3b 98 3d b4 55 9b bb
       0.029564656 -0.08801374 0.07433249 -0.004740441
0000f0 4f 85 e8 bc 18 c9 d1 3c f1 c1 78 bd 6a 0b 9e bd
       -0.028383879 0.025608584 -0.060731832 -0.07717021
000100 d6 07 ec 3d 94 d3 31 3c 73 c9 cf bc cd 38 3e 3b
       0.11524932 0.010853667 -0.025364613 0.0029025555
000110 02 bb ed 3c bd 71 d4 3d d6 09 d2 bc 98 26 af bd
       0.029019836 0.10373256 -0.025639456 -0.08552283
000120 13 1b b4 3d 93 ec 26 3d 6b c9 37 bd b2 ef ed bc
       0.087942265 0.04075296 -0.04486982 -0.02904496
000130 16 c4 85 bd 15 43 8c 3d 67 07 57 bc 26 aa c0 bd
       -0.06531541 0.068487324 -0.013124323 -0.09407453
000140 4d 8a 27 3c 2d 5a 1f bc f8 47 8b bd 2d 53 76 3d
       0.010225845 -0.009726089 -0.06800836 0.060137916
000150 78 02 2e 3d 54 d0 2c 3a 05 c7 3a 3d d7 9d a1 3d
       0.042482823 0.00065923226 0.045599956 0.07891434
000160 78 cc 17 3d 6b bd 9a 3a
       0.03706023 0.0011805719

fc4.weight f4 [1, 90]
000000 65 db cc bd 71 76 03 bc a2 f0 58 bd aa f1 a0 bd
       -0.10002784 -0.008023844 -0.05296386 -0.07858594
000010 5d b8 a1 bd 40 31 a7 bd 46 80 af bd 5d 20 a6 3c
       -0.07896493 -0.081636906 -0.08569388 0.020279104
000020 2e 2e c6 3c 63 e6 22 bd fe be b7 bc b5 71 af bd
       0.024191942 -0.039770495 -0.02242994 -0.0856661
000030 71 07 d6 bb a1 f7 d7 3d a6 25 70 3d 6a d8 db 3d
       -0.006531649 0.10545278 0.058629654 0.10734637
000040 84 2d 13 3c 2c a1 bb 3d 4b 79 c6 3d 28 9c 3a 3d
       0.00898302 0.091616005 0.096911035 0.04555908
000050 d7 ff d2 3c c0 8f c4 bd 9b 50 7c 3d 5d 61 82 3d
       0.02575676 -0.09597731 0.06160031 0.06366227
000060 77 b4 e0 3c da 65 21 3d 50 3e 8d bd a5 25 3c 3c
       0.027429802 0.039403774 -0.06896651 0.0114835845
000070 86 ae 38 bc bd e1 65 3a ee 9a d5 3d 33 04 5f 3d
       -0.011272078 0.00087692944 0.10429941 0.054447364
000080 3f aa dc 3d 4c 95 79 3d 07 5d 95 3c 8f ca 19 3d
       0.10774659 0.060933396 0.018232835 0.03754669
000090 c6 bc 5d bd 3a 8c dd 3c 30 3e b0 bd 92 bb 9d bd
       -0.054135107 0.027044404 -0.08605611 -0.07701792
0000a0 2c 94 d3 3d 12 b9 4a 3d 45 e3 da 3b bc aa 50 bd
       0.10330996 0.049492903 0.0066799247 -0.050944075
0000b0 f9 de 93 3d 58 02 34 bd 1a 97 ab bc 6c 00 34 3d
       0.07220263 -0.043947548 -0.020946074 0.043945715
0000c0 eb 59 12 bd 34 7f ef 3b b4 ac 80 3d 62 aa 80 bd
       -0.035730284 0.007308865 0.062829405 -0.06282498
0000d0 cf 76 04 bd 40 93 66 bd 11 8b 7e bc dc 43 24 bd
       -0.032339867 -0.056292772 -0.015536086 -0.04010378
0000e0 70 b2 40 bd 89 84 32 3d 72 4a d3 3d c5 2d b0 bd
       -0.04704517 0.043583427 0.10316934 -0.0860248
0000f0 c1 0c cb bd 59 24 c3 bd e7 94 e1 3d 88 8b 54 bd
       -0.09914542 -0.09528417 0.11014729 -0.05189088
000100 db 83 ea 3d bf a7 db 3d c5 03 da bd 7c fb 2d bb
       0.11450931 0.107253544 -0.1064525 -0.0026547601
000110 76 3b af bd b9 52 56 bd 5e db 36 bd a6 42 83 3d
       -0.08556263 -0.052324984 -0.0446428 0.064091966
000120 e3 0b d2 3d ff a3 d0 3d 5b ad 30 bd ff de b0 3b
       0.102561735 0.1018753 -0.043134075 0.005397677
000130 e5 4c 92 3d ac 53 48 bd 74 0f 51 bc 45 1a 96 3d
       0.07143573 -0.04890792 -0.012760032 0.07329229
000140 4d 5e 1f 3b 2e 28 25 3d c5 7f 95 3d 0b 66 c3 3c
       0.0024317682 0.04032152 0.07299761 0.023852369
000150 0d ca d4 3c 45 d2 45 3c e6 65 0d 3c a8 f6 19 3c
       0.025975252 0.012074058 0.0086302515 0.009397186
000160 f5 88 7e 3d 20 e3 6e 3d
       0.06214233 0.058322072
