ActorModel.pt (torch, 10699 bytes, 7 tensors)

fc1.weight f4 [30, 3]
00000000: 4acd cebf 89fe e4bf 766a 27c0 0150 353f
00000010: 3d11 cd3d a79f 45be 9371 e1bf 9d42 2ec0
00000020: fb56 69bf 2660 4abf 0e7e b8bf cc62 81bf
00000030: 85e7 363f 0f02 203e 6dc9 54bd 6d3c 86bf
00000040: 5556 2bc0 80c3 b0bf 597a b63f 07c0 a7bf
00000050: 5261 cdbe 84b7 f63f 5e87 6cbf e72d fcbe
00000060: 3a54 223f b203 bb3f 82af aebe 89a9 fb3f
00000070: 8029 afbf f90e 4fbd f0f7 0a3e fa90 99be
00000080: 822e 603d 583f 673f 48de 243e dc1f b0bd
00000090: 030a 1e3f c043 903f 8d4e 623f fec8 113f
000000a0: 94d5 97be 6d4c cabd 160d a03e 40d1 23bd
000000b0: 008a 82bb eb3f 8bbf 3b10 febf 95d9 d2bf
000000c0: a6fc 703f 0246 a83d 50ea f13d 87c9 c23e
000000d0: 2f3c b63f f564 593f be75 dcbf 9b5b eabf
000000e0: 931c f0bf b73b 833f d800 853e cc2b 96bc
000000f0: de27 b0bf af23 c7bf ba7f 0cc0 3943 243f
00000100: 6107 943e e145 bbbc a608 083f 9da8 b4bd
00000110: d843 9b3d f458 94bf c446 edbf 1515 e6bf
00000120: 3ae5 b4bf 5da0 9dbf e825 0bc0 bebc 5c3f
00000130: d283 de3f 7c43 3f3f c899 df3e 7627 ef3d
00000140: e08c 3ebe 6d30 ccbf 5c3a acbf 5976 05c0
00000150: e165 f83f 2ebd 7bbf 5748 11bf 549c 3c3f
00000160: 72be 133f 3dba 313d
-1.6156399 -1.7890178 -2.6158729 0.708252 0.100130536 -0.19299184 -1.7612785 -2.7228158
-0.91148347 -0.7905296 -1.4413469 -1.0108275 0.7144702 0.15625785 -0.051949907 -1.048719
-2.6771443 -1.3809662 1.4256088 -1.3105477 -0.40113312 1.9274755 -0.92394054 -0.4925377
0.6340977 1.4610503 -0.34118277 1.9661113 -1.368454 -0.05055139 0.13571143 -0.2999342
0.054731853 0.9033103 0.16100419 -0.08599827 0.61734027 1.1270676 0.8840111 0.56947315
-0.29655135 -0.09877858 0.31259984 -0.03999448 -0.003983736 -1.0878881 -1.9848703 -1.6472651
0.9413551 0.08216478 0.1181227 0.38044378 1.4237117 0.84919673 -1.7223432 -1.8309206
-1.875872 1.0252599 0.25977206 -0.01833143 -1.3762167 -1.5557765 -2.1952958 0.64165074
0.2891188 -0.02286047 0.53138196 -0.08821223 0.075812995 -1.1589646 -1.8537221 -1.7975184
-1.4132454 -1.2314564 -2.1741886 0.862255 1.7383978 0.7471235 0.43672013 0.116774485
-0.18608427 -1.5952278 -1.345531 -2.0853484 1.9406091 -0.9833554 -0.56751007 0.7367604
0.5771247 0.0433905

fc1.bias f4 [30]
00000000: 7066 c43f 83b3 a6bf 8478 a23f 84f7 693f
00000010: 2469 fabe 03b6 0e40 cec8 a4bf 7a71 94bf
00000020: bb29 45bf 85a0 0ebf 6181 53bf f5e0 85bf
00000030: 5d95 8cbf 0a64 39bf 0ccf ccbe 3fdc bd3f
00000040: e747 86bf 757c 05bd 6d98 863f 590d 63be
00000050: c903 ab3f 2720 39bf b2a1 5dbf 2217 db3f
00000060: 5463 a43f 13f5 a6bf 88d6 01bf 96d3 a23f
00000070: 44ae 8dbf 854a dcbe
1.5343761 -1.3023533 1.2693028 0.91393304 -0.4890834 2.229859 -1.2873781 -1.159713
-0.770168 -0.55713683 -0.8261929 -1.0459276 -1.0983082 -0.7241827 -0.40001714 1.4832839
-1.0490693 -0.032589395 1.0515267 -0.2217306 1.336053 -0.72314686 -0.8657485 1.7116435
1.2842813 -1.3043541 -0.50717974 1.2720821 -1.1068807 -0.43025604

fc2.weight f4 [30, 30]
00000000: cc91 57bf 2fc6 053f b226 7dbf 5dbb c7bc
00000010: 153d 363f b6da 7cbf 3ebf bc3e dc7c 8fbe
00000020: 66a2 0a3f 43f0 65bf ba72 143f 09e0 efbe
00000030: d2b7 863f 8829 713f a842 a83d 910e 5fbf
00000040: c75f e73e 822a 813e d2d6 b8bf fc07 dd3e
00000050: b901 a3bf 1389 473f 3c17 cc3e 42c4 9cbf
00000060: 77cf 4cbf 52be 943f fea7 193f 5a3c 9fbf
00000070: 79d8 e7bd 7e24 8e3f ea11 0640 7359 45bf
00000080: 1a9c 0840 8312 523f fff1 e9be 6ea4 1140
00000090: f7ec 273f 9e2c 8e3f 5e94 02bf cbe1 893f
000000a0: 7222 053f 4c34 963d 7efe 83be 1834 c1be
000000b0: f4a4 f73d 5774 f23f c4de 9d3e 76ce 94be
000000c0: 63da f43f 5777 c1bd 6c2f 0740 d4c4 2fbf
000000d0: a292 abbe 6c8f 0040 d803 1440 b66a 19bf
000000e0: 3a36 103d f055 f23f c791 953f 6d54 07bf
000000f0: eff5 1740 281a 3dbf 0b1c 0b40 2036 7e3f
00000100: 0b1e ffbe cd93 0a40 2351 543f 062d 9e3f
00000110: e8b1 1fbf 0a75 6e3f 77eb 45bf 8d77 1d3e
00000120: 5e64 86bf f90c 06bf e46c 2dbd c586 e43f
00000130: 4c20 55bf dad5 d8be 1de3 0340 9cbe b3be
00000140: cf09 0040 14df 2dbf e54e b7be efe4 f63f
00000150: 63d3 0a40 299f 2fbf de86 41bf 8473 fe3f
00000160: 0b61 a53f 6472 cbbe bcfc e0be f825 fdbc
00000170: adfb 30bf 1b0e 23bf 78f3 34bf b724 3abf
00000180: 29ff 3cbf f917 42bf 71ac c2bd f9a8 14bf
00000190: dddf e6be 8075 d8be b126 11be c19c 2abf
000001a0: 10af 423d 7072 e9be 4dae d9be f0ef c3bc
000001b0: 3584 08bf 045f 153d 6b64 40bf 1821 0c3e
000001c0: 1d58 20be fafa 11bf 15fa e5be 40b0 a9bb
000001d0: 9073 1dbe 03a1 01bf fd9d 17bf c615 363e
000001e0: 9ba2 1040 f0d5 67bf 3e62 0240 e782 923f
000001f0: fd26 fc3e 956d 0440 faf7 683f 2525 5c3f
00000200: 7feb 05bf f7d9 8b3f 86e4 b73d e00c d73e
00000210: 4944 2dbf b560 923e fcae 8dbd 46b2 fe3f
00000220: 8678 8fbe bd32 33bf 178b f53f 6aa6 403e
00000230: 8c56 f63f 7b66 2bbf 2079 6d3e 605a fa3f
00000240: 2703 0c40 8137 81be 8b8a 25bf 7da7 e63f
00000250: b065 553f c68c 2abd 83ce c9bf 6890 783f
00000260: 4eca b9bf ac82 df3e fdea b03f 4918 c1bf
00000270: 1889 24bf 082d 313e bb5c 483f fa8c 49bf
00000280: 3f19 1b3f 26d5 f7be e9b5 b23f 3eb0 493f
00000290: 187b 1a3e 4134 76bf 1c82 4e3f 4cbd 353f
000002a0: 4ae0 84bf 3d33 933f ad05 81bf fd1e 323f
000002b0: 67f6 833f 0cb2 8bbf d4a9 9bbf d273 e13f
000002c0: 3b02 373f 2d4c 98bf 21fc 8cbe 2072 b03f
000002d0: b151 1140 bd63 0ebf 2e17 0540 543c 463f
000002e0: 1fc1 ae3d ddf0 1240 aa68 5e3f 749d 823f
000002f0: 398d 20bf 7acb 663f c54b 143f bb3b 6abd
00000300: dc3b 67be 13fe cfbe e041 db3d 094d d03f
00000310: 129b 48bd 6c8b 32bf 3d0a 0040 b9be a83e
00000320: bb0b ff3f 6308 22bf fa1f 673e 549c 0b40
00000330: 4933 0f40 5f8c fcbd b359 16bf 509d 0640
00000340: 640c 813f c61a 11be 2480 ef3f 29cc 2bbf
00000350: 64bb d13f 5d0d 623f 1603 4cbf b23e f33f
00000360: b2cb a83f e68b a03f 69a0 15bf a416 493f
00000370: 899b 39be 144c 763e c2c1 28bf 4e4d 733f
00000380: 9e50 2cbe b523 f53f 55c4 c1be 7388 813e
00000390: fe19 eb3f 6a4b 62bf 0dea f93f dbda 26bf
000003a0: 6fe3 3abf 3787 f63f b7f0 fb3f 0e63 4bbe
000003b0: 6c92 57bf 8935 d03f 3551 953f 7f05 b6bd
000003c0: 5a1f 90bf a2f6 063e ee15 16bf a194 883e
000003d0: 6f45 4cbe 7edd 70bf 8ac8 21bf 8645 38bf
000003e0: 292a 123e 33d0 1abf fcf9 88be dc1f 09bf
000003f0: efbf 58bf 8e66 a5bf ae1e 1a3e 1479 c03e
-0.84206843 0.5225553 -0.9888717 -0.024381334 0.71186954 -0.98771226 0.36864656 -0.28024948
0.5415405 -0.89819735 0.5798756 -0.46850613 1.0524848 0.94203997 0.08215839 -0.871316
0.4519026 0.25227743 -1.4440558 0.43170154 -1.2734901 0.77943534 0.39861476 -1.2247393
-0.80004066 1.1620581 0.6002196 -1.2440293 -0.11320586 1.1104887 2.0948434 -0.77089614
2.1345277 0.82059497 -0.4569244 2.275661 0.65595955 1.1107366 -0.5100764 1.0772032
0.52005684 0.073341936 -0.257801 -0.37735057 0.12092009 1.8941754 0.3083402 -0.29063767
1.9129146 -0.094465904 2.1122694 -0.6865971 -0.3351031 2.0087538 2.3127346 -0.5992845
0.035207964 1.8932476 1.1685113 -0.528632 2.3743856 -0.73868036 2.1735866 0.9930134
-0.49827608 2.165271 0.82936305 1.235749 -0.6238084 0.9314734 -0.77312416 0.15377636
-1.049938 -0.52363545 -0.042340174 1.7853628 -0.83252406 -0.42350656 2.060737 -0.3510636
2.0005987 -0.67918515 -0.3580238 1.9288615 2.169152 -0.68602234 -0.75596416 1.9879003
1.292024 -0.3973571 -0.4394282 -0.030901894 -0.69134027 -0.636934 -0.70684004 -0.7271227
-0.73826844 -0.7581783 -0.09505547 -0.5807033 -0.4509267 -0.42277145 -0.14174916 -0.6664544
0.047530234 -0.4559512 -0.42515793 -0.023918122 -0.5332673 0.036467567 -0.75153226 0.136845
-0.15658613 -0.57023585 -0.4491736 -0.0051784813 -0.15376115 -0.5063631 -0.59225446 0.17781743
2.2599247 -0.9056082 2.0372462 1.1446198 0.49248496 2.0691884 0.9100338 0.8599418
-0.52312464 1.0925893 0.08979134 0.4200201 -0.6768232 0.28589407 -0.06918141 1.9898155
-0.2802164 -0.69999295 1.9183072 0.18813482 1.9245162 -0.6695325 0.23190737 1.955883
2.1876924 -0.2523766 -0.64664525 1.8019863 0.8335829 -0.04163816 -1.5766147 0.97095346
-1.4514863 0.43654382 1.3821713 -1.5085536 -0.6427169 0.17302334 0.78266495 -0.7873074
0.605854 -0.48404807 1.3961765 0.7878455 0.15086019 -0.96173483 0.8066728 0.7099197
-1.0380948 1.1500012 -1.0079857 0.69578534 1.0309571 -1.091371 -1.2161202 1.761347
0.7148778 -1.1898247 -0.2753611 1.3784828 2.270611 -0.5562094 2.0795398 0.77435803
0.08532929 2.2959511 0.86878455 1.0204301 -0.6271549 0.9015423 0.57928115 -0.05718587
-0.22581428 -0.4062353 0.10705924 1.6273509 -0.04897601 -0.6974399 2.000625 0.3295801
1.9925455 -0.6329405 0.22570792 2.1814165 2.2375052 -0.12331461 -0.5873062 2.1033516
1.0081906 -0.1417037 1.871098 -0.671084 1.6385312 0.8830164 -0.7969221 1.9003508
1.3187163 1.2542694 -0.5844789 0.7855017 -0.18125738 0.24052459 -0.6592065 0.9503983
-0.16827628 1.9151522 -0.37845102 0.25299415 1.8367307 -0.8839632 1.9524552 -0.65177697
-0.73003286 1.9260014 1.9682835 -0.19862005 -0.842078 1.6266338 1.1665407 -0.08887767
-1.1259568 0.1318002 -0.5862721 0.26675895 -0.19948362 -0.9408797 -0.63196623 -0.71981084
0.14273895 -0.60473937 -0.26753223 -0.5356424 -0.8466787 -1.2921922 0.15050766 0.37592375

fc2.bias f4 [30]
00000000: 8c36 28bf c782 993f 2269 b53f 9e78 44bf
00000010: 1cb3 b33f fc22 d23e 7938 963f 80fb 9d3e
00000020: 4176 31bd a01a ad3c 4094 04bf d522 37bf
00000030: 6e05 debd e16e 953f 3f4a 16bf cc8f 40bf
00000040: b7a6 1ebf e911 9d3f 77ef 18bf d833 0bbf
00000050: 8500 6a3f d287 cd3f 8fdf 0f3f 184e 01bf
00000060: 60ce 5abc bd40 593f 63a3 42bf e0ad 06bf
00000070: 207f 07bf 31ee 223f
-0.6570823 1.1993035 1.4172709 -0.7674655 1.4039035 0.41042316 1.1735984 0.30855942
-0.043325666 0.02113086 -0.5178871 -0.71537524 -0.108408794 1.1674463 -0.5870704 -0.75219417
-0.61973137 1.2271091 -0.59740394 -0.5437598 0.9140704 1.6057074 0.562005 -0.50509787
-0.013354868 0.8486441 -0.7603056 -0.5260906 -0.5292835 0.636447

fc3.weight f4 [30, 30]
00000000: 9ba2 0dbf 12e4 0940 85c8 0740 1dd7 213f
00000010: 636b 0140 55ff 94bf b72f 0040 a17d d13f
00000020: abf2 03be 6704 c0bf d32d 08bf d631 70bc
00000030: 1086 a8bd 17cc 0140 8592 003f a344 a33e
00000040: 0ab0 2cbf cbb6 3c3f c131 39bf 76bf 29bf
00000050: 9e17 0d40 0497 ab3f 33f1 f53f d2b7 ff3e
00000060: 3d60 c2bd eb25 f33f cf2b 323f 6595 47bf
00000070: d142 d9be d90f ee3f 3bb1 06bf f81a e7bc
00000080: eeeb fabd f865 2a3e 0a0e 25be a7e1 d0be
00000090: 1c9c 53bd 5896 ac3d d5a8 01bf afcf d4be
000000a0: 630c a1bd ec91 2fbf 58bd aabd 34d7 e53d
000000b0: 707b 253e 79bf f8be f2a5 363e d4bd 6ebd
000000c0: 2054 3ebc b011 623d b859 19bf 3c41 133d
000000d0: 1545 0abe f0c9 69bc 5c72 923d cc8c 39bd
000000e0: d2d6 15bf 9b9e 0dbe 7e10 fcbd 9927 20bf
000000f0: 98bb fabd 1269 0a40 bd61 0240 625b 313f
00000100: ae25 eb3f 26b9 963e 452c 0040 2caa b73f
00000110: d788 493f 9374 8d3d fc73 f0be 700c fb3e
00000120: 1bf1 12be 95ac 0840 3a41 1a3f ad35 f03e
00000130: 35b1 f1be 2ae4 293f 6bc7 1cbf 0725 fabe
00000140: 04e1 da3f 4695 963f aa5b c23f 105e 01bf
00000150: c00c 503c e6e4 f83f 44e1 f73e ace5 edbe
00000160: 89d1 2cbf 7417 ea3f 5341 ecbe 204b f73f
00000170: c687 e93f efe0 2d3f 95c9 fd3f e40c 95bf
00000180: a570 0740 e2f7 df3f f760 53be 4a9a 96bf
00000190: 3bad 19bf 9bb9 943e dc73 c53d 1a12 0940
000001a0: c3ef 363f a271 b93e f0da 14bf b84a 123f
000001b0: 89b4 00bf 0a3e f0be e5da 0c40 77dd b73f
000001c0: 38dd f83f 47b7 383f fdcf 0ebe 1709 f83f
000001d0: 6fe9 353f 9d47 dfbe f3ec 44bf af85 f53f
000001e0: 4a0c b7bf fc4e fd3f 500d f13f 8c47 f23e
000001f0: 08e6 f43f 947d 0bc0 98e8 e23f ac04 d13f
00000200: fb22 72be 14ba 08c0 d090 12bf 425a 213e
00000210: e079 e93d f0f4 0040 9861 1b3f ef11 003f
00000220: 4ec9 07bf bf4f ec3e a659 32bf 4095 1abf
00000230: f34e f13f 87d7 893f 5a7c f83f da65 35bf
00000240: 50b4 f53c 5551 0b40 7a01 163f f551 ecbe
00000250: 91d1 dabe 5cf8 e73f 6b54 b83f 7696 67bf
00000260: 31a6 37bf 6b5a 03bf 3699 1cbf 0f0b a83f
00000270: 7eef 89bf 6a5b 0dbf d14f 383f 88e5 c53f
00000280: e6bb 2f3f 7c1c f83e 6222 f7bd e1d1 2ebf
00000290: 0159 20bf 1a28 813e 4bc9 373f fd07 823f
000002a0: 1e50 df3e 3737 f13e 5378 2c3e 4d7a d13e
000002b0: b615 1bbe c727 f23e 105f 033e 0235 43bf
000002c0: 82a8 9abe ca0b 3f3f ba85 2c3f 7394 283d
000002d0: 007a e83a fae3 16bf 83e1 24bf a4db 10bf
000002e0: d9e5 11bf 3e9c 053e 3b5d 03bf 873f 1bbf
000002f0: 4878 2bbf 388b a53c 58b7 edbc cb51 13bf
00000300: 311c d6bd 74d4 34bf d8e5 1cbf 99cf 45bf
00000310: 9833 da3d b759 27bf d024 ea3d 686e c83d
00000320: 368b 35bf 4fb8 34bf fd70 f0be 9862 d6be
00000330: 0088 4b39 a18f ebbe 3ab7 d8be 5b49 14be
00000340: d610 14bf 73b3 26bf d15e 21bf d248 01bf
00000350: 0857 3a3f 34b5 3f3f b953 37bf 9344 3cbf
00000360: 892f 333f 9f34 44bf 0267 23bf 7991 19bf
00000370: 67e5 20bf cb33 01bf 7a68 94bd 7a51 1cbf
00000380: a0da 163f 49bb 2bbf 85ed 26bf 0688 39bf
00000390: 2091 11bf a63d f8be 6e49 44bf 1742 29bf
000003a0: 5490 333f 1559 0dbf 6850 f93d ce58 123f
000003b0: 9143 e63e 7a75 0abf 6077 17bf a5b6 23bf
000003c0: e1cd 073f b287 fdbe d404 cdbe 6223 0cbe
000003d0: 9d3f f9be aa3b 893f e73e 05bf a757 f3be
000003e0: 395a 2c3f fbc9 793f 0d08 e63e d074 c43e
000003f0: eac9 2d3e 9a1a 1bbf 8fe6 15be 0a50 473f
-0.5532624 2.1545453 2.1216137 0.6321886 2.0221794 -1.1640421 2.0029123 1.6366464
-0.12885539 -1.5001343 -0.5319492 -0.014660319 -0.082286954 2.0280817 0.5022357 0.31888303
-0.67456114 0.7371642 -0.72341543 -0.6630777 2.2045665 1.3405461 1.9214233 0.4994493
-0.09491012 1.8995947 0.69598097 -0.7796233 -0.4243379 1.8598586 -0.5261418 -0.028211102
-0.12252031 0.1664046 -0.16118637 -0.4079716 -0.05166255 0.08427113 -0.5064824 -0.415647
-0.07863691 -0.68582034 -0.08336896 0.11222687 0.16160369 -0.48583582 0.1783674 -0.058286503
-0.011616737 0.05519265 -0.59902525 0.035950884 -0.13502915 -0.014269337 0.071507186 -0.04530029
-0.58530915 -0.13830034 -0.12307833 -0.6256042 -0.12242812 2.162663 2.0372155 0.69280064
1.8370874 0.29438132 2.002702 1.4348807 0.78724426 0.069070004 -0.4696349 0.49032927
-0.14349787 2.1355336 0.6025578 0.4691595 -0.4720551 0.66363776 -0.6124179 -0.48856375
1.7099919 1.1764305 1.5184224 -0.50534153 0.012698352 1.9444854 0.48414052 -0.46464288
-0.67507225 1.8288407 -0.46143588 1.9319801 1.824456 0.67921346 1.9827143 -1.1644559
2.1162503 1.7497523 -0.20642458 -1.1765835 -0.60029954 0.29047856 0.09641239 2.1417298
0.714596 0.36219507 -0.5814657 0.5714526 -0.50275475 -0.46922332 2.2008603 1.4364461
1.9442511 0.7215466 -0.13946529 1.9377774 0.71059316 -0.43609324 -0.76924056 1.9181422
-1.4300625 1.9789729 1.8832188 0.4732021 1.91327 -2.1795397 1.7727232 1.6329551
-0.23646156 -2.1363573 -0.57252216 0.15757087 0.11400199 2.0149498 0.6069579 0.50027364
-0.5304154 0.4615459 -0.6966804 -0.6038399 1.8852218 1.0768899 1.9412949 -0.7085854
0.029993206 2.176839 0.58596003 -0.46156278 -0.4273801 1.8122668 1.4400762 -0.9046396
-0.7173796 -0.5130984 -0.6117128 1.3128375 -1.0776212 -0.5521761 0.7199679 1.5460672
0.68646085 0.48459232 -0.12067105 -0.68289 -0.6263581 0.25225908 0.71791524 1.0158688
0.43615812 0.47112438 0.16842775 0.4091362 -0.15145001 0.47295973 0.12829232 -0.7625276
-0.30206686 0.74627364 0.6739155 0.041157197 0.0017736554 -0.58941615 -0.64406604 -0.56585145
-0.56991345 0.13047883 -0.51314133 -0.6064381 -0.6698041 0.020207986 -0.02901809 -0.5754668
-0.10454596 -0.7063668 -0.61288214 -0.77269894 0.10654372 -0.6537127 0.11432803 0.09786683
-0.70915544 -0.7059373 -0.46961203 -0.41872096 0.00019410253 -0.46008018 -0.4232729 -0.14481108
-0.5783819 -0.6511757 -0.63035303 -0.5050174 0.7278905 0.7488587 -0.71612126 -0.73542136
0.6999441 -0.76642793 -0.6382905 -0.599876 -0.6285004 -0.50469655 -0.0724649 -0.61061823
0.58927345 -0.6708265 -0.65206176 -0.7247318 -0.5686207 -0.48484534 -0.76674545 -0.6611647
0.701421 -0.55214053 0.121735394 0.57166755 0.44973424 -0.54085505 -0.59166527 -0.6395057
0.5304852 -0.4951759 -0.40042746 -0.13685372 -0.48681346 1.0721333 -0.52049106 -0.4752781
0.6732517 0.9757382 0.44928017 0.3837037 0.16971555 -0.60587466 -0.14638732 0.77856505

fc3.bias f4 [30]
00000000: d6e8 e83e 608d 37bf 90fd 1d3f b951 a33e
00000010: ae35 9ebd 7bf8 6b3f 5b86 27bf 6c8a e9be
00000020: 3fdc 873f cdf1 773f b341 1f3d 1448 0f3f
00000030: 32c6 53bf 39a6 343f 163c e5be 41d3 e4be
00000040: 4efc d23e ae1b 793d 1d52 35bf 7ba1 fc3e
00000050: 3884 823e 42ff 3a3e 0a37 27bf 155d 553f
00000060: 0474 19bf 9e20 f03e 88a5 09bf 6762 15bf
00000070: 11a6 0cbf 41d2 25bf
0.4549014 -0.71700096 0.6171503 0.31898287 -0.07725082 0.92176026 -0.65439385 -0.4561342
1.0614089 0.96853334 0.038881015 0.5596936 -0.827243 0.70566136 -0.44772404 -0.44692424
0.41208118 0.060817413 -0.7082842 0.4934195 0.254915 0.18261436 -0.6531836 0.83345157
-0.5994265 0.46899885 -0.53768206 -0.58353275 -0.549409 -0.64773947

fc4.weight f4 [1, 30]
00000000: 02c1 0440 3dfa d4be a030 0940 4ac6 0c40
00000010: 2645 0640 24d4 a3bf 1f62 f33e 0171 00bf
00000020: a854 04be 970c 8fbf d916 0a40 979b e53f
00000030: 64af 17bf 79ed 0540 bea4 c23e d2c9 2abf
00000040: b300 e6be 0ab4 a3bf 7406 043f 8714 0440
00000050: ecec f83f f31b ed3f b535 0cbf af2f 9cbf
00000060: 859d 0bbf 1fda 0c40 2695 ddbe 95d4 e33e
00000070: a2c9 093f 71f1 e3be
2.0742803 -0.41597167 2.1435928 2.1996026 2.0979705 -1.2799115 0.47535798 -0.5017243
-0.12922919 -1.1175717 2.1576445 1.7938107 -0.59252 2.0926192 0.38016313 -0.66714203
-0.44922408 -1.2789319 0.51572347 2.063753 1.9447303 1.8524154 -0.5476945 -1.2202052
-0.5453723 2.200813 -0.43277854 0.44498125 0.5382329 -0.44520143
