Best.pt (torch, 10699 bytes, 7 tensors)

fc1.weight f4 [30, 3]
000000 ac b3 8d 3d 2f a4 7b bf 60 51 4c 3f 94 60 6f 3d
       0.06919035 -0.982974 0.7981167 0.058441713
000010 9e c4 4c 3f c4 5c 16 be 00 4f 96 3e 8c f0 6c 3f
       0.79987514 -0.14683825 0.29357147 0.92554545
000020 90 0e 44 be 06 7f dd bd 99 5b 81 3f 1d b6 8d 3d
       -0.1914618 -0.108152434 1.0106078 0.06919501
000030 e7 81 a0 3e 10 82 9f 3f 90 17 33 3e 65 d7 db bd
       0.31349108 1.2461567 0.17489457 -0.107344426
000040 83 5c 79 bf 85 23 27 3f 47 d8 98 be 39 40 79 bf
       -0.97406787 0.65288574 -0.29852507 -0.9736362
000050 37 6b 2b bf ba bf 91 bd d6 65 9b 3f aa cb fe bd
       -0.6696047 -0.07116647 1.2140453 -0.124411896
000060 4c 88 02 3f 01 b9 f6 3e d0 5e 33 bf e6 04 11 bf
       0.5098922 0.48188022 -0.7006655 -0.566481
000070 bf 41 ca be 24 54 12 be c0 c3 d8 be 90 a8 19 bf
       -0.39503285 -0.1428991 -0.42336845 -0.6002283
000080 02 84 7e bf 6f 5b 15 be b5 32 04 bf 2d 8e 98 bf
       -0.9942018 -0.1458566 -0.5163987 -1.1918389
000090 90 d1 da 3e 1e 81 a7 3e de 62 13 bf 91 e8 bb bd
       0.42738008 0.32715696 -0.57572734 -0.09175218
0000a0 7b 0d 68 bf ee 20 8b bf 1d b6 84 3e a9 92 12 bf
       -0.9064557 -1.0869424 0.2592019 -0.57255036
0000b0 06 d5 0d 3f 65 e2 d6 be ec 99 8a bd 66 37 25 3f
       0.5540317 -0.419696 -0.067676395 0.64537656
0000c0 0a 4b 34 3e 39 e0 84 3f 5b 21 2d bd 90 8b b4 bc
       0.1760675 1.0380927 -0.04226814 -0.022039205
0000d0 b2 db de be ed 15 2e 3f fe 0c 99 be 26 15 c6 be
       -0.4352699 0.68002206 -0.29892725 -0.3868801
0000e0 f9 bf 82 3e cb f2 16 bf b0 36 86 3e dc ed af be
       0.2553709 -0.5896422 0.26213598 -0.3436116
0000f0 e9 1c 63 bd 1d e8 36 be aa 1e c8 3d a1 ad d1 bd
       -0.055447493 -0.17861982 0.09771474 -0.10238195
000100 4b d5 8b 3f 1e 61 f9 bc 1f af 6a 3e f8 ea b2 be
       1.0924467 -0.030441817 0.22918366 -0.34944892
000110 0a 2c 2a bf 0e 87 ec bd c9 4e 51 bf 8e 83 71 bf
       -0.6647345 -0.11549197 -0.8176084 -0.9434136
000120 1f 61 38 3f e2 d8 95 3c eb be 4b bf 53 ad 17 3f
       0.72023195 0.018291894 -0.7958819 0.59248847
000130 b3 d1 3a bf 29 ae 04 3f fe be 6d 3d c7 fb 12 bf
       -0.72976226 0.5182825 0.058043472 -0.5741543
000140 43 48 07 bf 8f 48 97 be 43 f2 8a bf 47 d0 39 3f
       -0.5284464 -0.29547545 -1.0855182 0.7258343
000150 8c fe 9c be 17 3f 88 be 4b 99 71 bf a4 a1 50 3e
       -0.30662954 -0.26610634 -0.9437453 0.20374161
000160 6e 34 ab bd 7a 05 0e bf
       -0.083596095 -0.55477107

fc1.bias f4 [30]
000000 cd 0b d0 be 31 38 44 3f 39 10 6e 3f d0 01 31 3d
       -0.40634003 0.7664824 0.92993504 0.04321462
000010 a3 5b 27 3f da 81 18 be 32 cf 89 3e a5 4b fa 3e
       0.653742 -0.14893284 0.2691589 0.48885837
000020 1c d9 9d 3d 3e cb f8 be fe f0 1e bf 22 50 8b 3e
       0.07707426 -0.4859256 -0.62086475 0.27209574
000030 19 d4 b8 3e d4 a4 e6 3e de ff d8 be ac f6 f7 3e
       0.36099318 0.4504763 -0.4238271 0.48430383
000040 38 0e f1 3e 77 9a bc bd 75 f7 ac be 36 87 37 be
       0.4708116 -0.09209149 -0.33782545 -0.17922673
000050 77 db 52 bf ea d9 b8 3e ec 65 0b 3f 80 61 d7 be
       -0.82366127 0.36103755 0.54452395 -0.42066574
000060 03 4a 17 3f 00 80 5c bb 06 f1 d4 bd cb a6 96 be
       0.5909731 -0.003364563 -0.10397534 -0.29424128
000070 e6 ec 82 be e7 40 85 bd
       -0.25571364 -0.0650652

fc2.weight f4 [30, 30]
000000 72 27 c8 bd e0 dd 79 be b4 22 f6 be 0a f7 06 be
       -0.097731486 -0.24401045 -0.4807335 -0.13180175
000010 7e 4d 05 3f 01 eb 14 bf 30 83 a5 be e7 d9 aa be
       0.5207137 -0.5817109 -0.3232665 -0.3336937
000020 b3 48 03 bf d8 5e af bc 96 54 06 bf 89 da 87 be
       -0.51282805 -0.02140753 -0.5247282 -0.26533917
000030 5d 40 0e bf a9 86 0b bf b8 04 8b 3c 24 f1 dc bd
       -0.5556696 -0.5450235 0.016970024 -0.107881814
000040 6b 1d 14 be 40 52 12 3d b5 3d 89 bd 52 ab 97 be
       -0.14464347 0.03572297 -0.06701223 -0.29622895
000050 92 e9 ba 3e 79 e4 de be 13 3e 19 bf dc 9d d9 be
       0.36506325 -0.43533686 -0.5986034 -0.4250325
000060 87 c2 72 be b3 84 08 bf aa 56 e5 be 1c 88 fb 3d
       -0.23707019 -0.5332748 -0.44792682 0.1228182
000070 be 08 11 bf 00 18 09 3f ea 73 d3 be d0 9e f9 3e
       -0.56653965 0.53552246 -0.41299373 0.48753977
000080 91 78 49 3f 71 86 db 3e d6 e3 03 3f 4b 68 a2 be
       0.78699595 0.42876008 0.51519525 -0.31720194
000090 ee 04 ac be a7 97 c3 3e 65 d2 a7 3e 5c dc a1 3d
       -0.3359751 0.3820164 0.32777706 0.07903358
0000a0 4b 61 06 be 06 57 52 3d ee 94 db 3e 95 79 d7 3d
       -0.13123052 0.051352523 0.42887062 0.10521237
0000b0 66 5a af be b7 38 1a be 0d 54 16 3f ce 2a bd bd
       -0.34248656 -0.15060697 0.58722 -0.0923668
0000c0 3b 2b ec be 7e a5 d9 be 2c 75 4c 3e c0 33 0e 3f
       -0.46126732 -0.42509073 0.19966573 0.55547714
0000d0 b7 23 c9 3e 3c 43 f8 3c e6 15 ad 3e 66 06 bb be
       0.3928506 0.030305497 0.3380577 -0.3652832
0000e0 6a a4 05 bf 5d 5b 83 bd ee 9d d6 3d 5e db a3 3e
       -0.52204 -0.064139105 0.104793414 0.320033
0000f0 96 8b 97 be dc 23 f0 3e 63 dd 26 3f 37 f9 0e 3f
       -0.29598683 0.4690236 0.6518156 0.5584902
000100 86 be 8c 3e 77 7a 2d 3e 3a cd c4 bd b1 62 55 3e
       0.27489108 0.16941248 -0.09609456 0.20838429
000110 9f 84 95 3d 32 ae 9f 3e 71 17 b2 be 6e 3e b4 be
       0.07300686 0.31187588 -0.3478351 -0.3520388
000120 56 ae 20 3d a8 24 e9 be 17 1f 51 be 0d 4d 56 3e
       0.03922876 -0.4553578 -0.20422016 0.2092783
000130 06 c6 c2 3e c0 33 af 3d a8 3e 1f bf 15 55 16 be
       0.38041705 0.085547924 -0.6220498 -0.14680894
000140 66 97 ed 3e 5f 71 e5 3e 3c f4 6d 3c 96 70 1c bf
       0.4640457 0.44813058 0.014523562 -0.6110929
000150 0d 22 25 be 40 8f bf bd e1 73 a4 be 9e 6b 86 be
       -0.1612627 -0.09353495 -0.3211966 -0.2625398
000160 d8 4b c4 be 02 45 fa 3e 6e 54 9d be 28 74 ae be
       -0.38339114 0.48880774 -0.30728477 -0.34072995
000170 32 ea ad be 01 ea 39 be 70 dd 45 bd 0e ba 28 bf
       -0.3396774 -0.18155672 -0.048306882 -0.65908897
000180 84 e8 a0 be ad 1c c5 be 01 ba 8f be 8b 5c 1a bf
       -0.31427395 -0.3849844 -0.28071597 -0.6029746
000190 0c b0 b0 be 76 f7 a7 be 9f cc 14 be bc 60 af be
       -0.34509313 -0.32805985 -0.14531182 -0.3425349
0001a0 0c 03 81 be e0 55 eb bd 36 09 fc bd 65 3f f0 be
       -0.25197637 -0.11490989 -0.12306444 -0.46923366
0001b0 f6 9e d2 be f6 fc 8c be f1 f9 cf 3e 80 bc ce 3d
       -0.41136903 -0.27536744 0.40620378 0.10094547
0001c0 98 63 04 bf 17 77 b8 be 67 44 2d be 35 81 5e be
       -0.5171447 -0.36028358 -0.16920625 -0.21728976
0001d0 36 6d 62 be 6e 0d 17 bf 52 40 ba be 1d a0 c7 be
       -0.22111973 -0.5900487 -0.36377198 -0.38989344
0001e0 aa 01 ef be d7 ea 28 3f 59 ce 29 3f 68 2c 6c 3e
       -0.46680957 0.6598334 0.66330487 0.23063815
0001f0 23 57 0d 3f 4c 65 0f bf 6d b8 f4 be cb 50 04 3f
       0.55211085 -0.5601394 -0.47796956 0.5168578
000200 5f 18 57 3e 8e cf 3c 3d 4d df 37 be a8 d1 df be
       0.2100539 0.046096377 -0.17956276 -0.43714643
000210 4f dd ea 3c 5a 7a 1b be 5a 1b e2 be 4b 5a e2 3d
       0.028669981 -0.15183392 -0.44161493 0.11052378
000220 9d a1 20 3f e6 9a 3f bd 32 58 2f bf 98 61 32 be
       0.627466 -0.046778582 -0.6849395 -0.17420042
000230 89 7a 0f 3f 5a 10 1c 3f 80 ea 53 be ff c0 be be
       0.5604635 0.6096245 -0.20694923 -0.3725662
000240 d1 e6 ae bd dc 99 39 bf e7 f4 38 be 94 ce a7 be
       -0.085401185 -0.72500396 -0.18062173 -0.32774794
000250 cd 62 2c bc 1b 7f 87 be 3a a2 0b bf c5 c9 eb be
       -0.010521603 -0.2646416 -0.54544413 -0.46052375
000260 0f dc 11 bf b0 65 12 bf 65 5e c2 be 53 ad e1 be
       -0.5697641 -0.5718641 -0.37962642 -0.44077548
000270 99 81 23 3e c6 b3 05 bf aa 82 0c bf bd 49 b8 be
       0.15967406 -0.5222744 -0.5488688 -0.35993758
000280 1b 4a 57 bd 5e 0d 84 be 98 5f 01 bf fd db 2d be
       -0.052560907 -0.25791448 -0.5053649 -0.1697845
000290 2b d6 01 bf db 64 a8 be 5f 81 fe be c7 5e 04 bf
       -0.5071742 -0.32889447 -0.49708077 -0.5170712
0002a0 44 04 f7 3e 0f 3f 52 be 8b 18 d1 be 21 9c 1a bf
       0.48245442 -0.20531867 -0.40839037 -0.60394484
0002b0 60 c5 ee be 10 33 a7 ba e7 9b 17 bf 8c ff db be
       -0.4663496 -0.0012756307 -0.59222263 -0.42968404
0002c0 01 56 16 3f c4 c8 98 3e 92 90 f4 bd 1f 24 cc be
       0.5872498 0.29840672 -0.11941637 -0.39871308
0002d0 24 a4 88 be 8b f6 a1 bd 2d 45 c0 bd 5a 5f 90 be
       -0.2668773 -0.079083525 -0.09388194 -0.28197747
0002e0 2f e4 b2 be ed e4 88 be c0 6b ca be 1b 55 c5 be
       -0.34939715 -0.26737157 -0.39535332 -0.38541493
0002f0 ce 4d ea be 70 73 e0 3e 9f 89 c6 be e0 65 f6 be
       -0.45762485 0.43838072 -0.38776872 -0.481246
000300 42 ce e3 be c5 de 06 bf 53 35 a8 be c8 cb d2 be
       -0.444933 -0.5268367 -0.32853183 -0.41171098
000310 5e 66 7e be 5c 0d b7 be 4d b2 99 bd a6 a9 16 3f
       -0.24843737 -0.3575238 -0.07504711 0.5885261
000320 9c 40 d6 be 83 3c 19 3d 4d 2d 33 bf ae a0 d4 be
       -0.41846168 0.037411224 -0.69991 -0.4152884
000330 ab bc a3 be b8 4b 39 be ee 22 ad be 2a 3e 49 be
       -0.3197988 -0.1809529 -0.33815712 -0.1965262
000340 fe fc f9 be 5e 0c 02 bf 50 62 1f be a4 ca 05 3e
       -0.4882583 -0.5080012 -0.15564847 0.13065583
000350 cd 39 ab 3e f7 b0 29 3d 58 76 80 be 04 88 75 be
       0.33442536 0.041428532 -0.2509029 -0.23977667
000360 d1 af e4 bc 0f e3 a3 3e 55 a1 0b 3e b0 ac 07 3e
       -0.027915867 0.3200917 0.13635762 0.13249469
000370 62 fb ae 3d 14 7a 77 3e b3 65 e0 3d 92 c6 56 3d
       0.08544041 0.24167663 0.109568976 0.052435465
000380 42 ab d9 be 80 d4 96 be 84 ba fe be 70 ff c2 be
       -0.42513472 -0.29459 -0.49751675 -0.38085508
000390 6e b0 57 be 5a 82 1f 3d 6f 15 d8 3e a8 50 3c 3e
       -0.21063396 0.038942672 0.42203853 0.18390143
0003a0 f7 96 a7 3e 57 18 13 bd 4f ae 5d 3e e2 9e 67 be
       0.32732365 -0.035911884 0.21648525 -0.22619203
0003b0 74 80 db 3e 9e fc be be a8 bd 01 3d 99 5d af bc
       0.4287144 -0.37302107 0.03167501 -0.021406936
0003c0 80 59 1e 3f d6 69 09 bf 6c ab e2 be a0 59 43 be
       0.61855316 -0.5367712 -0.4427141 -0.19077158
0003d0 ca 06 f7 bd a1 e3 35 3f 4d 03 8f be fe 69 1d bf
       -0.12061842 0.7105046 -0.27932206 -0.61489856
0003e0 49 0c 0d bf 64 b6 b6 3e aa a7 ab be 17 97 25 bf
       -0.5509687 0.35686028 -0.33526355 -0.6468367
0003f0 4c 54 9e be 3c b7 26 be 9b 45 02 3f 26 4e 72 3e
       -0.30923688 -0.16280836 0.5088746 0.23662624

fc2.bias f4 [30]
000000 e1 33 c6 be a0 2e b9 3e c1 b5 0d 3f c2 b9 c4 bd
       -0.38711455 0.36168385 0.5535546 -0.09605743
000010 99 8a c0 3e 5f 6d ea be 29 08 b6 be b4 24 68 be
       0.37605742 -0.4578657 -0.355531 -0.22670251
000020 b9 9c 05 bc 3d f3 ae 3e 81 5a 00 be 38 2f a3 bd
       -0.008155041 0.3416995 -0.12534525 -0.07967991
000030 6a 62 a9 be b0 5d 0d bf 51 37 c7 3e 50 60 f9 3e
       -0.33082896 -0.5522108 0.3890939 0.48706293
000040 dc 04 e6 3e 95 df 7e be 98 02 83 3e 96 c9 0f bf
       0.44925582 -0.24889977 0.25587916 -0.5616697
000050 31 23 18 bf 3d 93 23 3e 77 40 88 3e f9 cb df 3e
       -0.594287 0.15974136 0.26611683 0.43710306
000060 0e a0 86 3e 59 a7 e7 3e b2 e7 45 3e ca 99 85 be
       0.26293987 0.45244864 0.19326666 -0.26093894
000070 4a 4a a0 be dd 8f 44 3c
       -0.31306678 0.01199719

fc3.weight f4 [30, 30]
000000 58 21 e9 bc 36 0a 35 3e 68 db 7a be 67 f8 fd bd
       -0.028458282 0.17679676 -0.2449776 -0.124008946
000010 6d 53 fe be be 30 f5 3e 70 8e 00 3f 97 9c 85 3e
       -0.49673024 0.4788875 0.5021734 0.2609603
000020 96 88 4d 3f 82 2d 3a 3f 1a e6 9e 3e 30 ea fe 3e
       0.8028654 0.7272569 0.3103493 0.49788046
000030 b2 1a e6 bd b9 42 95 3e b3 d3 ce 3e 18 b9 d3 3c
       -0.112355605 0.29152468 0.4039589 0.025845096
000040 0d 78 20 3f 99 fa 65 3e 74 96 c1 bd 0d 0f 96 3e
       0.6268318 0.22458877 -0.09452525 0.29308358
000050 35 f9 03 bf 85 0b fe 3e ad b4 68 3e 59 7c 59 3e
       -0.51552135 0.49618164 0.22725172 0.21238841
000060 99 06 a4 be e2 07 f2 be 3f d3 be bd f0 f8 fa 3e
       -0.32036284 -0.4727164 -0.09317636 0.4901805
000070 3a 32 cf 3e bd f8 d6 3e 5a 52 05 bf 5c da 8b be
       0.40468007 0.41986647 -0.52078784 -0.27315032
000080 9c fb 87 be c3 f6 e9 bd a6 e6 f4 be 11 cc e2 be
       -0.2655915 -0.11424019 -0.4783222 -0.44296315
000090 5f 07 cb be b2 81 cd 3e 56 b8 a9 be 89 44 0f bf
       -0.3965406 0.40138012 -0.3314845 -0.5596395
0000a0 18 76 df be da 30 12 bf 0f 88 b8 be 5e 00 15 bf
       -0.43644786 -0.5710579 -0.36041304 -0.58203685
0000b0 2e 9b c9 be ce cc 0d bf 9a ea 12 bf 19 2c a6 be
       -0.39376205 -0.5539063 -0.57389224 -0.3245552
0000c0 7a 68 0d bf 9e b0 7d be 2c 76 7e 3e d4 ad ab 3d
       -0.55237544 -0.24774405 0.24849766 0.083827645
0000d0 a9 24 81 3e b1 14 88 be 14 f6 79 be 70 5a 09 bf
       0.25223282 -0.26578286 -0.24410278 -0.5365362
0000e0 6a 3f c3 be 67 3f ce be 98 f7 17 bf 44 69 ee 3e
       -0.3813432 -0.40282747 -0.59362173 0.46564686
0000f0 c0 9f bf 3d 4b 2c 05 3f 99 76 c5 3e dd 05 0a be
       0.09356642 0.5202071 0.38567045 -0.13478799
000100 52 81 2a 3f 05 2e a5 be 74 6e ec 3e e9 c1 30 3e
       0.6660358 -0.32261673 0.4617802 0.17261471
000110 07 b5 5f be 03 9d 8d be b1 75 a3 3e 3c 54 be bd
       -0.218464 -0.27658853 0.3192573 -0.0929341
000120 67 b3 93 be c4 25 1e bd 82 92 0e 3e 4e c5 ca 3e
       -0.2884781 -0.038610235 0.13923076 0.39603657
000130 11 ea c2 bd cf 7c 08 bf 40 f9 1f 3f 42 87 b1 3e
       -0.09517301 -0.5331544 0.624897 0.34673506
000140 bd 9d a9 be ed 87 9e 3d 3f f6 a4 be 77 7a 41 3f
       -0.33128157 0.077407695 -0.3221912 0.7557749
000150 c4 4a 2b 3f 0b 60 08 3f 0a a2 fd bd 60 c2 04 bf
       0.6691096 0.5327155 -0.12384422 -0.5185909
000160 5e 5a 69 3e ed cb 1e be 6c a4 ed 3d f3 5a 8c 3e
       0.22788379 -0.15507479 0.116036266 0.2741314
000170 43 47 a8 be d7 5e 67 be 0a db e7 3e 23 f0 f0 be
       -0.32866868 -0.22594772 0.452843 -0.4705821
000180 30 8e a8 bc 1e b8 cb be 60 1e 1b be a5 37 c2 be
       -0.020575613 -0.39788908 -0.15148306 -0.37933078
000190 78 df b1 3e 6b 91 86 be 59 3b cc be 3b f8 00 bf
       0.34740806 -0.2628282 -0.3988903 -0.5037877
0001a0 34 d6 f0 be 93 65 03 bf d4 e1 31 be 3f 76 32 be
       -0.47038424 -0.51326865 -0.17371303 -0.1742792
0001b0 88 44 81 be 80 10 b3 3a a0 c8 ba bd 02 49 8d be
       -0.25247598 0.0013661534 -0.091202974 -0.27594763
0001c0 31 a2 ff be a6 2c 72 3e 92 50 00 bf 97 89 83 be
       -0.4992843 0.23649845 -0.5012294 -0.2569091
0001d0 a6 70 a6 be 8e e1 b3 bd ca 81 9a be d4 9a 00 3d
       -0.3250782 -0.087832555 -0.30177146 0.031397656
0001e0 68 7c c0 be 6f fe 10 3e 21 c2 04 3f 8a d3 bb be
       -0.37594914 0.14159559 0.5185872 -0.3668483
0001f0 8b 18 3a 3f 25 6c 86 be 49 7e c2 be eb f1 d3 bd
       0.726937 -0.26254383 -0.37986973 -0.103488766
000200 b1 2b 93 be ea c1 8c be 46 b6 46 be 64 13 2f be
       -0.2874427 -0.27491695 -0.1940547 -0.1709724
000210 84 27 b1 bd fd b1 76 be dd 69 0f 3f ce 1c 18 3f
       -0.08650115 -0.24091335 0.5602091 0.5941895
000220 e9 fd b5 be c7 ce f3 be f1 69 5e 3e e7 fa 96 3e
       -0.3554528 -0.47618696 0.21720101 0.29488298
000230 c0 69 d7 be be 72 4e 3c 34 1b 99 be dd 4b ee 3e
       -0.42072868 0.012600599 -0.29903567 0.46542254
000240 87 d3 05 3f 71 67 54 3f 11 fb ce bd 0d 6b ba 3e
       0.5227589 0.8297034 -0.10106481 0.36409798
000250 b8 26 f9 3b e0 3b 91 be e2 d0 ce 3e fe 86 0d 3f
       0.0076034926 -0.28365993 0.4039374 0.55284107
000260 74 e5 15 3f 38 86 d8 3e 08 3a 48 3f 10 86 04 bf
       0.5855324 0.422899 0.7821355 -0.51767063
000270 a0 31 b0 3e 2e 3b 40 3e e2 7f 11 be 58 03 b2 be
       0.3441286 0.18772575 -0.1420894 -0.34768176
000280 7a 7a b1 3e d8 04 35 bd a1 1e 98 be a4 02 88 3e
       0.34663755 -0.044194072 -0.29710868 0.26564515
000290 2e 07 c0 bd 8d ba ba 3d 84 b5 39 3d 49 e1 db be
       -0.093763694 0.09117613 0.045339122 -0.42945316
0002a0 20 1f 40 3f 12 66 c0 3e 5d 08 0e bf 70 ee 2a 3d
       0.75047493 0.37577873 -0.5548151 0.041731298
0002b0 fb dd 0f bf 5d 18 03 3f 4a f8 ef 3e 8a 1b cb 3e
       -0.5619809 0.5120905 0.46869117 0.39669448
0002c0 46 03 fb 3e 26 7f 87 be 80 87 ec 3e 12 a5 83 bd
       0.49025935 -0.26464194 0.46197128 -0.06427969
0002d0 34 cf 17 3d 98 ad 10 3d cc 04 d0 3d c0 18 f6 bc
       0.03706284 0.035321802 0.10157165 -0.030041099
0002e0 dd 9e b5 be 8b 5d c1 bd 0c 74 13 3e f3 99 a4 bd
       -0.35472766 -0.0944167 0.14399737 -0.08037176
0002f0 b7 a5 bb be 07 e2 0f bf 14 ab 4c bd 98 6b 67 bd
       -0.36649868 -0.56204265 -0.04996784 -0.056499094
000300 52 ac 30 be 3d 31 c5 be dd fe ab be 43 c3 72 be
       -0.17253235 -0.38514128 -0.33592883 -0.23707299
000310 52 f4 13 bf 0e c6 ef be f9 6d 95 3e a7 be 86 be
       -0.5779468 -0.4683079 0.29185465 -0.2631733
000320 59 da 19 bf d8 9b 15 bd 57 c2 14 be 7d cc 78 3e
       -0.600988 -0.036525577 -0.1452726 0.24296756
000330 58 69 88 bc f8 d3 c1 be f9 53 8d bd 25 0a 0b be
       -0.016651794 -0.37857032 -0.06900782 -0.13578089
000340 e2 05 39 3e 76 d4 a9 be de f0 ce bd 48 36 ef be
       0.1806865 -0.33169907 -0.101045355 -0.467211
000350 42 65 6e 3d 48 4e 92 be 11 61 01 bf 75 36 68 be
       0.058202036 -0.2857535 -0.50538737 -0.22677024
000360 01 f8 a3 bd 93 2d 73 be 99 ef a1 be 7c 11 6c be
       -0.08006287 -0.23747854 -0.3162811 -0.23053545
000370 6a 68 cf bd c0 ef 9d be 4c a6 d9 be 0f 53 cf be
       -0.10127337 -0.30846977 -0.42509687 -0.40493056
000380 fa 80 1d be 02 c3 07 bf 43 88 91 be a8 8a 19 be
       -0.15381232 -0.53031933 -0.28424272 -0.149943
000390 92 53 01 bf 90 0d a9 3d e4 98 7d 3e 25 4f 08 bf
       -0.50518143 0.0825454 0.24765354 -0.53245765
0003a0 d0 6f 19 be 75 02 25 3f a4 e7 13 bf dd 8b a6 be
       -0.1498406 0.64456874 -0.5777533 -0.32528582
0003b0 28 86 08 bf e6 2a f2 3e 1e 92 84 be d7 c8 83 be
       -0.53329706 0.47298354 -0.2589273 -0.25739166
0003c0 c4 63 14 bf 98 9c 1e 3e 4a 7f 0c bf e3 fe 9e 3e
       -0.5796473 0.15489423 -0.5488173 0.31053838
0003d0 ae ad bf be ba 28 ad 3e fd 5f a5 3e 4d db 8c 3e
       -0.37437195 0.33820134 0.32299796 0.27511063
0003e0 68 3f 2d 3f 87 da 49 3f 18 e2 bc 3d 18 d4 24 3e
       0.67674875 0.7884907 0.092228115 0.16096532
0003f0 33 35 32 3f 55 a6 a8 3e fc ba 4b 3f a8 56 0a 3f
       0.69612426 0.329394 0.7958219 0.54038477

fc3.bias f4 [30]
000000 96 33 44 3e b1 a1 b6 be 1a a1 43 3f 9c 21 01 bf
       0.19160303 -0.35670236 0.76417696 -0.5044191
000010 ca 52 9e 3e 9f 10 3c 3f 20 c5 03 bf a1 f3 c1 be
       0.30922538 0.7346286 -0.51472664 -0.37881187
000020 f8 9b 7f 3e c9 e7 92 3e 40 19 cb be 03 fd c6 3e
       0.24961841 0.28692463 -0.39667702 0.38864908
000030 86 b3 9c bd d4 1f b2 bc 7c ed ad 3e 2b 98 94 3e
       -0.07651429 -0.021743692 0.3397025 0.29022345
000040 a6 fc b1 be 8c 6a bc 3d 22 89 12 bf aa 44 44 3e
       -0.34763068 0.0920001 -0.572405 0.19166818
000050 40 eb 0c be f7 a4 ad 3e fe 5d 9b 3d 23 8c 15 bf
       -0.13761616 0.3391492 0.07586287 -0.58416957
000060 04 ae ae be e4 3b 60 3e 68 eb ad 3d 26 98 94 3d
       -0.34117138 0.21897846 0.08492166 0.072555825
000070 f3 c7 33 3f f9 3e 65 3e
       0.70226973 0.22387303

fc4.weight f4 [1, 30]
000000 54 0b 12 3f 8b 5f c7 be c7 22 4f bf c5 9b 8c 3e
       0.57048535 -0.3894008 -0.8091244 0.27462593
000010 ba a0 2b bf 53 fd 33 bf 55 d6 91 be 71 af 4b 3e
       -0.67042124 -0.7030842 -0.28483835 0.19891144
000020 02 19 4c 3f 2c 79 4f 3f 06 fd 19 be dd f8 40 3f
       0.7972566 0.8104427 -0.15037927 0.75379735
000030 45 dc 18 3d f7 12 a8 3c 0c 02 4f 3f a5 23 17 bf
       0.03731944 0.020516856 0.808625 -0.59038764
000040 92 39 72 3e 59 ab 8c be af 5f a3 3e 29 fc 8b be
       0.23654774 -0.27474478 0.31908938 -0.2734082
000050 c9 8e 00 3f e7 d0 32 3f f3 5e 5e be 7c fc 83 3e
       0.5021787 0.6985001 -0.21715908 0.25778568
000060 f1 e5 92 3e ea df 2f 3f 2a bf 3d 3f 4a c6 44 3f
       0.28691056 0.6870104 0.7411982 0.76865065
000070 8a 92 00 bf 77 f2 e4 be
       -0.502236 -0.44716236
