BestModel.pt (torch, 70027 bytes, 7 tensors)

fc1.weight f4 [90, 3]
000000 0f 52 90 3e ce 2e 02 bf b8 e2 cc 3e 08 eb 04 3e
       0.28187606 -0.5085267 0.40016723 0.12980282
000010 86 3c ee 3d 28 16 21 be bd c0 19 3e d2 93 4d 3d
       0.11632638 -0.15731108 0.1501493 0.0501898
000020 cd 91 af be 85 a0 25 bf b9 f2 ca 3d 8b 9c 24 bf
       -0.34290925 -0.6469806 0.09909577 -0.64301366
000030 5a d5 a4 be 06 47 75 3e d2 a9 48 3e f4 09 69 3e
       -0.32194024 0.23952875 0.19596031 0.22757703
000040 05 b9 99 be 2e 82 9b 3d af 62 2c 3f a4 25 14 3e
       -0.3002397 0.07593189 0.6733808 0.14467484
000050 fa 8f 5d bd 7a 22 b9 3e b8 e9 a8 3e 6c 70 cb 3e
       -0.054092385 0.36159116 0.32990813 0.3973421
000060 69 e8 c2 3e b1 49 24 3e 15 ec fc 3d a8 52 55 3e
       0.3806794 0.16043736 0.123497166 0.20832312
000070 d8 81 de 3e 3e 75 02 3f a5 28 10 bf 41 85 04 3f
       0.43458438 0.5096015 -0.5631202 0.5176583
000080 1f bc 32 bf a5 8c 14 bf f8 95 07 3d 15 5f 84 be
       -0.698183 -0.58027107 0.033102006 -0.25853792
000090 a6 21 0c be 4c 23 29 3d ec e2 b9 3e 96 6a cc bd
       -0.13684711 0.041293427 0.3630594 -0.09981267
0000a0 46 af b0 3e a9 ef 54 be e8 d1 eb 3e ee 9e d1 3e
       0.34508723 -0.20794548 0.46058583 0.40941566
0000b0 f7 d7 ac 3d 04 b3 f4 3d 98 27 0a 3e 31 5f 95 3e
       0.084396295 0.11948207 0.13491666 0.29174188
0000c0 08 76 45 3e ee e5 b1 3e 76 10 29 3e da 66 0a 3e
       0.19283307 0.34745735 0.16510186 0.13515797
0000d0 2a b3 0c 3d db 53 d9 be 5e 11 99 be 0c 09 34 be
       0.03435055 -0.4244679 -0.29896063 -0.17581576
0000e0 bf d9 b3 be a6 2d 2a bf ad 4f 3d 3f fd 1e 06 bf
       -0.35127065 -0.66475904 0.739497 -0.52391034
0000f0 46 ef c3 bd ba 86 de 3e 8e 26 d7 be 86 da 30 3f
       -0.09567122 0.43462163 -0.42021602 0.6908344
000100 f8 89 df be af da 81 be 1a 97 9f be 66 6b 49 3e
       -0.4365995 -0.25362155 -0.3116997 0.19669876
000110 a9 93 2a bf e7 76 b8 3e a0 d7 fa 3c 91 74 ba bd
       -0.6663156 0.36028215 0.030620396 -0.091042645
000120 b8 32 84 bc f7 f8 df 3e 15 8c b5 3e 43 0e 05 bf
       -0.016137466 0.43744633 0.35458437 -0.51974887
000130 9e 79 fc 3d ae 7a 1a 3f 2f 8c 26 bf ce 0e 1e 3f
       0.12327884 0.60343444 -0.65057653 0.6174134
000140 98 b8 20 be 55 b1 00 3f 72 91 92 be ed 14 c6 be
       -0.15695417 0.5027059 -0.2862659 -0.3868784
000150 79 c1 10 bf ec 6d 03 3f 2c c4 23 bf 9d ef 08 3f
       -0.56545216 0.513396 -0.6397121 0.5349062
000160 57 57 c3 3d 02 d2 1c 3e 8c 6f cb be 6c c9 8e be
       0.09538143 0.15314487 -0.3973354 -0.27888048
000170 a5 d0 35 3f e6 65 ab be 17 02 8a be a0 11 4d bd
       0.7102149 -0.3347618 -0.2695472 -0.050065637
000180 48 61 1c bf 37 ba 6a 3e cc e9 60 3e 53 33 26 3f
       -0.6108594 0.22922598 0.21964186 0.64922065
000190 6f e6 2c bd 14 23 af 3e d6 48 34 3f 29 1e 06 bf
       -0.042211946 0.3420645 0.7042364 -0.5238977
0001a0 48 d9 a3 be 4f 00 cd be c5 40 ce 3d 51 5d 0b 3e
       -0.3200171 -0.40039298 0.100709476 0.13609816
0001b0 e9 e6 81 be 40 e5 73 3e 62 eb 8d bd 38 f0 87 3e
       -0.25371483 0.2381792 -0.06929661 0.2655046
0001c0 66 04 90 3e b9 54 31 3f 5c 07 71 3e 98 0e e1 3e
       0.28128356 0.692699 0.23537964 0.43956447
0001d0 0a 77 6e be de 7b 09 3e 52 05 36 3f 34 d7 1a be
       -0.23287597 0.13426158 0.7110187 -0.15121156
0001e0 90 ed 8b bd ee 08 df 3e f6 17 8b bc e9 5a 0a bf
       -0.06832421 0.435615 -0.016979199 -0.5404497
0001f0 5c 30 05 bf 46 2c 9a 3e dc 19 94 3c 04 6e 31 bf
       -0.52026916 0.30111903 0.018078737 -0.69308496
000200 76 33 2b 3f c6 78 67 be 66 85 1b 3f 2a fe c2 be
       0.668754 -0.22604665 0.60750425 -0.38084537
000210 93 24 8d 3e 86 9c 75 bd 40 73 d4 ba 6e 3a 81 3e
       0.27566966 -0.059963726 -0.0016208664 0.2523989
000220 e5 1b 22 3e 3f 0b fc 3e fb 50 f1 3d c9 f7 1b 3f
       0.15830953 0.4922733 0.11783024 0.60924965
000230 f2 7a 58 3e 47 9c e1 bd 98 52 b7 3e ca 54 b4 bd
       0.2114065 -0.11016136 0.35805202 -0.08805235
000240 26 03 10 3e f5 83 19 bf 64 be 9b be 5a 08 8c be
       0.14063701 -0.59966975 -0.30418694 -0.27350122
000250 7f aa a8 3e b5 0a 71 bd e6 4d 95 be 28 46 ab be
       0.32942578 -0.0588481 -0.29160994 -0.33451962
000260 df 21 72 be 85 b4 21 3e 1b 48 b6 3e ec ba 1d bf
       -0.23645733 0.15791519 0.35601887 -0.61613345
000270 af 58 c5 be 77 2a 72 3e ca df 46 bd 83 67 89 be
       -0.38544223 0.23649012 -0.048553266 -0.26836786
000280 34 de 41 be 43 63 9b be 09 7b 57 3e d4 82 45 3f
       -0.1893242 -0.30349168 0.21043028 0.7715275
000290 9e af 30 bf 4c 67 14 bf b4 0d c3 3e bc 0c 0b 3f
       -0.6901797 -0.5797012 0.38096392 0.54316306
0002a0 f4 70 b9 3c a0 8f 68 be ec 36 9b 3e ff f9 46 be
       0.022636868 -0.22711039 0.3031534 -0.19431303
0002b0 66 fd a8 3e b3 39 25 bf e8 e1 68 3e 1b ee cb bd
       0.33005828 -0.6454117 0.22742426 -0.099575244
0002c0 dc 0a 9f bd 36 df 5e 3e d9 87 91 3e 56 97 a1 3e
       -0.07765743 0.21764836 0.28423956 0.31560773
0002d0 bd ab 2c 3f 64 08 92 3e 2b 04 9b 3e 66 18 c7 bd
       0.6744955 0.28522027 0.30276617 -0.097214505
0002e0 ec ff 8a 3d e5 b4 0e bf 22 c1 79 3e 2a e6 32 3e
       0.067870945 -0.55744773 0.2439008 0.17470613
0002f0 92 29 26 3e 04 3a c4 3d 27 c4 bf 3d 8c 3b 2a bf
       0.16226795 0.09581378 0.09363585 -0.6649711
000300 af 9a 34 3f 70 75 3c 3d 92 a0 89 3e f4 a6 9e 3c
       0.7054853 0.046010435 0.26880318 0.019366719
000310 2f bc b5 3e 28 52 60 3c df c1 54 3e 11 e5 0a bf
       0.35495135 0.013691463 0.20777081 -0.5425578
000320 02 0c 6c bd a6 6e c8 3d 89 f9 52 3e 20 5e df 3d
       -0.05762864 0.097867295 0.20603003 0.10906625
000330 ee d1 0e 3f e3 b3 bf 3e 1e 08 a8 be 5b bf ae 3d
       0.5578908 0.3744193 -0.32818693 0.08532592
000340 d1 6d 07 bf 48 76 a3 be b2 6d 8e 3e 1b 9f d7 3e
       -0.5290194 -0.3192618 0.27818066 0.42113575
000350 1b 0f d5 3d 84 b8 5e be ec 07 c3 be c6 b8 a3 be
       0.10403272 -0.21750075 -0.3809198 -0.31976908
000360 5e 92 71 3e 1c 17 be bc 98 e0 96 3e 9a 4b 9f 3e
       0.23590991 -0.023204379 0.29468226 0.31112367
000370 57 ae 9e 3e 72 19 21 3f fa 4e f3 3e a9 96 98 be
       0.30992386 0.6292945 0.47521192 -0.29802445
000380 04 e9 b6 be 8c a3 95 be 90 36 43 be b9 df d6 3e
       -0.35724652 -0.2922634 -0.19063783 0.41967562
000390 90 31 ed bd ec c8 f6 be 3c d4 a5 3e da 8b d0 3e
       -0.11581719 -0.48200166 0.32388484 0.40731698
0003a0 ca 67 39 3f c6 2a 0f 3f 54 15 78 be 5d 08 1d bf
       0.72423995 0.5592464 -0.24226886 -0.61340886
0003b0 8e 23 0e bf a0 1f 92 3e 3d 51 e3 be dc 0e 32 be
       -0.55523 0.28539753 -0.44397917 -0.17388481
0003c0 70 fa ae bb b9 1c d3 3d 7a ab c2 3e b2 7e db 3e
       -0.005339913 0.10308213 0.3802145 0.42870098
0003d0 70 0e 17 3f c5 98 2b bf f0 86 95 3d bc 84 88 3e
       0.59006405 -0.6702998 0.07301128 0.26663768
0003e0 1a 25 ca be ac ad 10 3e 2f c4 c3 3c 70 7e 0a 3f
       -0.3948143 0.1412875 0.023897259 0.5409918
0003f0 f7 6d d3 3e f5 06 10 3f 9b f4 3a 3e fd 2a 16 bf
       0.41294834 0.56260616 0.18257372 -0.58659345

fc1.bias f4 [90]
000000 f3 e3 7d be 82 32 b9 be 39 9a d8 bd 24 24 a9 3e
       -0.24793987 -0.36171347 -0.10576291 0.33035386
000010 60 3f 51 3e 81 e0 09 bf fe 08 7f be 7f 43 bd be
       0.20434332 -0.5385819 -0.24905774 -0.36965558
000020 98 a4 8b be 49 91 33 3e 70 31 35 bc 78 94 6b be
       -0.27274013 0.1753589 -0.01105915 -0.23005855
000030 ae 86 42 3e 4a 47 c9 3d 50 ac 2e 3e 5e 36 eb be
       0.18996689 0.098280504 0.1705792 -0.45939916
000040 b8 52 9b 3e ac ea f2 3d ca d4 3c 3d da ca 4f be
       0.30336547 0.11861166 0.04610137 -0.20292225
000050 17 9a 05 3f 24 0b af 3e 3b 3b ed 3e 39 af fc 3e
       0.5218825 0.34188187 0.46334252 0.49352434
000060 26 a3 37 bf a4 56 b7 be d2 d1 c4 3e 62 e9 19 be
       -0.7173332 -0.3580829 0.3844133 -0.15030435
000070 ed 90 01 3f 04 f0 c5 3e e2 dc ee 3c 0c e7 21 3d
       0.50611764 0.3865968 0.02915806 0.039526984
000080 bd 52 87 3e fd f9 80 bd de 65 96 bd 9f 16 b1 be
       0.26430312 -0.062976815 -0.073436484 -0.3458757
000090 d3 75 94 3e e6 db cd bd c1 6c 63 3e 1f 16 c5 3e
       0.28996143 -0.10051708 0.22209455 0.3849344
0000a0 be cd c4 3e d8 5b d3 3e f2 ac 2e 3f 7a 46 a5 be
       0.3843822 0.4128101 0.68232644 -0.32280332
0000b0 25 76 a4 3d 63 b1 e0 be 54 ab 80 be 61 c5 0b 3e
       0.08030347 -0.43885335 -0.25130713 0.13649513
0000c0 9e 5c 31 bf da 01 71 3e 7e 9d c6 bd 6c 4a 37 be
       -0.6928195 0.23535863 -0.09698008 -0.17899483
0000d0 19 a4 2e bf 91 23 15 bf ca 52 0e be e9 66 4f 3e
       -0.68219143 -0.58257395 -0.13898769 0.20254101
0000e0 f0 3a ea 3b f1 63 c4 3e ef 97 93 be c5 08 28 bf
       0.007148139 0.383575 -0.28826854 -0.6563838
0000f0 80 2c 02 bd 8b 62 7a 3e bb 75 42 3e 6e 22 9e be
       -0.03178072 0.24451654 0.18990223 -0.30885643
000100 58 0b 88 bd b7 f5 32 bf 4b 0c a8 bd 76 d1 6f 3e
       -0.06642789 -0.6990618 -0.0820547 0.23419747
000110 c2 10 82 be 18 95 ff be c8 e1 6b bc b6 98 f8 3e
       -0.2540341 -0.49918437 -0.014397092 0.4855401
000120 5f 9b 89 be a6 6f dd 3e 0b d0 e3 3e 65 49 9b 3e
       -0.2687635 0.43249243 0.44494662 0.30329433
000130 74 b3 cf bd 92 7c 48 3e 15 49 1f 3f f6 4a ca be
       -0.1014165 0.1957877 0.6222089 -0.39510316
000140 d2 41 29 3e 91 10 26 3f 50 c7 f6 3c 37 b6 a1 be
       0.16529015 0.6486903 0.030124336 -0.3158433
000150 4a 62 6d be 0b 51 45 be dc 09 2a 3e 12 54 7c 3e
       -0.23182026 -0.19269197 0.16605324 0.24641445
000160 7d 6c 3a 3e f4 c7 3c 3d
       0.18205447 0.046089128

fc2.weight f4 [90, 90]
000000 3e 1b 62 be 63 e4 04 3e fc 68 61 3e fe d6 3d 3e
       -0.22080705 0.12977748 0.22012705 0.18539044
000010 98 c6 1f be 00 b5 6f be fa 6c 32 be a6 ab 0b be
       -0.15603101 -0.2340889 -0.17424384 -0.13639697
000020 35 65 f6 bd 4e 09 45 be 67 f1 81 3e 48 86 6c 3e
       -0.120310225 -0.1924183 0.25379488 0.23098099
000030 0e 65 1d be 56 8b 69 3e b9 e0 86 be 77 c9 02 be
       -0.1537058 0.22807059 -0.26343325 -0.12772165
000040 cb 64 d8 bd b4 d9 4a 3e 07 d4 12 3e ba 78 3f 3e
       -0.105661 0.1980961 0.14338695 0.18698397
000050 da af 18 3e c3 e4 86 3e ae 9f 3c 3e 66 7a d2 3d
       0.14910832 0.26346406 0.18420288 0.10277252
000060 c7 37 50 be 8c db 36 be 0f da 01 3e b0 9c 7f 3e
       -0.20333777 -0.17857188 0.12680839 0.24962115
000070 08 d6 55 3e fa 84 b9 3d 8e 30 92 bd 90 ef 6a 3e
       0.20882428 0.090585664 -0.07138167 0.22942948
000080 1b 95 24 be e0 46 7f be ec ff 0e 3e a3 dc 53 be
       -0.16072504 -0.2492938 0.13964814 -0.20689635
000090 f2 4d 8a 3e 9c cd 75 be 9e 3c 81 3e c6 d6 29 3e
       0.27012593 -0.24004215 0.2524156 0.16585836
0000a0 6f 2c 29 3e fc 04 6e be 3e ef 6b be cb 3a da 3d
       0.16520856 -0.23244089 -0.23040482 0.10655745
0000b0 ea db 82 bd ca 56 15 be 72 6b 1b 3e c4 8e 67 3e
       -0.063896015 -0.14583889 0.15177706 0.22613055
0000c0 76 96 2a 3e 39 c8 69 3e 44 11 16 3e 25 95 8a 3e
       0.16658959 0.22830285 0.14655024 0.27066913
0000d0 d2 a4 64 3e dd f7 83 3d 76 80 18 3e fc c6 4d be
       0.22328499 0.064437605 0.14892754 -0.20095438
0000e0 15 0e ba bd d4 41 1b 3e af 29 d3 3d 2a 4f 4c be
       -0.09084717 0.1516183 0.10310685 -0.19952074
0000f0 af b5 aa bd c8 7d 73 3e 02 2c 91 3d aa c3 87 3e
       -0.08335435 0.2377845 0.07088472 0.26516467
000100 86 5c 7a be 89 92 05 3e 0f 27 d4 3d 00 bf 54 be
       -0.24449357 0.1304418 0.10359012 -0.20775986
000110 a4 19 0d 3e 29 4b 45 3e 46 26 e4 bd 7a e6 e9 3d
       0.13779312 0.19266953 -0.111401126 0.11420913
000120 0e ff 35 3e 66 8c f4 bd 0c 0d 2b 3e 8a 1e f2 bd
       0.17773077 -0.119408414 0.16704196 -0.11822231
000130 3b 92 25 be eb 41 34 be 27 0e 53 3e 97 d2 b9 3d
       -0.16169064 -0.1760327 0.20610867 0.0907337
000140 45 e2 8b bd 3a c4 28 3e ee d9 65 3e 33 7d 6c be
       -0.06830267 0.16481104 0.22446415 -0.23094635
000150 56 95 68 be 02 5d e8 3d e8 28 cd 3d c9 b1 6d 3e
       -0.22713217 0.11345865 0.10017568 0.23212351
000160 88 28 3f 3e 98 c1 86 3e 80 ca b6 bb 74 bb 9c bc
       0.18667805 0.26319575 -0.005578339 -0.019132353
000170 f0 16 68 3c 38 d4 ae bc 6c 75 22 bd 6e de bd 3d
       0.014165625 -0.021341428 -0.039662763 0.09270941
000180 6a 30 5d 3d 7c d8 38 3d 04 27 66 3c 30 e7 8b bc
       0.05400125 0.04512833 0.014047388 -0.017078012
000190 96 ef 34 3d 72 69 8d bd 72 1b 6c bd 70 d0 75 3c
       0.0441738 -0.06904878 -0.05764336 0.015003309
0001a0 d4 d7 2d be f0 69 8e 3d b8 16 d8 bd 0b d2 c4 3d
       -0.16976863 0.069538 -0.10551208 0.09610375
0001b0 04 12 ae bd 21 44 c5 3d 7a 46 2a be 50 60 01 3c
       -0.0849953 0.09632135 -0.16628447 0.007896498
0001c0 de 9a 23 bd 8c 8c 33 3e 22 40 13 be c6 38 00 be
       -0.039942615 0.17534083 -0.14379933 -0.12521657
0001d0 ca 26 2a be 11 15 d6 bd 2c 3d d9 bd cc 13 15 bd
       -0.1661636 -0.10453237 -0.10607371 -0.036395833
0001e0 88 68 08 bc 49 1e 30 3e 34 d9 54 bd 70 5c 2c 3c
       -0.008325703 0.17199053 -0.051964954 0.010520086
0001f0 46 8d 08 3d 54 eb 2e be 44 d0 a5 bc cc 0c ea 3c
       0.033337854 -0.17081958 -0.02024091 0.028570555
000200 00 a0 d6 b7 c2 8f 91 bd be cd 13 be 9c 4d 0d be
       -2.5585294e-05 -0.07107498 -0.14433953 -0.13799137
000210 78 e1 75 3c 60 f8 3b bc 36 4e a6 3c 18 b5 e2 3d
       0.015007369 -0.011472791 0.020300966 0.11069697
000220 96 96 10 3e 97 b6 1b be 4f 08 3d bd e0 bd 69 bd
       0.14119944 -0.15206371 -0.0461505 -0.057065845
000230 38 1f 60 bd 55 65 c2 3d 8c a0 0a bd 83 47 7f bd
       -0.054717273 0.09491984 -0.033844516 -0.06232406
000240 00 79 cf b9 82 c9 77 bd 44 b3 61 3d e0 27 18 3b
       -0.0003957227 -0.060494907 0.0551026 0.0023217127
000250 fe c9 87 bd 53 41 02 3e 00 22 e7 39 94 40 ad bd
       -0.06630324 0.12720232 0.00044085085 -0.08459583
000260 b6 0a 1e be d2 6c d5 bd 80 2d cf 3d 80 a3 70 bb
       -0.15433773 -0.104211465 0.101161 -0.0036718547
000270 9b f1 a8 3d 96 76 0e be 68 dc 1c 3c c6 1d 45 3d
       0.082492076 -0.13912424 0.009574033 0.048124097
000280 0b b8 c8 bd 9e e5 05 3e 90 5f 08 3c 26 ac d0 bd
       -0.098007284 0.13075873 0.008323565 -0.10189085
000290 19 3f 75 bd 30 79 6f 3c a0 7b 2c 3b 88 87 fb bc
       -0.059874628 0.014616296 0.0026318803 -0.030704275
0002a0 9e 2e 06 3e f8 84 fa bc 80 a4 7a bc 40 fa c7 3b
       0.1310372 -0.030580983 -0.015298009 0.00610283
0002b0 a5 c3 65 bd 82 1f 26 3e 18 b5 a4 bc 6f 3c bb bd
       -0.056094784 0.16222957 -0.020105883 -0.09142386
0002c0 4a 91 56 bd 06 c7 1d 3e 50 26 99 bc 84 46 ad bc
       -0.052384652 0.15407953 -0.018695027 -0.021151789
0002d0 2c 08 82 be 38 b4 39 be 54 4e 23 be 6c e1 80 be
       -0.2539686 -0.18135154 -0.15947849 -0.25171983
0002e0 0a 74 76 be ce fc 0d be df 6a 7a 3e 4a dc 5c 3e
       -0.24067703 -0.13865969 0.2445483 0.21568409
0002f0 88 08 17 be ae bd 99 3d b8 b0 2f be 44 f6 83 bd
       -0.14749348 0.07506882 -0.17157257 -0.06443456
000300 3b 66 b4 3d ea cb 3a be 8a 58 22 3e c2 bd 6a 3e
       0.088085614 -0.1824185 0.15854087 0.2292395
000310 92 b6 c1 3d 30 20 5f be b3 1f 03 be e0 d8 ad bd
       0.09458651 -0.21789622 -0.12805061 -0.08488631
000320 4e b2 4c be cb d5 b7 bd 6c da 83 be 26 1f 67 be
       -0.19989893 -0.08976325 -0.2575258 -0.22570476
000330 c8 b6 b1 3d 40 28 35 be c9 d3 0a be 32 fd fa bd
       0.08677441 -0.17691135 -0.13557352 -0.122553244
000340 7b b4 2d be 76 f3 82 be d8 2a 91 bd 88 38 09 be
       -0.16963379 -0.2557637 -0.0708825 -0.13400471
000350 f6 6f 5f be 3a 6e 63 be 80 32 57 be 8d 6b fd bd
       -0.21820053 -0.22210017 -0.21015358 -0.12374029
000360 70 2a 44 be c7 97 8f 3d 65 2c 5e be 0f d5 18 be
       -0.19156814 0.07011371 -0.21696623 -0.14925025
000370 0e 0f 43 be c8 f3 35 be 88 0c 26 be a6 dd 0b be
       -0.19048712 -0.17768776 -0.16215718 -0.13658771
000380 06 a0 62 be 77 d8 8f bd 5c 66 8a 3d 3c f2 1e be
       -0.22131357 -0.07023709 0.06757805 -0.15522093
000390 32 b8 90 bd 70 b9 cc bd 28 ec 4b be 66 a2 03 be
       -0.070663825 -0.09996307 -0.19914305 -0.12854919
0003a0 f6 f5 ad bd ae ab 7f be af 65 96 bd 86 38 78 3e
       -0.08494179 -0.24967834 -0.07343613 0.24240312
0003b0 ef fe 7f be 6a cd 96 bd 10 af 0c be f8 e8 76 be
       -0.24999593 -0.073633984 -0.13738656 -0.24112308
0003c0 f0 5a 78 be 72 4d 20 be 15 54 a3 bd fa 6a 24 be
       -0.2425344 -0.15654543 -0.07975022 -0.16056433
0003d0 50 f1 47 3e 14 d0 80 be 4a 2a ae bd ff eb 67 3e
       0.19525647 -0.2515875 -0.0850416 0.22648619
0003e0 44 7d e0 bd 2c 96 27 be 8c c2 1a 3e fe 28 0a be
       -0.109613925 -0.1636588 0.15113276 -0.134922
0003f0 6f ed 87 3d 00 70 51 3e 5a 14 51 be 21 cb 7f be
       0.06637084 0.20452881 -0.2041792 -0.24979831

fc2.bias f4 [90]
000000 0d 6f 28 be b6 45 10 be 2f bc bf bd b6 3e 91 3d
       -0.16448613 -0.14089093 -0.09362065 0.07092039
000010 c6 69 ea 3d 58 05 32 be c9 b7 73 be 9a 4e 83 be
       0.11445956 -0.17384851 -0.23800577 -0.25645906
000020 4c e6 07 be d6 21 3e 3e f3 db a8 3d 60 ab 45 3e
       -0.13271445 0.18567595 0.08245077 0.19303656
000030 98 2c 3a 3e 4a b7 05 be 1b 8c da bd f0 0c 08 be
       0.18181074 -0.130582 -0.10671254 -0.13286185
000040 6a 14 1a be 44 5a 41 be 6a cb b2 3d ac 27 a7 bd
       -0.1504685 -0.1888209 0.087302044 -0.08161864
000050 48 bc 2b be 53 59 62 3e e9 13 1a be 2e 80 cf 3d
       -0.16771042 0.22104387 -0.15046658 0.1013187
000060 f4 8b 83 3e 2e f8 18 be d0 ee 30 3e 03 a6 a9 3d
       0.25692713 -0.14938423 0.172786 0.08283617
000070 2e 1d 84 be 7f ad e5 bd 38 78 4d be 22 af 76 3e
       -0.25803512 -0.112147324 -0.20065391 0.24090245
000080 73 6d d9 bd 46 c0 2c be 34 fd 41 be 21 8f e4 3d
       -0.10616579 -0.16870221 -0.18944246 0.11160112
000090 dc f5 36 be f8 72 6d bc 18 b9 29 be 44 23 85 3e
       -0.17867225 -0.014492743 -0.16574514 0.26003468
0000a0 e8 02 15 be e7 7f 5c 3e aa ed 86 3e 11 a6 85 be
       -0.1455189 0.21533166 0.26353198 -0.2610326
0000b0 a2 3c 51 3e 69 7e 71 3d de 89 25 be ce ce 83 be
       0.20433286 0.058958445 -0.16165873 -0.25743717
0000c0 5b 17 91 bd 2b 45 84 3e 89 1b b8 3d 2c 70 f8 bd
       -0.07084533 0.2583402 0.08989627 -0.1213077
0000d0 8c 0e f5 3b 72 d8 5f be e7 66 85 be 9a b6 c0 bd
       0.0074785408 -0.21859911 -0.2605507 -0.094098285
0000e0 d4 81 8a be 4c 67 b3 3c 03 62 14 be bc 42 c9 bc
       -0.27052176 0.021899842 -0.14490514 -0.024567954
0000f0 7e d8 88 3c 48 69 a6 bb da 49 cd bd 62 23 50 be
       0.016704794 -0.0050784685 -0.10023852 -0.20325997
000100 d6 0b 57 3e 7c d5 84 be be 0d 58 3e 8b 24 aa 3d
       0.21000609 -0.25944126 0.21098992 0.08307751
000110 ea a4 2d 3e 92 5b 5b 3e b2 f6 85 be b8 1f 38 be
       0.16957441 0.2142165 -0.26164776 -0.1798085
000120 9b d1 34 be 98 11 59 3d 35 41 12 3e 0a 06 48 3e
       -0.17658083 0.052995294 0.14282687 0.19533554
000130 dd fb f2 3d 28 2e 0f 3e e2 b7 20 be 96 cd 81 be
       0.11864445 0.13982451 -0.15695146 -0.25352162
000140 40 bd 4b 3e 81 3c dd 3d d3 ae 77 3e 03 bf b8 3d
       0.19896412 0.10802556 0.24187784 0.090208076
000150 3a 0d 5a be 4e 5f 02 be 7a 4b 9b 3d 12 8b ec 3d
       -0.21294108 -0.12731668 0.075827554 0.11549963
000160 79 32 81 be 5d 1a 2b 3e
       -0.2523382 0.16709276

fc3.weight f4 [90, 90]
000000 60 59 4b bb 60 2d 08 3b 3c 5e 8f bc 2c 8e 86 3c
       -0.0031028613 0.0020778999 -0.01750099 0.016425215
000010 a5 72 86 3d 1b 4a b2 3d cc 2e 90 bd b1 4a c7 3d
       0.065648355 0.08705541 -0.07040176 0.09731043
000020 e2 a0 a2 bd b5 51 b5 3d 9a 56 07 3d 5f 59 74 bd
       -0.07940842 0.08853475 0.033041574 -0.059655543
000030 ae bd 89 bd eb 24 c9 bd 31 08 cb bd bc f9 94 bd
       -0.06725632 -0.09821495 -0.09913672 -0.072741956
000040 3a 5f 7c 3d fe 3b 1d 3d 07 df bb 3d 7a dd 0b 3d
       0.061614253 0.03838729 0.091733985 0.034146763
000050 38 2f f2 bc 5c fc b6 3c 10 16 9a 3b a7 04 c0 bd
       -0.029563531 0.022337131 0.004702337 -0.09375887
000060 ed e6 4c bd 92 8d 0a bd a0 57 ec bc 40 2a 64 bb
       -0.050024915 -0.03382642 -0.028850377 -0.0034815222
000070 d0 6c f6 3b c0 1d a0 3b 25 d1 6b bd 44 ea c1 3c
       0.0075202957 0.004886359 -0.057572503 0.023671277
000080 04 09 e1 3c 26 8f 9c bd e2 9e 52 3d 11 33 ba bd
       0.02747012 -0.07644491 0.051421054 -0.090917714
000090 54 4b 94 3c a6 25 09 bd 5d 9e d4 bd 2f 7e 3a bd
       0.018102325 -0.03348317 -0.10381768 -0.045530494
0000a0 b5 ba cc 3d b8 73 cd bc 22 d2 10 bd 63 fd 88 3d
       0.09996549 -0.025079593 -0.03535665 0.06688955
0000b0 76 d3 b8 bd 01 ed c0 3d 9f 29 9b bd c4 cb f5 3c
       -0.09024708 0.09420205 -0.07576298 0.03000439
0000c0 24 c2 b4 3c 48 8c ac bc 60 ef 3e 3c 7c d6 fd 3c
       0.02206523 -0.021062985 0.011653751 0.030986063
0000d0 7c 0e 04 bd b1 97 42 bd 1a aa 73 bd e4 3a d5 3c
       -0.032240376 -0.047507945 -0.059488393 0.026029058
0000e0 f8 12 4e bc 89 38 c4 3d 80 ba 1d 3a c2 6b 2d 3d
       -0.012577765 0.09581096 0.00060168654 0.042339094
0000f0 80 2f 34 bd a4 ca fe 3c b0 db 68 bd b7 18 b6 3d
       -0.043990612 0.031102486 -0.056850135 0.08891433
000100 22 5c ac bd 36 af 12 3d 41 3c 55 bd 76 11 41 3d
       -0.084160104 0.035811625 -0.052059416 0.047135793
000110 f0 af d3 3b dc d3 34 bd 8c bf e6 3c a0 29 85 bc
       0.0064601824 -0.044147357 0.028167509 -0.0162552
000120 3a 4c 33 3d 4a e0 7e 3d 76 a4 02 3d ed 2d b3 bd
       0.043773867 0.062225617 0.031895123 -0.08748994
000130 16 52 a6 bd 14 d4 f0 3c 90 30 d2 3b 36 8d c1 bd
       -0.081211254 0.029398002 0.0064144805 -0.09450762
000140 66 b3 2d bd 6e d4 14 3d 30 c1 da bb 2d 36 98 3d
       -0.042407416 0.0363354 -0.006675862 0.07432208
000150 ca 18 23 3d 7a 2f 49 bd 96 73 9c bd 70 a8 c4 bc
       0.039818563 -0.049117543 -0.07639234 -0.024006099
000160 44 da 9e 3c 28 fc 9a bc 2c 06 10 3b e0 e6 e5 bd
       0.019391187 -0.018919066 0.0021976335 -0.112256765
000170 52 6f 1c 3e 39 42 40 3e a8 b2 bf 3d 6e a1 30 be
       0.1527684 0.18775262 0.09360248 -0.1724908
000180 0b 9b fb 3d 38 2c b4 3d ca 05 44 bd 60 78 ef 3d
       0.122854315 0.087974966 -0.047857083 0.116928816
000190 c8 4d 50 3c 3b 0b 90 be 46 c0 83 be 1b 71 60 3e
       0.012713857 -0.28133568 -0.2573263 0.21918146
0001a0 36 83 d3 3d 46 9d 12 3e c6 ee 68 be 5f 5f 56 3e
       0.10327761 0.14317808 -0.22747335 0.20934819
0001b0 5e 8b 2a 3e 60 8f fc bc ad 1a d7 bd c0 c9 81 3e
       0.16654727 -0.030830085 -0.10503135 0.25349236
0001c0 e4 7a 74 3d 26 5c 79 3e 9c 35 71 3d 70 b6 87 3e
       0.05968751 0.24351558 0.058889017 0.26506376
0001d0 c1 5b a4 3d 29 c3 c5 3d 92 86 ab 3d 11 95 c4 bd
       0.08025313 0.096563645 0.083752766 -0.09598745
0001e0 4e 2e 67 be da b2 72 3e ef b5 5e 3e 82 7c 99 3d
       -0.22576258 0.23701039 0.2174909 0.07494451
0001f0 5c 4f 66 3e 24 89 f5 3d 6e 16 29 3e be c5 4e be
       0.2249121 0.11989048 0.16512462 -0.2019262
000200 7b ef 86 3e 52 ab 7b 3e 1a c3 18 3e 34 62 39 3e
       0.26354584 0.24577072 0.14918175 0.18103868
000210 e4 a5 63 be 64 9e 41 3e a3 56 54 3e b4 fb 5c 3e
       -0.22231251 0.18908077 0.20736174 0.21580392
000220 3a 6b 38 3e c9 53 f0 bd 86 1c 25 3e 1d 05 ee 3d
       0.18009654 -0.11734731 0.16124162 0.11622069
000230 32 f5 3b 3c a2 b2 65 3e 19 46 02 be 3c e0 8d 3d
       0.011472033 0.22431424 -0.12722053 0.06927535
000240 50 30 0a 3e c6 2f 00 3e 70 06 64 bd 52 25 88 3e
       0.13494992 0.12518224 -0.0556702 0.26590973
000250 48 55 12 3e 34 69 98 bd 04 0a dc bc 7e 8c 80 3d
       0.14290345 -0.07441941 -0.026860245 0.06276797
000260 3c 31 18 3d 12 05 f3 3d 1c d1 0c 3e 75 a6 72 3e
       0.03715633 0.118662015 0.13751644 0.23696311
000270 e8 cf 3a be 3e 0b d9 3d d7 4f cc bd 03 1f 82 3e
       -0.18243372 0.105978474 -0.09976166 0.25414285
000280 36 58 25 be cc cd 4b 3e a5 91 4f 3e 82 8f 62 3e
       -0.16146931 0.19902724 0.20270403 0.22125056
000290 88 28 1c 3c d6 81 d7 bc 9e 46 12 be a0 d0 f0 ba
       0.009531148 -0.026307028 -0.14284751 -0.0018372722
0002a0 b7 9f 48 3e e8 aa f1 3d a8 79 8e be df c9 17 3e
       0.19592176 0.11800176 -0.2782719 0.14823101
0002b0 84 e1 67 3e a1 84 1a 3e ca 98 d4 bd c2 71 48 3e
       0.22644621 0.15089656 -0.10380705 0.19574645
0002c0 02 47 88 3d 02 fe d2 bd 6c 29 86 3d 9e ce e2 3d
       0.06654169 -0.103023544 0.06550869 0.11074565
0002d0 66 41 46 3e a2 ef 34 bd 7f 09 28 3e f4 72 e0 bd
       0.19360885 -0.044173844 0.16409872 -0.109594256
0002e0 12 e6 44 3d c0 95 63 3e a6 3b 42 be d9 25 12 be
       0.048070975 0.22225094 -0.18968067 -0.1427225
0002f0 82 84 1e 3d 99 e9 09 be 4a ed 83 3e 6c 83 5a 3e
       0.038700588 -0.13468017 0.25766975 0.21339196
000300 86 5e 1d 3e 86 11 73 be 86 5a 48 bd a8 e4 74 3e
       0.15368089 -0.23737153 -0.048914455 0.2391535
000310 52 14 83 3e f4 6d 05 be 9b 3a b9 bd be a6 0c 3d
       0.2560144 -0.13030225 -0.09044381 0.034338705
000320 70 ae 14 3e 92 cb 3a be 6a 34 04 3e f6 e4 ff bd
       0.14519668 -0.18241718 0.1291062 -0.12494843
000330 1c 26 cb 3d 59 6b 67 be 8c 16 6e 3e 05 1e ab bd
       0.09919378 -0.22599544 0.23250788 -0.08355335
000340 f4 66 3e 3c ae 14 bf bd 05 99 a8 bd 70 8b 09 3e
       0.011621226 -0.09330116 -0.08232311 0.13432097
000350 b4 55 af bd a8 c1 a2 bd c1 bb 12 be c4 0b 29 be
       -0.085612684 -0.07947093 -0.14329435 -0.16508394
000360 f0 05 5e 3e 1a f3 0f 3e 26 a3 8b 3e 14 c9 63 be
       0.21681952 0.1405758 0.2727291 -0.22244674
000370 1d a5 9f 3d 98 ab 8d bd a0 9b 76 3e 53 60 d2 bd
       0.07795165 -0.069174945 0.24082804 -0.10272279
000380 02 8b 95 3d ee 29 15 be 9d c4 f7 bd fa 40 fa 3d
       0.07301904 -0.14566776 -0.12098048 0.122194245
000390 c8 86 f4 3d 8a d0 16 3e 79 94 33 3e 02 8d 88 bd
       0.1193977 0.14727989 0.17537107 -0.0666752
0003a0 60 7d 3d 3c f4 0a 4c be 60 d6 50 3e aa af ab bd
       0.011565536 -0.19926053 0.20394278 -0.08383115
0003b0 e4 39 e6 bd dd 30 36 bd 05 6e 87 3e 52 5d 7a bd
       -0.112415105 -0.044480193 0.26451126 -0.061124153
0003c0 b6 9e 5b 3d a0 8b 26 3e f9 d7 27 3e 9e 9e 8b 3d
       0.053618155 0.162642 0.16390981 0.06817363
0003d0 be 57 80 be 27 fd a7 3d 86 77 82 3e 47 d2 da bd
       -0.25066942 0.08202582 0.25481814 -0.106846385
0003e0 22 1f 8b 3e d4 04 36 be ce d0 0f be e1 75 fd 3d
       0.2717219 -0.1777528 -0.14044496 0.12375999
0003f0 9d ec 09 3e c2 32 d1 bd 99 c6 91 bd 2e 8c bd 3d
       0.13469167 -0.102147594 -0.071179576 0.09255253

fc3.bias f4 [90]
000000 e3 e0 83 3d ed 84 35 3e 42 3c df bd 46 86 80 bd
       0.06439378 0.17726488 -0.10900165 -0.062756106
000010 65 07 83 3e e0 36 d4 bc 9a 9d 1d be ec a1 88 bd
       0.2559158 -0.025905073 -0.15392151 -0.06671509
000020 aa 4f 21 3e 1a ae 9a 3d 48 d6 3a 3e 09 c0 12 3e
       0.15753046 0.075527385 0.18245804 0.14331068
000030 ea ba 0c be 80 a7 6b be 6e 93 75 3e 40 e1 75 bb
       -0.13743177 -0.23013115 0.23982021 -0.0037518293
000040 2a 95 60 3e aa 19 34 be 12 a8 b3 bd ac a5 5d be
       0.21931902 -0.17587915 -0.08772291 -0.2164523
000050 88 93 65 be 42 d9 0c be 30 52 10 bd 60 87 1b 3d
       -0.2241956 -0.13754752 -0.03523463 0.0379709
000060 42 88 e3 3d ec d2 77 3e 78 da 46 3b 5c bc 0f bd
       0.111099735 0.24201554 0.003034262 -0.035091743
000070 eb 83 82 3e cb aa 82 bd 86 f6 69 3e c0 59 01 3d
       0.2549127 -0.063802324 0.22847947 0.031579733
000080 78 99 eb 3d 18 c1 ba bd 17 ad 9f 3d 17 48 47 be
       0.11503881 -0.09118861 0.07796686 -0.19461094
000090 12 2f 19 be d6 e2 20 be ce 5e 85 be 32 f2 82 be
       -0.14959362 -0.15711531 -0.26048893 -0.25575405
0000a0 e9 44 3b 3e 6d e0 0e be ce 66 c6 bd 2c 04 4b be
       0.18288006 -0.13952799 -0.09687577 -0.1982581
0000b0 18 f5 34 3e bc ed 02 3e f9 ee 88 be d8 84 1e be
       0.17671621 0.12786001 -0.26744822 -0.15480363
0000c0 5e 12 7b be 88 58 75 be 90 f5 c1 bb be 08 8b be
       -0.24518725 -0.23959553 -0.005919166 -0.27155107
0000d0 5b ec bb bd d2 73 38 be c1 15 f4 3d 29 d6 0d 3e
       -0.091759406 -0.18012932 0.11918212 0.13851227
0000e0 30 43 2a 3e 2b b9 6d be ba ba 10 3e 51 f6 6b 3e
       0.16627192 -0.23215167 0.1413373 0.23043181
0000f0 fd 48 c7 3d db 07 13 3e cc 3d 2e 3d 70 25 79 bc
       0.09730718 0.14358465 0.042539403 -0.01520668
000100 4c ef f5 bd 96 79 13 3d c6 5b 1e be 61 5e 06 be
       -0.12008533 0.036004625 -0.15464696 -0.1312194
000110 62 4d 47 3e 4c e3 a5 bd 0e a4 41 be ff ae 8b be
       0.19463113 -0.08099994 -0.18910238 -0.2728195
000120 c0 1c 1d 3e 57 4b fc 3d 4d 1a 7c 3e e9 b7 fb bd
       0.15342999 0.123190574 0.24619408 -0.122909375
000130 d1 f2 12 be 2f 22 8e 3e a0 6a 09 3b 53 06 c8 bd
       -0.1435044 0.27760455 0.0020968094 -0.09766831
000140 3a f0 8a be ea e7 80 3e 37 15 7e be 42 2a 8a bd
       -0.27136403 0.25176936 -0.2481278 -0.06746341
000150 e3 3d c3 bd 89 7a 45 3e f1 11 cf 3d 1e b0 1f be
       -0.09533288 0.19285025 0.10110844 -0.15594527
000160 54 56 62 be 98 d6 5d bd
       -0.22103244 -0.05415973

fc4.weight f4 [1, 90]
000000 96 d9 23 3d 2b fe 62 3e bf 2a 98 be c7 4d 07 3e
       0.040002428 0.2216727 -0.29720113 0.13213263
000010 94 a2 4f be 93 41 9a bd f0 e4 38 bd 84 72 9c bd
       -0.20276862 -0.075320385 -0.045140207 -0.076390296
000020 32 ad 57 be fb 56 fe 3d 7a 47 34 3e db b5 7d be
       -0.21062163 0.12418934 0.17605391 -0.24776404
000030 1e 36 b4 3d 58 a0 23 be ab c1 71 be c0 a4 00 be
       0.087993845 -0.15979135 -0.23609035 -0.12562847
000040 b6 60 f3 3d ec b5 0c 3e b0 92 07 3e 0d df 8d 3d
       0.118836805 0.13741273 0.1323955 0.06927309
000050 6d f3 1f 3e 44 6c 92 be 5f 9a 44 be 6f 2e 02 be
       0.15620203 -0.28598225 -0.19199513 -0.12713026
000060 e5 42 3a 3e fe d1 60 3e 28 00 05 3e 38 9c ac bd
       0.1818958 0.21955106 0.12988341 -0.08428234
000070 a9 2a fa bd 95 01 28 3e ae db 0a be 9c b9 2f 3d
       -0.12215168 0.16406853 -0.13560364 0.04290162
000080 98 62 2b be cb 4e c5 3d fd 75 3a 3e 99 54 91 3e
       -0.1673683 0.09634169 0.18209071 0.28384855
000090 48 4a a9 3d 38 51 d3 3d 38 61 14 3e 62 f0 ce bd
       0.08266121 0.103182256 0.14490211 -0.10104443
0000a0 32 77 3b 3d 72 a2 55 be d8 bb 1b be f0 76 f1 3d
       0.04576797 -0.20862749 -0.15208375 0.11790264
0000b0 32 95 4d be b1 c6 69 3e 82 d1 14 be de 59 c9 3d
       -0.20076445 0.22829701 -0.14533046 0.09831594
0000c0 b6 d1 23 be cc ce f6 bd 08 6f ba bd c4 5f b7 3d
       -0.15997967 -0.12051162 -0.09103209 0.08953813
0000d0 7c 16 1c be d5 56 80 3d 0f 01 02 3e a4 7f 0a 3e
       -0.15242952 0.06266562 0.12695716 0.13525254
0000e0 16 42 8c be 4b 3c 1d 3e 24 8e 46 be ce 9f bc 3d
       -0.2739417 0.15355031 -0.1939016 0.09210168
0000f0 c2 a3 85 be 18 f1 4b 3d de 64 0d 3e cf 95 de bd
       -0.261015 0.04979047 0.13808009 -0.108684175
000100 76 38 b7 3d 54 20 cd bd 16 18 08 3e ea a7 00 3e
       0.08946316 -0.10015932 0.13290438 0.12564054
000110 43 ea 46 3e ba 76 30 3d 5a 3a 76 be fc aa 15 be
       0.19425301 0.043081976 -0.24045697 -0.14616007
000120 d6 54 c0 bd a6 bf a3 3d 52 bf 79 be f8 a5 19 be
       -0.09391181 0.079955384 -0.24389389 -0.15004718
000130 5a 89 00 3e 49 41 25 be 3b c8 b4 bd ce db ec bd
       0.12552395 -0.16138186 -0.088272534 -0.11565362
000140 a1 42 a2 bd 24 71 79 3e 22 b6 01 be 32 df 78 be
       -0.07922865 0.24359566 -0.12667134 -0.24303892
000150 79 f2 b7 bd 86 dd 29 3e 42 28 e2 3d b7 f0 08 3e
       -0.08981795 0.1658841 0.11042835 0.13373075
000160 4a 79 95 bd 9a 65 d3 bd
       -0.07298525 -0.10322113
