CriticModel.pt (torch, 70027 bytes, 7 tensors)

fc1.weight f4 [90, 3]
000000 17 a2 c8 be 1b 3a 83 3e 6e 8c e7 bd c8 5e 0c bf
       -0.39186165 0.25630268 -0.11306082 -0.54832125
000010 03 5c b3 3e a5 fd b2 3d 7a 25 36 3e 9d ef e1 3e
       0.35031137 0.08739785 0.17787734 0.44128123
000020 92 14 37 3e 46 67 df 3e 1f ec 07 3f f0 bd aa be
       0.1787894 0.4363348 0.5309467 -0.33348036
000030 4a 5e 11 3d c7 b2 da be b4 68 8b 3e 21 0b 01 3f
       0.03549031 -0.4271452 0.2722832 0.50407606
000040 d8 db e0 3e ae 8a bb be 8e ac d3 3e a7 09 c6 3e
       0.43917727 -0.36629242 0.41342586 0.3867924
000050 7b 3c b5 be 36 74 ab be 8b 45 07 3d e6 3d 0f bd
       -0.35397705 -0.334871 0.033025306 -0.03497114
000060 d1 c6 93 3e b5 2a 26 bf b5 4b 78 3d 93 48 a4 bd
       0.28862622 -0.64908916 0.060619075 -0.08021655
000070 54 cb 34 be e0 9f 98 be c9 49 33 bc 1b 3d 27 bf
       -0.17655689 -0.29809475 -0.010942885 -0.65327615
000080 dc c0 82 be e0 bd 36 be 8d 0e c2 be 2f fb d2 be
       -0.25537765 -0.17845869 -0.37901726 -0.41207263
000090 26 a9 36 be c9 0c 49 3e 31 c2 4a be ec dd 87 3e
       -0.17837963 0.19633783 -0.1980064 0.265365
0000a0 13 69 06 3f eb a6 b9 3e 3e 2a 12 bf 40 38 08 bf
       0.5250408 0.3626016 -0.57095706 -0.5321083
0000b0 4f de 80 3e b0 a4 db 3d 34 48 89 be 80 d0 18 3c
       0.25169608 0.10724771 -0.268129 0.009327054
0000c0 21 7e 1b 3e e4 68 c3 bd c6 bf 45 3e 5e 06 a3 3c
       0.15184833 -0.09541491 0.19311437 0.019900497
0000d0 cd d6 b0 be d0 28 0a 3e 1d 3b 12 3f b9 89 2a bf
       -0.3453888 0.13492131 0.5712145 -0.666164
0000e0 6e 31 d5 ba 23 c9 ec 3e 57 17 2e 3f 6c aa ee be
       -0.0016265342 0.46247205 0.68004364 -0.46614397
0000f0 b0 6a 56 be 64 ff ce 3e b5 9b 6c be 01 df c7 3e
       -0.20939136 0.40429223 -0.23106273 0.39037326
000100 f4 76 b4 be 79 f7 e2 3e 36 cf ce bd bf 3b e8 be
       -0.35247004 0.44329432 -0.10098116 -0.45358083
000110 33 b5 5d be 73 7c e1 be be 33 37 bf e2 57 62 be
       -0.21651153 -0.4404026 -0.7156333 -0.22103837
000120 d5 0f a5 3e 55 fd 90 be 98 12 48 be 99 0a bf bd
       0.3223864 -0.28318277 -0.19538343 -0.09328193
000130 17 1a 8c 3e 20 fb cf be 4f 3f 00 3f 09 a0 98 3d
       0.27363655 -0.4062128 0.500966 0.07452399
000140 e8 ea ce 3e e8 a2 1b bf 17 6f 6e 3e 4f d5 09 bf
       0.40413594 -0.6079545 0.23284565 -0.5384111
000150 28 0f 03 3d e0 f8 ef bd 7c b1 b1 be d2 5f d8 be
       0.031996876 -0.11717391 -0.34705722 -0.42260605
000160 55 4d 9c be 80 5d a6 bb fd 73 94 3e 24 35 35 3f
       -0.3052775 -0.005077064 0.28994742 0.7078421
000170 46 86 9a be dd 81 b2 be 5e bf cc be 41 4c fe bd
       -0.30180568 -0.34864703 -0.39989752 -0.12416888
000180 43 37 c3 3e 06 ac 8a be b1 f7 c9 3d 02 b1 1a bf
       0.381281 -0.27084368 0.098616965 -0.6042634
000190 a4 d1 d9 be 4f 28 05 3f 06 9d 1f be 1d 3b 04 bf
       -0.42542756 0.5201463 -0.15587243 -0.516527
0001a0 39 1e c8 3e f5 11 58 bd 30 a0 23 bd b9 27 06 3f
       0.39085558 -0.0527515 -0.03994769 0.5240436
0001b0 ef 68 b4 be f9 c0 b2 3e ea 46 31 3e 8a 5e 62 3e
       -0.35236308 0.3491285 0.17312208 0.22106376
0001c0 c6 86 25 bf 0e a3 0c 3e 86 9f 10 bf 91 0f 89 3e
       -0.6465877 0.13734075 -0.56493413 0.2676969
0001d0 f3 07 2a 3e b0 25 8c 3e fc 93 87 bd c3 6c 25 3f
       0.16604595 0.27372503 -0.06620023 0.6461908
0001e0 ba 09 5b be a3 94 ce be 70 fb 44 be fe ef ab be
       -0.21390429 -0.40347776 -0.19236541 -0.33581537
0001f0 67 ff 25 bf dc 09 1e be e5 e1 d7 3e 74 f6 9f be
       -0.6484284 -0.15433449 0.4216453 -0.31242716
000200 3a 6b d8 3e ac b1 fd 3e eb 0b e2 be ec 58 0b 3f
       0.42269307 0.49549615 -0.44149718 0.5443256
000210 ba 7b 23 be 71 c2 25 3f 6f e4 02 3d 6f 2e 00 3e
       -0.15965167 0.6474982 0.031956133 0.12517713
000220 9c 2f 08 3d 3e 52 1d 3f a0 fc e9 3e 4a ee 0f 3f
       0.03324853 0.61453617 0.4570055 0.56222975
000230 16 33 85 3e a6 21 f2 3d 84 59 17 3f c2 bb 3c 3e
       0.26015538 0.11822824 0.59120965 0.18430999
000240 78 47 4c be a5 5b 12 be ab 28 d3 3e df 45 86 3e
       -0.19949138 -0.14292772 0.41241965 0.26225182
000250 d2 af 2c bf 2c df 1c be 40 7b 53 3e a3 6c 10 bf
       -0.6745578 -0.15319508 0.20652485 -0.56415766
000260 7b d2 3c be e2 fa 1d bf 8a 63 b9 be d0 2c f7 3e
       -0.18439667 -0.6171094 -0.36208755 0.48276377
000270 66 41 1f bf 85 b6 cc 3e a1 7a 40 be 94 ea d4 3e
       -0.62209165 0.39983 -0.18796779 0.4158522
000280 b9 d1 9f 3d 10 58 9a 3e c2 ba e7 3e 92 97 fa be
       0.07803673 0.3014531 0.45259672 -0.48943764
000290 45 30 26 3d 3a 68 b3 3e 75 6c 26 3f bc 12 6e 3e
       0.040573377 0.35040456 0.6500924 0.23249334
0002a0 39 d1 1a be 7c 74 a3 3e 6f bd 23 3f 1c 01 8a be
       -0.15118875 0.31924808 0.6396093 -0.2695397
0002b0 18 1a 83 be f0 b3 0a bf 12 3b c3 bd 1c 60 ea 3e
       -0.25605845 -0.5418081 -0.09532751 0.4577645
0002c0 b6 fd e5 3e e0 c2 ed bd 0c 0e 00 bc f4 6e 14 ba
       0.4492013 -0.11609435 -0.007815849 -0.0005662285
0002d0 fb 99 ca 3e e5 10 8e be 88 45 5f 3e f3 3d 09 3f
       0.39570603 -0.27747265 0.21803868 0.5361015
0002e0 49 52 8c 3e d0 18 43 be 89 64 63 be d1 8a 2e bf
       0.2740653 -0.19052434 -0.2220632 -0.6818057
0002f0 e5 5f 2d bf 03 d0 9c 3d af 57 00 3f 74 bf aa bd
       -0.6772445 0.076568626 0.50133795 -0.08337298
000300 a0 34 76 3d 2d 37 2b bf 17 f0 9b be 4a cb 68 3e
       0.06010878 -0.66881067 -0.30456612 0.22733799
000310 33 db ec be e2 8c c5 3e 77 34 fc 3e 89 73 63 be
       -0.46260986 0.38584048 0.49258777 -0.22212042
000320 aa 9f a6 3e 9b 1f a4 3e 0e 2b 2f 3f ed 94 75 3d
       0.3254369 0.32055363 0.6842507 0.05995648
000330 28 79 b8 be 0b 74 1b bf 25 a4 e1 3e 5e 1f ca be
       -0.36029935 -0.6072394 0.44070545 -0.39477056
000340 c9 d0 f6 be 8c e3 9d be 86 fc b8 3e a5 b0 e2 be
       -0.48206165 -0.30837667 0.3613016 -0.44275394
000350 92 a9 ab 3e 45 9b c3 bc 53 57 b9 3e d2 34 3f be
       0.3352781 -0.02387775 0.36199436 -0.18672493
000360 4f 0d 24 be ec 0e 35 be ee 2c 3f be 71 f0 9b bd
       -0.16020702 -0.17681473 -0.18669483 -0.0761422
000370 e9 16 fa 3e c4 f0 bd 3e f2 a8 de 3d b6 4d 0b bf
       0.48845604 0.37097752 0.108720675 -0.5441545
000380 38 fe a7 be a8 30 d1 be 6f 65 92 3e 08 c9 d0 be
       -0.3281114 -0.40857434 0.28593013 -0.40778375
000390 3c 2a db 3e 2b d7 24 bf 5d 8f 95 3e 68 fb 91 be
       0.4280566 -0.6439082 0.2921094 -0.2851212
0003a0 e6 cb 29 bf b6 30 ab be b0 05 bc bc ee 73 05 be
       -0.6632675 -0.334356 -0.02295193 -0.13032505
0003b0 ec 66 b7 3e 7d ed cc be a1 53 07 3f 89 73 29 3d
       0.3582071 -0.4002494 0.5286198 0.04136995
0003c0 4e 27 51 bd 1f c2 23 bf 21 64 80 3e 09 96 ca 3e
       -0.051062874 -0.6396808 0.25076392 0.39567593
0003d0 0c 2a e4 bd 52 74 6a bd 88 97 a2 3d 7b e7 08 3f
       -0.11140832 -0.057239838 0.079390585 0.5347821
0003e0 fe 71 20 bd b7 b6 97 3e 92 e2 cd be 07 40 06 be
       -0.03917121 0.29631588 -0.40211922 -0.13110362
0003f0 0c 16 83 3e 28 5b bb be 44 fb 34 3e 45 ae e3 be
       0.25602758 -0.36592984 0.17673975 -0.44468895

fc1.bias f4 [90]
000000 f7 e1 b7 3d 47 7a 2a 3e 00 87 91 be fa 6a 06 3f
       0.08978646 0.16648208 -0.2842331 0.52506983
000010 f4 c2 3e be 0d a5 68 3e dc 42 14 3f 77 f4 cd 3e
       -0.18629056 0.22719212 0.5791452 0.40225574
000020 0b c4 b1 3e 0c bc 83 3e 93 ae 24 3d d9 43 66 be
       0.3471988 0.25729406 0.04020555 -0.2248682
000030 74 9b 22 be 64 7d e6 3e ef 18 02 bf ca 6d fe be
       -0.15879613 0.4501754 -0.50819296 -0.49693137
000040 20 ff bf be 8d 7c 1f 3f 44 5e 2a be bf 7a 98 bd
       -0.37499332 0.62299424 -0.16637522 -0.07445287
000050 4b 6b c8 3e 91 c9 ed be 9d cd b1 be c9 55 86 be
       0.39144358 -0.46442845 -0.34727183 -0.26237324
000060 26 ba ba 3e 07 1f c3 3d 82 e4 e5 3e ac 10 0a 3f
       0.36470145 0.09527402 0.449009 0.5393169
000070 42 cd e3 be fe 0d 11 bf 34 15 74 be 7c f0 a2 be
       -0.44492537 -0.56661975 -0.23836213 -0.318241
000080 ba be 2c 3e 25 de cd be e9 1d 99 3e 2a 33 c6 be
       0.16869631 -0.40208545 0.29905632 -0.3871091
000090 f6 0b 10 3f 96 b0 0a 3f 2f ad 9b be 03 2d 08 be
       0.5626825 0.541757 -0.30405566 -0.1329842
0000a0 b6 cd 87 3e fa b2 5d 3e 69 89 c6 bd 4a 96 6b be
       0.26524132 0.21650305 -0.09694178 -0.2300655
0000b0 8f f6 fb 3d 0b de ed be 12 b2 21 be dd 1a 09 3f
       0.12302887 -0.46458468 -0.15790585 0.53556615
0000c0 8b 51 b5 3e aa 21 20 3f 38 23 c8 bc 09 57 92 3e
       0.35413775 0.6255137 -0.024430856 0.28582028
0000d0 3f 39 14 bd b4 de a6 be dc a9 1a 3f 02 68 f9 3e
       -0.036187407 -0.32591784 0.60415435 0.48712164
0000e0 e2 cc d8 be 30 7f 82 3e 4d 19 e8 bd a7 19 de 3e
       -0.42343813 0.2548766 -0.11332951 0.43378946
0000f0 ea ec c6 3e a6 29 93 3e a9 e0 c7 be 43 0c 88 3e
       0.38852626 0.28742713 -0.3903859 0.26571855
000100 59 fd 4d 3e 77 84 50 be 2c 57 e4 bd fd 1f 90 3d
       0.20116176 -0.20363031 -0.11149439 0.07037351
000110 78 6f 3c 3d 3a 39 78 3c d1 31 11 3d 3a a2 dd 3e
       0.046004742 0.015150363 0.0354479 0.43287832
000120 99 aa 73 bd b2 f6 8a 3e e2 d4 de be 56 bf b0 3e
       -0.059488866 0.2714134 -0.43521792 0.34520978
000130 1a 20 9d 3e ac f7 10 bc 4a 5e 2a 3e c3 e8 33 be
       0.30688554 -0.008848112 0.16637531 -0.1756926
000140 1f a2 9b 3c b7 ed 0d bf b7 ce 6a bd 0a ea f2 3e
       0.018998204 -0.5544085 -0.057326045 0.47444183
000150 12 5c f8 3e a4 c3 ab 3e 0e 8c 31 3f 71 01 d5 be
       0.48507744 0.335477 0.6935433 -0.41602662
000160 6b 58 18 bc 42 fb 63 3d
       -0.009298424 0.05565954

fc2.weight f4 [90, 90]
000000 fc bf a9 3d 6c 7e f5 3c bd 37 12 bd c9 de 60 bd
       0.08288571 0.02996751 -0.035697687 -0.054899964
000010 ba 70 b0 bd be 17 62 3d c4 1f b3 bd 5c 2c ca 3d
       -0.08615251 0.055198424 -0.08746293 0.09871742
000020 e1 42 b1 bd 09 ed 95 3d ca 23 a1 bd e2 54 87 bd
       -0.08655334 0.073206015 -0.07868154 -0.06607987
000030 19 8d d0 3d 5e 15 ca bb b3 2b 8c bd c5 ff d6 3d
       0.10183162 -0.006167098 -0.068442725 0.10498003
000040 57 18 85 3d 1c e7 7d 3b ac 9f 22 bd 16 36 64 3d
       0.06498783 0.0038742488 -0.039703056 0.055715643
000050 67 06 93 bd c5 26 b5 3d 54 5a 5f bd 40 3e b1 bb
       -0.071789555 0.08845285 -0.054529503 -0.005409032
000060 cc b6 c7 bd 04 31 f0 bc fb 73 6c 3c bf c5 37 bd
       -0.097516626 -0.029320247 0.014431949 -0.04486632
000070 7e 55 65 3d 20 8b c5 3b 10 ad 75 3c 9f 5d cb 3d
       0.055989735 0.006028548 0.014994875 0.09929966
000080 9b 50 4d bd cc c3 d6 bd e4 e1 7b 3d af 2f 92 bd
       -0.0501257 -0.10486564 0.061494723 -0.07138001
000090 a3 df d0 bd 67 a6 2b 3d 57 f6 a2 3d 04 f8 2f 3d
       -0.10198905 0.04190674 0.07957142 0.042961136
0000a0 10 9e 3a bd 72 04 ff bb 49 7f 6b 3d 24 fd df bd
       -0.045560896 -0.0077825123 0.057494435 -0.109369546
0000b0 1c 86 81 bc fe 51 ae 3d fd 5e 05 3c 49 c6 89 bd
       -0.015811019 0.085117325 0.008140323 -0.06727273
0000c0 6c 92 d7 3c ce 29 05 3d 34 1b 98 3c 2e 74 b8 bc
       0.026314937 0.03251057 0.018567659 -0.022516336
0000d0 0a ae 93 3d f9 56 3b bd 54 26 15 bc 5d 68 86 3d
       0.0721093 -0.04573724 -0.009103376 0.065628745
0000e0 3f 7a 29 3d 57 78 c7 3d c9 84 ae bd b8 8b 42 bb
       0.04137635 0.0973975 -0.085214205 -0.002968533
0000f0 ce 5e b9 bb 3c e2 c1 3c 3c 6b c8 3c ea a6 8e 3d
       -0.0056570536 0.023667447 0.024465196 0.0696543
000100 3c 1c a9 bd 3a a8 ed 3a 06 e0 c3 3c 16 7d f2 bb
       -0.082573384 0.00181318 0.023910534 -0.0074001653
000110 1f 0b 97 bd 85 59 ce bd 40 d1 b4 bd bf c2 70 3d
       -0.07375168 -0.10075668 -0.08828974 0.058779474
000120 d0 64 26 bd f8 24 03 3d ca 32 62 3d d0 c0 b2 bd
       -0.040623486 0.032017678 0.055224217 -0.08728182
000130 d9 cb 0f bd e8 9d c7 bc f1 bb cf bb 09 65 63 bc
       -0.035106514 -0.024367288 -0.006339543 -0.013879069
000140 b3 f8 cc 3d 30 ad cd bb 45 46 dc bd 96 9a b2 bd
       0.10008373 -0.006276749 -0.1075559 -0.08720891
000150 b0 7f ac bd 4b 5c 78 bd 02 80 ca bd bd 45 95 bc
       -0.08422792 -0.060634892 -0.09887697 -0.01822173
000160 dd b9 c5 3d 54 fc c2 3d 8c 47 8e 3c 4f 11 f3 3c
       0.09654591 0.09520784 0.0173681 0.02967134
000170 8e 90 98 bc 10 d1 26 3e 03 56 e7 3c 87 ba bd 3d
       -0.018623617 0.16290689 0.028239256 0.09264093
000180 a3 49 72 3d e7 47 10 3e 33 f4 ec 3d 44 a2 a8 3d
       0.059152257 0.14089929 0.11570015 0.08234075
000190 d3 41 23 3d 6b e1 ba 3d a5 2f 03 3d a6 8a fc 3c
       0.039857697 0.09125026 0.03202786 0.030827831
0001a0 fe 41 6c 3d 9b 2b 41 bd ab 4a 01 bd 17 76 0b 3e
       0.057680123 -0.047160726 -0.03156535 0.13619266
0001b0 85 64 7d 3d 55 c2 86 3d 67 c1 ce 3d 28 fe 10 3e
       0.06186344 0.06580035 0.10095482 0.14159453
0001c0 d6 fa 12 3e f8 31 ae 3d b9 7c 84 3c 4c 41 2e 3e
       0.14353499 0.085056245 0.016172754 0.17017096
0001d0 20 3a 30 3e 97 a1 34 bc 3a 87 e7 3d 40 41 8f ba
       0.17209673 -0.011024854 0.11305089 -0.001092948
0001e0 a3 ea 16 bc 48 32 7c bc 93 7b 3a 3e ac 17 21 3c
       -0.009211215 -0.015392847 0.18211202 0.009832304
0001f0 e0 c4 0d 3d b8 08 95 3b 61 ef 1e 3e 91 09 30 3e
       0.034611583 0.0045481585 0.15521003 0.1719115
000200 2b 03 7a 3d 03 63 21 3e 66 73 80 3b 21 4c 23 3e
       0.061038177 0.15760426 0.0039200066 0.1594701
000210 b8 6e 99 3c 55 42 b1 bc 12 d0 3c 3e f0 0a 0e bd
       0.018729553 -0.021638075 0.18438748 -0.0346784
000220 dc 57 50 3c 62 8b be 3d 30 c0 a9 3d 9d 9a 33 3d
       0.01271626 0.09303929 0.0828861 0.043848623
000230 95 e0 2f 3e 8b d6 c2 3d 66 dd e3 3d 5c e3 9b bc
       0.17175515 0.09513577 0.11126213 -0.019029312
000240 34 96 c0 3d af 18 92 3c fb a3 11 3e 78 37 20 3e
       0.09403649 0.017834036 0.1422271 0.1564616
000250 5c c6 89 3d f1 39 79 3c 05 59 ac 3d eb 33 0d 3e
       0.06727287 0.015211568 0.08415417 0.13789336
000260 47 67 ff 3c a3 8a 48 3d 2d 76 40 3e 9c c6 08 3e
       0.031177176 0.04896034 0.1879508 0.13357013
000270 69 b5 f6 3c 1e ae 73 3e 70 f7 11 3c 87 4d 13 bc
       0.0301158 0.23796889 0.008909091 -0.008990652
000280 d5 09 23 3e 83 76 4d 3e 45 24 49 3e 25 bf c6 3d
       0.1592172 0.2006474 0.19642742 0.09704427
000290 5f da 39 3d 32 3d 3e 3d 4d a5 ab 3d 03 93 d1 3d
       0.04537427 0.04644508 0.08381138 0.102331184
0002a0 8d 83 ca 3d 43 b4 2f 3e 3c 49 00 3e a0 ae 70 3d
       0.098883726 0.17158608 0.12527937 0.058760285
0002b0 4e d4 5e 3e be e8 f2 3d 6c 22 10 3e 36 cb 39 3e
       0.21760675 0.11860798 0.14075631 0.18143925
0002c0 53 66 30 3e d2 98 e4 bc bb 31 34 3d bf bc 19 bd
       0.17226534 -0.027904902 0.04399274 -0.037533518
0002d0 a0 0c 51 3c 97 ad e1 3d 0b f5 41 3d ae bd 10 3c
       0.012759358 0.11019438 0.04735283 0.008834286
0002e0 a8 35 b1 3a 66 46 14 3d a3 c5 2a 3d f5 5d c7 3d
       0.0013520019 0.03619995 0.041692387 0.09734718
0002f0 bb ca ad 3d ba f4 20 3e 7b 11 12 3e 4c 91 8e 39
       0.084859334 0.15718356 0.14264481 0.00027192605
000300 63 66 32 3e 8f dd 1b 3d 22 bd 91 bc e4 8e b6 3c
       0.1742187 0.03805309 -0.01779038 0.022284932
000310 80 47 2d be 52 c2 b5 3d fe 0a f8 3d a3 e4 91 3d
       -0.16921806 0.08874954 0.121114716 0.07123687
000320 17 96 51 3e ab 05 16 bd 3d b1 49 3e 36 7d 87 3d
       0.20467411 -0.0366265 0.19696517 0.06615679
000330 04 d7 62 3d e8 6d 20 3e 1c 15 f6 3d 78 c7 96 3d
       0.055380836 0.15666926 0.12015745 0.073622644
000340 52 46 17 3e 2a 3a b2 bd 85 eb 24 3e fa 48 cf 3a
       0.14772919 -0.087025 0.16105469 0.0015814595
000350 39 50 37 3c af 3f 2f bc bc 6a c2 3d e9 c5 1f 3e
       0.01118856 -0.010696336 0.09493014 0.1560284
000360 62 9b 48 3e e6 70 e0 3d 22 c1 de 3d 19 99 a8 3d
       0.19590524 0.10959034 0.10876681 0.08232326
000370 f8 2c 64 3d 7b c3 69 3d d6 eb fc bc d7 03 67 b9
       0.055706948 0.05707119 -0.030874174 -0.00022031307
000380 8f 1f f3 3d 99 2d dd 3d d6 3c fa 3d 9c 52 f4 3d
       0.11871254 0.10799713 0.12218635 0.11929819
000390 5d 8e 27 3e 01 4e f7 3d 46 9e 61 3e 05 e0 25 3d
       0.16362901 0.12075425 0.22033033 0.040496845
0003a0 f0 9a d9 3d 24 6b 99 bc be 6b a8 3c b6 bf 3d 3e
       0.10625255 -0.018727846 0.020559188 0.18530163
0003b0 9f be 03 3e 10 01 29 3e 49 dd 64 3b 08 5a 51 3e
       0.12865685 0.16504312 0.0034921935 0.204445
0003c0 8f 53 6c 3d f5 50 31 3e 5f b8 45 3c 0a 20 1d 3e
       0.057696875 0.17316039 0.012067883 0.15344253
0003d0 2b 8a ec 3d 7d cc 22 3e ff 9c f1 3d d2 31 d8 3d
       0.11549791 0.15898319 0.11797523 0.105563775
0003e0 f6 dd 0b 3e fa 80 ab 3d db e2 00 3e 08 6b 07 3e
       0.1365889 0.0837421 0.12586538 0.13224423
0003f0 c3 ae 41 3e ad e8 19 3e 01 ff a6 3d 54 40 ae 3c
       0.18914323 0.15030165 0.08154107 0.021270908

fc2.bias f4 [90]
000000 cd d5 a5 bd 9e 41 f5 3d 60 97 3b 3e e9 40 c1 3d
       -0.0809742 0.11975406 0.18319464 0.09436209
000010 ab cb e5 3d 96 49 c7 3c e4 c7 c0 3d df 1e 89 3d
       0.11220487 0.02432708 0.09413126 0.06695341
000020 c3 a3 ce 3d f9 fa 21 3d c1 7b 02 3e e7 f1 06 3e
       0.10089829 0.039545987 0.12742521 0.13178216
000030 4f f9 4d 3d 7c f5 c7 3d 00 8f 4f 3d 7a b1 53 3e
       0.050286587 0.09763619 0.050673485 0.2067317
000040 98 ef 0f 3e 1e 73 b7 3d 0f 4a 9a 3d d3 92 ae 3d
       0.14056242 0.08957504 0.07533657 0.08524098
000050 9a db 04 3e 72 4b 31 3e ce 77 e1 3d f5 7e 60 3d
       0.12974396 0.17313936 0.11009179 0.054808576
000060 40 1b 91 bd 26 7c ee 3b 64 03 83 3d 70 2b 55 3e
       -0.07085276 0.0072779832 0.06397131 0.20817351
000070 ce 36 85 3c 20 a2 2e bc 2c fb 3c 3e f5 66 32 3e
       0.016261484 -0.010658771 0.1845519 0.17422087
000080 a1 d9 2b 3d ec 57 08 3e 22 e2 5b 3d a0 8d 7e 3d
       0.041955594 0.1331479 0.053682454 0.062146783
000090 69 1a 3a 3e 2c 21 82 3d 53 0e 56 3d 02 83 03 3d
       0.18174137 0.06353983 0.052259754 0.03210736
0000a0 56 89 e7 3d 70 7f af 3d c6 f9 ce 3d 97 bb de 3d
       0.113054916 0.08569229 0.10106234 0.10875624
0000b0 28 d1 d2 bd c6 18 4b 3e 01 44 39 3e ed ec 31 3d
       -0.102938 0.19833669 0.18092348 0.04343884
0000c0 02 58 af 3d f2 57 d7 3d 92 f2 20 3e 9b 8b 54 3e
       0.08561708 0.10514821 0.15717533 0.2075638
0000d0 a6 47 20 3d 9b 28 1f 3e 29 94 3b 3e 6d 95 7b 3d
       0.03913083 0.15542834 0.18318237 0.0614218
0000e0 6f bf 29 3e 78 ef 2d bd 98 04 d3 3d f6 ee d4 bd
       0.16576932 -0.042464703 0.103036106 -0.10397141
0000f0 90 35 be bb 9c 2d 0b 3e 99 f4 39 3e b7 b5 7d bd
       -0.005804725 0.13591617 0.18159713 -0.061940875
000100 35 c6 c3 3d bf 48 e2 3d 6a 3c c9 bb 47 03 aa 3d
       0.09559289 0.110490315 -0.006141235 0.08301406
000110 85 c2 3c 3e f3 37 f9 3d 7a f1 0d 3e 3d 5f d7 3d
       0.18433578 0.121688746 0.13861647 0.10516212
000120 45 bb cd bc 42 5c 3b 3e 1a bc a4 3d 0d d6 a6 3d
       -0.025113711 0.18296912 0.0804369 0.08146296
000130 46 e9 45 3d 20 4f b7 bb 48 93 b8 bd f2 b2 b4 bd
       0.04831817 -0.005594149 -0.09012467 -0.088231936
000140 74 1e 3e 3e 83 8f 35 3c 7f f7 8a 3d fa d6 03 bd
       0.18566304 0.011081579 0.067854874 -0.03218744
000150 66 58 30 3e 21 86 24 3d 05 57 19 3d 1c 3f 23 3e
       0.17221221 0.040166978 0.037436504 0.15942043
000160 6a cc 51 3d ae 91 35 3e
       0.051220335 0.17731354

fc3.weight f4 [90, 90]
000000 eb ff d4 bd 81 d9 4d 3c 0d 00 63 3d 92 29 9b bc
       -0.10400375 0.012564064 0.05541997 -0.01894072
000010 40 41 89 bd 97 d1 9b bd e9 f5 6c 3d c5 1c 97 3d
       -0.067018986 -0.076083355 0.057851706 0.07378534
000020 77 e3 a7 3d 86 67 f6 bc 2e 3e 43 3d 0e cd 27 bd
       0.08197682 -0.03007866 0.04766672 -0.04096704
000030 04 4c a7 bd 97 32 49 bd 36 30 31 bd 06 91 71 bd
       -0.08168796 -0.04912051 -0.04325887 -0.058976196
000040 f9 b3 08 3c f9 4e 2a bd cf ea 23 bd ad cc de 3b
       0.00834369 -0.04157922 -0.040018853 0.0067993016
000050 9c d1 4a 3d db 4d 3c bd d4 12 1c bd 00 91 97 3c
       0.049516305 -0.045972686 -0.038103893 0.018501759
000060 55 3a f7 bc a2 0f 8a 3d 65 cc ad bd ff bc ac bd
       -0.030179182 0.06741263 -0.08486251 -0.08434486
000070 af 4d a1 3c 72 23 05 3d 26 86 8c 3a 90 8a 9b bb
       0.019690363 0.032504506 0.0010721132 -0.0047467425
000080 58 41 86 bd b9 e7 9c 3d 9f b1 75 bd dc 10 d9 bd
       -0.06555432 0.07661385 -0.059983846 -0.10598919
000090 22 d2 b2 3d 31 bf bc 3c 84 fb 65 3d df 2f 9f bc
       0.08731486 0.023040386 0.056148067 -0.019432006
0000a0 6b 9c fe 3b 98 65 ac bd 9e 7c df 3c db d4 1a 3b
       0.0077701113 -0.08417815 0.027281102 0.0023625407
0000b0 1e b1 96 3d 2e 1b 8a 3b 21 e6 bd bc 07 39 99 3c
       0.07358001 0.004214666 -0.023181023 0.01870395
0000c0 4a 89 ed 3c f6 82 1b 3a 35 c5 62 bb 02 02 c6 bd
       0.028996129 0.00059322955 -0.0034602408 -0.09668352
0000d0 53 5c af 3d e4 74 c8 3b 7f 00 c1 bd 6d d2 2e 3c
       0.08562531 0.00611745 -0.09423923 0.010670287
0000e0 09 5f 20 bc e0 d7 f1 bb 56 21 83 3d 4c d7 d5 3c
       -0.009788283 -0.0073804706 0.06402843 0.026103638
0000f0 c3 48 38 bd bb 28 ad bd 80 5d 59 3c d2 6b 1d bb
       -0.044991266 -0.08455034 0.013266921 -0.0024020565
000100 82 f6 d7 bb e3 e4 3a bd 38 af 03 3d f3 e1 dc bd
       -0.0065906653 -0.04562844 0.032149523 -0.10785284
000110 5d 75 a6 bd 5b 6b 66 bd ae cd a2 3d a7 6f 58 bd
       -0.08127854 -0.056254726 0.079493865 -0.052840855
000120 ae f2 a3 3c 37 2c 95 3d 0d c1 b2 3c 43 95 18 ba
       0.02001318 0.07283824 0.02182057 -0.00058205816
000130 e7 da b4 3d d3 08 96 3d 04 52 95 3d 68 1c 22 3c
       0.08830815 0.07325902 0.07291034 0.009894468
000140 1e fb 3f 3d 0e da e2 bd 78 fc f2 bd a8 45 b7 bc
       0.046870343 -0.11076747 -0.11864561 -0.022372082
000150 f9 d0 b4 bc f4 9c 8b bd 9d 59 e7 bc 9b bf d5 3c
       -0.022072302 -0.06817046 -0.028240973 0.026092341
000160 99 90 97 3d af c2 89 3d 30 1a ca bc e4 6f 49 3e
       0.07400627 0.06726586 -0.02467069 0.19671589
000170 75 68 df 3d e8 64 ee 3d 26 45 05 3e 71 11 ce 3c
       0.109085955 0.1164034 0.1301466 0.025154801
000180 f7 c3 34 3c 09 b8 13 3e a1 d5 2c 3e cf 5e 3b 3e
       0.01103305 0.14425673 0.16878368 0.18297885
000190 13 f6 a8 3d 3e a8 3a 3e e0 f1 3c bd 87 7b 05 3e
       0.0825006 0.18228242 -0.046129107 0.13035403
0001a0 81 85 24 3e a4 08 5f 3c e1 82 31 3e c3 1f 90 3d
       0.16066553 0.0136129 0.17335083 0.07037308
0001b0 5d 4a 4c 3e 42 81 40 3e 9d 2b 3b 3e 14 ed 11 3e
       0.19950242 0.18799308 0.18278356 0.14250594
0001c0 34 44 1d 3e 6e 92 b0 38 bb 60 a1 bd 39 d5 38 3e
       0.15358049 8.419609e-05 -0.07879778 0.18050088
0001d0 4e 13 ca 3c df 48 ac 3d 2e 24 45 3e d0 89 b0 bd
       0.024667408 0.084123366 0.19252083 -0.08620036
0001e0 ab 64 f1 3d 76 d3 43 3e ae 78 55 3e 5e 56 a4 3c
       0.11786779 0.19123635 0.20846817 0.020060714
0001f0 71 2b d0 3d 4d ba a8 3d 77 b1 45 3d ab fb 4f 3e
       0.10164536 0.08238659 0.048264947 0.20310847
000200 f1 9b 8a 3d a1 03 cf 3c 2d fd 48 3e 13 97 49 3e
       0.06768025 0.025270285 0.19627829 0.19686536
000210 6b 39 0c 3e a6 86 0d 3c e6 dd b6 3d 8a a7 92 3c
       0.13693778 0.00863806 0.089290425 0.017902154
000220 2b 5e 86 3d 92 1c aa 3d 36 b5 d5 3d d7 23 8c 3d
       0.0656093 0.083062306 0.10434954 0.068427734
000230 fa f2 cd 3d b9 ba 30 3e 89 1d b0 bd 33 75 2a 3d
       0.1005611 0.17258729 -0.085993834 0.041615676
000240 c9 dc 07 3e 91 68 f4 3d 61 97 b6 3d 0c bc fe 3c
       0.13267817 0.11934007 0.08915592 0.031095527
000250 26 90 09 3d 7d 20 a2 3d fd 92 cf 3d 3c b0 24 3d
       0.033584736 0.07916353 0.10135458 0.040207133
000260 af 16 e2 3d b6 ae b8 bd e5 5e 25 3d ae 4f 04 3e
       0.11039483 -0.090176985 0.0403737 0.1292102
000270 73 e4 b4 3b c2 97 37 3d 17 a2 18 3e 92 6b b5 3d
       0.0055203973 0.044822462 0.14905582 0.08858408
000280 ed 60 06 3e e0 ed 3e 3e ab 23 8e bd 60 5f 37 3e
       0.13122912 0.1864543 -0.06940397 0.17907476
000290 90 cc 4b 3e bc 04 96 bd 0f db a3 3d b7 3b 84 bd
       0.19902253 -0.07325122 0.080007665 -0.06456702
0002a0 29 a3 9f bd b5 58 d0 bd 5a 77 ab 3d d2 ca b3 3d
       -0.07794792 -0.101731695 0.08372374 0.08778919
0002b0 13 e9 89 3d 33 9b b9 bd 8b 5a 0e 3e af e5 03 3e
       0.067339085 -0.09062805 0.13901727 0.12880586
0002c0 d8 29 10 3e 34 31 45 3e dd 56 2c 3e 84 0d 0b 3e
       0.14078462 0.19257051 0.1683001 0.13579375
0002d0 1c c9 8b 3d b8 6d f7 3d 3d 9b 25 3d e5 d5 2f 3e
       0.06825468 0.12081474 0.04043125 0.17171438
0002e0 31 46 80 3d 60 fd 77 3d 7c 8c 32 3e 4e 51 3b 3e
       0.06263388 0.06054437 0.17436403 0.18292734
0002f0 b1 5f bb 3d 24 68 f7 3d 33 b5 44 3c a1 7e 04 3e
       0.09149111 0.1208041 0.012006092 0.1293893
000300 80 82 14 bd 74 24 8c 3c b3 83 6d 3d 94 66 25 3e
       -0.036257267 0.017107226 0.057986926 0.16152412
000310 f7 e4 bf 3d 18 2b 50 3e 5f 3e 30 3e c7 4f 35 3d
       0.093698435 0.20328939 0.17211293 0.044265535
000320 f2 2b 25 3e a5 b9 e0 3d 91 a4 d4 3d 74 21 b4 3d
       0.16130045 0.10972909 0.10382951 0.08795443
000330 63 ac 0b bd 78 2a 31 3e e7 f7 15 3a 1f 05 34 3e
       -0.034099948 0.17301357 0.0005720839 0.17580079
000340 e5 a3 9b bb fb 76 8b 3d 7c 63 50 3d a8 0d 1f 3e
       -0.0047497624 0.06809803 0.050876126 0.15532553
000350 c3 7e 39 3e e7 84 30 3e 01 0f 43 3d 1b 4f 3e 3e
       0.18114762 0.17238198 0.04762173 0.18584864
000360 87 70 ee 3d 6b 84 15 3e 2e fa 0c 3e 80 4d 3a 3e
       0.11642557 0.14601295 0.13767311 0.18193626
000370 e0 6f 6c 3d 71 ee 4a 3e 04 4b 35 3e 0c 30 8f 3d
       0.05772388 0.1981752 0.17704397 0.06991586
000380 c1 87 0a bd 48 dd c5 3c 1c a4 1a 3e 20 d2 87 3d
       -0.03382087 0.024153367 0.15101665 0.06631875
000390 9a ac 11 3e ba eb 3c 3e f4 92 0f 3e 6a 1f 38 3e
       0.14225999 0.18449298 0.14020902 0.17980734
0003a0 1b d7 95 3d 0b b4 30 3e 66 74 f8 3b 42 fd 11 3e
       0.07316419 0.17256181 0.007582235 0.14256766
0003b0 69 04 3e 3d d4 4d 20 3d 24 69 0f 3d d3 32 bf 3d
       0.046390925 0.039136723 0.03501238 0.09335866
0003c0 2a cb 16 3d d4 88 f7 3b 8c 77 19 3e 9b 65 0d bc
       0.036814846 0.007554153 0.1498701 -0.008630182
0003d0 01 87 f5 3d aa da 9d 3d ee de 80 bd ab 30 c9 3d
       0.119886406 0.077077225 -0.062925205 0.09823736
0003e0 25 7e ca 3d be 16 16 3d 43 13 18 3d 32 b7 1a 3e
       0.098873414 0.036642782 0.037127744 0.15108946
0003f0 8a 1b bf bd 8b 69 a9 3d 58 cf 75 3d 29 b4 ad 3d
       -0.093314245 0.08272084 0.06001219 0.084816284

fc3.bias f4 [90]
000000 51 e5 a1 bd 36 5e 3b 3e 9e 0d e5 3d 61 aa 47 3c
       -0.07905067 0.18297657 0.11184238 0.012186618
000010 34 3e 34 3e d2 f6 95 bc 39 48 4f 3d f3 84 e3 3c
       0.17601854 -0.01830617 0.050605986 0.027773356
000020 10 a1 b1 3d 0c f4 68 bd c6 32 2e 3e c1 15 fc 3d
       0.08673298 -0.056873366 0.17011556 0.12308837
000030 36 99 89 bd 3f 07 8d 3c 18 9e f5 bd ee e2 5c 3c
       -0.06718676 0.01721537 -0.119930446 0.013481839
000040 84 a4 1a 3d e0 d8 bc bd 93 38 a0 bd 4f 81 55 bd
       0.03775455 -0.09221053 -0.07823291 -0.05212527
000050 2c 1f c7 3d f9 e5 8a 3d 1d 8a 43 3e 72 f2 64 3d
       0.097227424 0.06782145 0.19095655 0.055895276
000060 fc b6 fc 3d ef b2 3f 3e b3 ab a6 3d 49 2e a2 3d
       0.12339589 0.18720601 0.08138218 0.079189844
000070 f3 59 07 3e 7b 73 2e 3e 0e e4 19 3d 58 91 31 3e
       0.13217907 0.1703624 0.037571006 0.173406
000080 ce 6d fe 3d fb 54 81 3d ba 50 15 3e 85 79 96 3d
       0.12423287 0.06315037 0.14581576 0.07347397
000090 55 94 3a 3d b8 53 03 3e 49 1c 32 3d cd e9 2f 3d
       0.045551617 0.12824905 0.043484006 0.04294758
0000a0 6a 66 0f 3e 15 b5 ad bd 00 b4 d3 3d b2 3e eb 3d
       0.14003912 -0.08481804 0.10337067 0.114865676
0000b0 b7 6c 8d bd e6 7e 45 3d 7b e5 9d 3d 4f 5f 8a 3d
       -0.06905501 0.048216723 0.077097856 0.0675646
0000c0 2d 9e e3 bb 5e 91 be 3c e0 d9 e0 3d f5 f5 72 3d
       -0.0069463463 0.023262676 0.10979056 0.059316594
0000d0 2f e3 94 bc ee 0e 2a 3e 25 da 1b 3d d8 5a 91 3d
       -0.018174736 0.16607258 0.038049836 0.07097405
0000e0 4f 01 7c 3d 59 b0 83 bd 3b 98 f9 3d f8 07 aa 3d
       0.061524685 -0.0643012 0.12187239 0.08302301
0000f0 d9 7d ba bd 63 9f 3f 3d e0 a9 12 3e a0 81 bf 3d
       -0.09106035 0.046782862 0.14322615 0.09350896
000100 6f 7b 11 3d b9 22 a8 bd 16 5a 38 3d 66 64 a9 3c
       0.035518106 -0.08209748 0.045007788 0.020677757
000110 3f c0 1d 3e 30 45 b8 3c 71 41 8b bd b8 e9 d6 3d
       0.15405367 0.022493929 -0.06799591 0.10493797
000120 f0 bb 0b 3d 93 0d ee 3d 24 13 28 3e 27 ff b3 bd
       0.034114778 0.11623683 0.16413552 -0.08788901
000130 08 e5 2c bd b5 b5 ac 3c 97 ab c7 3b 16 25 ee 3d
       -0.04221061 0.021082738 0.006093453 0.11628167
000140 ee 7b b5 3d 83 ee 1a 3d 81 6f dd bd f3 b7 90 3d
       0.08861528 0.03782512 -0.10812283 0.070663355
000150 60 6a 46 3c 04 01 cc bd 7c 15 20 bd fc 42 2e 3e
       0.012110323 -0.09961131 -0.03908299 0.1701774
000160 99 da c7 bc 2f 9c fe 3d
       -0.024396228 0.124321334

fc4.weight f4 [1, 90]
000000 9c 5b ad 3c 47 bd 01 be b1 c8 16 be e2 1c ba 3d
       0.021161847 -0.1266986 -0.14724995 0.0908754
000010 e0 6c 27 be 5b b0 3b 3c ca e8 a7 3d 12 99 93 3d
       -0.16350126 0.011455621 0.08198698 0.0720693
000020 57 dd 12 be 57 58 8b 3d 52 2e c4 bd af f1 d6 bd
       -0.14342247 0.06803959 -0.095791474 -0.10495316
000030 37 33 71 bd af 82 99 3d b3 f0 53 3d 7f 3d d4 bd
       -0.058886733 0.07495629 0.05174322 -0.10363292
000040 90 c8 10 be f9 0f aa 3d 63 fa c3 3d 6f 86 85 3d
       -0.14139009 0.08303828 0.09569242 0.06519782
000050 04 ae 8f 3d 9b ce 3a be e0 17 d5 bd f6 d9 3c 3d
       0.07015613 -0.18242876 -0.104049444 0.0461063
000060 95 99 f7 bd 57 26 fe bd f8 30 74 3d f3 58 0f be
       -0.1208984 -0.124096565 0.059617013 -0.13998775
000070 a5 8d 32 be 24 c3 17 be 0b 70 4a be 04 58 1c be
       -0.17436846 -0.14820534 -0.19769304 -0.1526795
000080 6c bd d6 bd 1d 64 c8 3d 83 d6 1e be c7 2e 70 3b
       -0.10485348 0.0978472 -0.15511517 0.0036648975
000090 cd 6c 97 3d 12 bd 01 be 6d 9f c7 3b 78 47 2d be
       0.07393799 -0.12669781 0.006092003 -0.16921794
0000a0 b2 e1 1f be f3 25 99 ba 72 54 18 be a6 8a 3c be
       -0.1561344 -0.0011684283 -0.14875963 -0.18412265
0000b0 96 63 8f 3d c8 70 13 be 6e 78 5e 3d a5 5d 11 be
       0.070014164 -0.14398491 0.05431407 -0.14195879
0000c0 9d 85 22 3c 2e 11 30 3c 5f 0a 3a be 9e 65 29 be
       0.009919551 0.010746283 -0.18168019 -0.1654267
0000d0 fd 20 b2 3d 03 9d 36 be 23 50 0c be 7a 0c 23 be
       0.08697698 -0.17833333 -0.13702445 -0.15922728
0000e0 82 51 4f be 7c 9e 8e 3d 0b 40 0d be 1b 21 4f 3d
       -0.20245937 0.06963822 -0.13793962 0.05056868
0000f0 46 22 98 3d 76 94 02 be 58 c5 0c be 1e bc 1d be
       0.07428412 -0.12751946 -0.13747156 -0.15403792
000100 3c 0c 1e be 1e 0b c0 3d 70 61 0d be 0e 7b 2e be
       -0.15434355 0.093771204 -0.138067 -0.17039129
000110 8b 93 08 be 49 56 1f 3d 80 54 99 3d 7b 92 fa bd
       -0.13337533 0.038900647 0.0748682 -0.1223497
000120 89 5d c3 3d b5 91 be bd dd 18 48 be 8b 9f 06 3d
       0.09539325 -0.09305135 -0.19540735 0.032866996
000130 20 bb 8d 3d 56 1d 33 be 11 74 9a 3d ce 43 29 be
       0.06920457 -0.1749166 0.07541669 -0.16529772
000140 c8 ff 37 3d 7f e0 3e 3d cc 0e c7 3c 60 0f 4e be
       0.044921666 0.046600815 0.024299048 -0.20123053
000150 1e 81 4d be 91 4a d1 3d ff ff a9 3c 7d 64 b7 bd
       -0.20068786 0.102193005 0.020751951 -0.089547135
000160 da 71 58 3d e8 d9 d8 bd
       0.052842952 -0.10588437
