CriticModel.pt (torch, 10699 bytes, 7 tensors)

fc1.weight f4 [30, 3]
000000 76 7b 9e 3e 18 47 3a 3e 94 69 ca bd fc 54 a2 bd
       0.30953568 0.18191183 -0.09883419 -0.07926366
000010 50 f2 61 bd a0 27 94 bd 9c ae 7e 3e e1 9a 10 bf
       -0.055162728 -0.0723412 0.24871296 -0.56486326
000020 20 55 cd be 7a 28 28 be 00 22 54 3b c8 bd cd 3d
       -0.40104008 -0.1642169 0.0032368898 0.100459635
000030 e8 61 0d 3f 90 b8 fb be e0 bc c3 bd f4 3c c8 be
       0.5522752 -0.49164248 -0.095575094 -0.39109004
000040 a8 28 96 be 14 bb 5d be 2c bf b5 bd 06 8b 0e 3f
       -0.29327893 -0.21653396 -0.08874354 0.5568088
000050 5c 51 a9 3e 20 f9 8c 3d c0 e9 99 3d 26 9d b4 3e
       0.33069885 0.06883454 0.075152874 0.35276145
000060 ee c0 6b be e4 7f f2 3e 8a 6c 7e be 73 76 e8 be
       -0.23022816 0.47363198 -0.24846092 -0.4540287
000070 50 e4 39 bd e8 1a e9 3e a9 5e 06 bf 58 63 bb bd
       -0.04538375 0.4552834 -0.5248819 -0.09149808
000080 e4 0a cb be c8 08 b6 3d de 88 c9 be 76 ea c4 3e
       -0.39656746 0.08888394 -0.39362234 0.3846013
000090 32 73 03 3f 80 56 2c bc 24 c5 dd 3e 85 93 a0 be
       0.5134765 -0.01051867 0.4331447 -0.31362548
0000a0 b1 22 90 be 60 bc 71 bd 2a d0 8d be f0 46 c6 bd
       -0.28151467 -0.05901754 -0.2769788 -0.09681499
0000b0 6f 1f 9b be 36 be 05 bf 34 e1 44 3e f4 83 f5 be
       -0.3029742 -0.52243364 0.19226533 -0.47952235
0000c0 40 26 27 3d 6a 11 94 3e 1a b7 07 3f 10 4a de 3d
       0.040807962 0.28919536 0.53013766 0.1085397
0000d0 34 5c 0a 3e a0 64 8c 3e be 31 0f bf 00 71 bc 3b
       0.13511735 0.2742052 -0.55935276 0.0057507753
0000e0 ec 9f af bd 26 59 e3 be 50 f1 9d 3d af cf a3 be
       -0.085754246 -0.44403952 0.07712042 -0.31994388
0000f0 90 83 4c bd ac 4a d9 3e c2 dd e2 be 66 0c 90 3e
       -0.049930155 0.42439783 -0.44309813 0.2813446
000100 9c 6a df 3e 7c 4b 1a 3e 18 2b 60 3e e0 ee 28 bd
       0.43636024 0.15067858 0.21891439 -0.041243434
000110 00 5a 16 3c 3e 38 10 3f 20 69 d7 bc 39 00 ad be
       0.009176731 0.5633582 -0.026295245 -0.33789232
000120 20 c5 c9 3e c4 8c 0b 3f f8 0b f2 bd f4 44 22 3e
       0.39408207 0.54511666 -0.11818689 0.15846616
000130 c8 7a 06 be 13 2b 97 be 70 4c f1 3d 38 c9 eb 3d
       -0.13132775 -0.2952505 0.117821574 0.11512989
000140 f4 da 0c 3e 30 2e 32 3d a2 fe f4 be 54 89 e7 3e
       0.13755399 0.04350108 -0.4785052 0.4522196
000150 9a 28 55 be c0 a2 0a bd 30 d2 99 3d 00 cc 71 3a
       -0.2081627 -0.033846617 0.07510793 0.0009223819
000160 75 3f 0e bf 04 73 f1 3e
       -0.5556558 0.47158062

fc1.bias f4 [30]
000000 14 f9 4e be 16 62 e4 be fe 04 99 3e 3c c5 d7 be
       -0.20212203 -0.44606084 0.2988662 -0.42142665
000010 60 03 cc bc c0 20 2e 3c d6 72 62 be 4e de 9d 3e
       -0.024903953 0.010627925 -0.22114119 0.30833668
000020 b7 09 8b be 02 af ee be fb a1 ed be 68 0c 9a be
       -0.2715585 -0.46617895 -0.46412644 -0.3008759
000030 91 79 00 bf 06 5b 67 be 5e 62 d4 3e d0 1a 8f bd
       -0.50185496 -0.22593316 0.41481298 -0.06987536
000040 48 17 e6 3e 94 e9 0b bf 80 57 92 bd c2 db 08 3f
       0.44939637 -0.54653287 -0.071455956 0.53460324
000050 c6 72 3e be 14 36 08 be 20 72 c5 3e c0 27 3b 3c
       -0.1859847 -0.13301879 0.38563633 0.011423051
000060 7c 5d c2 bd 1e 39 ce 3e d0 36 f7 3e 67 7b 9a be
       -0.09490487 0.40277952 0.48284006 -0.30172274
000070 e4 33 00 be 96 5c 9c be
       -0.12519795 -0.30539387

fc2.weight f4 [30, 30]
000000 00 6b f0 3c 68 5f 05 3d 70 fb 1e bc fc b3 24 3e
       0.029347897 0.03256169 -0.009703502 0.16084284
000010 e4 a2 82 bd 20 4f ef 3b 80 9b 4d bc 2c b6 05 be
       -0.06378725 0.0073031336 -0.012549281 -0.13057774
000020 00 49 93 3c 98 c2 9b 3d cc 01 8d 3d 40 ab 5e bc
       0.017979145 0.07605475 0.06885108 -0.013590634
000030 e8 38 a7 bc 6f 30 8f bd 13 b5 28 be 68 1d c0 3d
       -0.020412877 -0.0699166 -0.16475324 0.09380609
000040 20 cf ca bb ec 16 2c 3e 00 00 37 36 d8 98 94 3c
       -0.006189242 0.16805619 2.7269125e-06 0.018139288
000050 6e 5f 2a 3e ef ab ab bd 0e 61 19 3e 74 ad 9c 3d
       0.16637966 -0.08382403 0.1497843 0.07650271
000060 10 cf 8d 3c fc d0 26 3d 31 d5 03 be dc ab cc 3d
       0.01731065 0.040726647 -0.12874295 0.09993717
000070 b4 77 a8 3d 1d 65 95 bd 5d ab cb bd 93 e5 37 be
       0.082259566 -0.072946765 -0.09944794 -0.1795867
000080 66 b6 1f 3e bf ed 1d be e0 6b f1 bc 82 cd 9b bd
       0.15596923 -0.15422724 -0.029470384 -0.07607557
000090 38 b3 52 bd 96 64 a9 bd f3 d2 1a be 90 6e bc 3c
       -0.051440448 -0.08271138 -0.15119533 0.023001939
0000a0 a2 bd 1a be b0 60 54 bc 20 99 c0 3c 50 c7 37 3e
       -0.15111402 -0.012962505 0.023510516 0.17947125
0000b0 9e e0 11 be d0 03 0f be 4b f6 e5 bd c8 fe ce 3d
       -0.14245841 -0.13966298 -0.11228617 0.101071894
0000c0 96 79 0d 3e 60 4d 38 be 18 55 a9 3c 7b ec d4 bd
       0.13815913 -0.17998266 0.020670459 -0.103966676
0000d0 d0 7a 1c bc 3f 55 13 be 54 c4 26 3d d8 70 ee 3d
       -0.009550765 -0.14387988 0.040714577 0.11642617
0000e0 b4 0c c6 bd b8 8f d9 3d 76 a6 1f 3e b0 6e 17 3d
       -0.09670392 0.10623115 0.15590844 0.036970794
0000f0 a0 ff e7 3d 05 57 cc bd 48 55 d3 3d cf 7e 24 be
       0.113280535 -0.09977535 0.103190005 -0.16063999
000100 4c 27 1d 3e f8 ac 3b bd 3c 45 9d bd 78 b0 f4 3c
       0.15347022 -0.045819253 -0.07679221 0.029869303
000110 6f 8a e1 bd 80 ba b8 ba 54 c0 91 3d 22 ae 78 bd
       -0.11012732 -0.0014093667 0.07116762 -0.06071294
000120 24 9d 10 bd b8 98 bf 3d 3a a7 9b bd 86 f2 93 bd
       -0.03530611 0.09355301 -0.07600255 -0.07223992
000130 40 cd 74 bc 6b 83 d0 bd 66 dc 17 3e 48 e2 0c be
       -0.014941514 -0.10181316 0.14830169 -0.13758194
000140 be 7b 1a 3e fa aa 37 3e 5f 91 1a be 60 79 02 bd
       0.15086266 0.17936316 -0.15094517 -0.031854033
000150 fc b7 3e bd 6e f4 2e be 14 5f db 3d 40 52 52 bb
       -0.04656218 -0.1708543 0.10711494 -0.0032092482
000160 66 1f f9 bd 78 2a 4a bd b8 85 f4 3c 68 84 c4 bd
       -0.12164192 -0.049356908 0.029848918 -0.09595567
000170 88 2e b1 3d 91 6d 3a be 14 20 9c 3d 78 f0 15 3d
       0.08651453 -0.18205859 0.07623306 0.036606282
000180 99 77 2e be 7e 34 15 be 00 f2 14 be ad 31 d8 bd
       -0.1703781 -0.14570805 -0.1454544 -0.1055635
000190 a9 9c de bd b2 61 1c 3e 83 d7 a0 bd 6e 39 1a 3e
       -0.10869724 0.15271643 -0.078536056 0.1506097
0001a0 fa d9 a7 bd d8 dd 8a 3c b4 ac 08 be 5c 8e 36 be
       -0.081958726 0.016951486 -0.13347131 -0.17827743
0001b0 98 7e c6 bd b4 c1 aa 3d 49 37 34 be cc e3 a4 3d
       -0.096921146 0.08337727 -0.17599215 0.08051261
0001c0 76 2e 15 be b0 84 86 bd 92 3c 83 3d 98 ae c7 bc
       -0.14568505 -0.06568277 0.06408037 -0.024375245
0001d0 1c b0 45 bd 60 ec 91 bc 5c aa 28 3e 66 28 37 be
       -0.048263654 -0.017812908 0.16471237 -0.17886505
0001e0 4c 05 f8 3d 9e c6 23 3e bc a1 3c bd 68 02 fc 3d
       0.12110385 0.15993735 -0.04605268 0.123051465
0001f0 e0 18 2c be 52 af 36 be 06 cb 86 bd 90 9c da 3d
       -0.16806364 -0.17840317 -0.065816924 0.10674393
000200 00 fc ec ba 40 d8 f1 bd 3d 73 e2 bd 66 8d 92 bd
       -0.0018080473 -0.118088245 -0.11057136 -0.07155876
000210 6e e6 2c be 69 18 23 be 06 3a 22 3e b3 0b 8a bd
       -0.16884777 -0.1592728 0.15842447 -0.06740513
000220 38 5b 82 3c 68 e1 41 3d 40 0b 4d bc 2c 68 71 3d
       0.015912637 0.047334105 -0.012514889 0.058937237
000230 0c 96 0f 3d e8 c4 db bc 18 9d 01 3d de 55 6c bd
       0.035055205 -0.02682729 0.031643957 -0.057699077
000240 22 5f 3a 3e 0c bc 32 be 78 e0 ea 3d 3c 55 d7 3d
       0.18200353 -0.17454547 0.11468595 0.10514304
000250 20 87 ad bc 0b 71 a8 bd b4 48 96 bd 84 6b 0e 3e
       -0.021182597 -0.08224686 -0.07338086 0.13908201
000260 a8 99 74 3d 30 07 c2 3c 17 0f 80 bd 44 c2 e4 3d
       0.05971685 0.023685068 -0.06252878 0.11169866
000270 68 c6 07 bd 6a e3 20 3e 72 2f 0a 3e e9 73 f6 bd
       -0.0331482 0.15711752 0.13494661 -0.12033827
000280 24 90 b0 3d ee 93 07 3e 22 47 10 be ea d9 6f bd
       0.08621243 0.13240024 -0.14089635 -0.05855743
000290 f4 f7 e8 3d 40 9d f1 bc 8c aa ea 3d d4 d4 14 be
       0.11375418 -0.029493928 0.114583105 -0.14534312
0002a0 df 0c ec bd ea 21 00 3e ec 38 fd 3d 59 2a 26 be
       -0.115258925 0.12512937 0.123643726 -0.16227092
0002b0 af ad a5 bd 85 ce ea bd fc e3 bc 3d bc 2b 9d 3d
       -0.08089768 -0.11465172 0.09223172 0.07674357
0002c0 fe 33 12 be 9f 90 c2 bd 7c 3b 26 3e fe 1c 36 3e
       -0.14277646 -0.095002405 0.16233629 0.17784497
0002d0 de 2a 81 3d 7c 43 b9 3d 68 ee cb bc 20 30 66 bc
       0.063070044 0.09046075 -0.024893954 -0.01404956
0002e0 d2 6c 80 3d c0 fa 1d 3b d4 fe 20 be a0 fc a6 bb
       0.06270756 0.0024105757 -0.15722209 -0.005096033
0002f0 78 7e 0d 3e 28 33 a4 3c 42 7e 1e 3e 46 89 ec bd
       0.13817775 0.020043924 0.15477851 -0.1154962
000300 34 0b 60 bd 68 f4 aa 3d 2b de 30 be 45 a3 1c be
       -0.054698184 0.08347398 -0.1727225 -0.15296657
000310 50 6f be 3d c0 de 7f bc ca 02 0c be 54 50 18 3d
       0.09298575 -0.015617073 -0.13672939 0.037185982
000320 80 84 6d 3b 88 5b 20 3e d8 52 25 3e 2a b5 29 3e
       0.0036242306 0.15659916 0.16144884 0.16573015
000330 78 cb a9 bd dc a0 1d be 10 84 41 3c 4c f1 38 bd
       -0.08290762 -0.15393394 0.011811271 -0.045151994
000340 f0 6c ab bc 50 8e b8 bc 34 cc 22 3d b0 96 79 bc
       -0.020925969 -0.022528797 0.039745525 -0.015233681
000350 62 61 b4 bd 0f 2d 25 be d8 6a 56 3d a4 e3 0c 3e
       -0.08807637 -0.1613047 0.052347988 0.13758713
000360 5f a2 c7 bd d8 c8 a7 3c e0 15 8e bc b0 c9 92 3d
       -0.09747767 0.020481512 -0.017344415 0.07167375
000370 15 6c 39 be 88 d7 b8 3d 53 99 e7 bd 70 58 19 3c
       -0.18107636 0.09025484 -0.11308541 0.009359464
000380 54 88 1f be fe 17 37 3e fd 15 ac bd 98 43 9b 3d
       -0.15579349 0.17880246 -0.084026314 0.07581252
000390 22 e0 22 3e f8 84 04 3e 00 f5 14 3e e0 39 c1 bd
       0.15905812 0.12941349 0.14546585 -0.09434867
0003a0 ea 38 19 3e 48 c5 27 be 8e da 74 bd 80 44 cf 3b
       0.14963117 -0.1638385 -0.059778742 0.0063253045
0003b0 e4 aa ab 3d 60 6e f0 3c 30 90 09 3c 3e a5 0a 3e
       0.08382204 0.029349506 0.008396193 0.13539597
0003c0 1a cb c9 bd 9a 27 ff bd e2 7c 32 3e c4 60 98 3d
       -0.09853192 -0.12458725 0.17430452 0.074403316
0003d0 58 ae e2 bc 1a 7a 1c 3e 16 14 14 3e 20 07 d0 3b
       -0.027671024 0.15280953 0.14460787 0.0063485056
0003e0 f0 5f 66 3d 78 d6 ae 3c e3 a7 23 be 16 4f 77 bd
       0.056243837 0.021342501 -0.15982012 -0.060378157
0003f0 92 71 01 3e 86 59 2b be 6c ec a9 bd 80 ce 55 bd
       0.1264098 -0.16733369 -0.08297047 -0.052198887

fc2.bias f4 [30]
000000 b8 32 28 3e 1d 13 e5 bd bb ed 34 be db 8f 89 bd
       0.16425598 -0.11185286 -0.17668812 -0.067168914
000010 24 97 23 3d c0 59 cd 3d 2e fb 09 be a8 bb 7c 3d
       0.03993906 0.10026884 -0.13474724 0.0617024
000020 92 65 24 be 3b ca 34 be 6e 5e 1e be f0 59 e2 3d
       -0.16054371 -0.1765527 -0.1546571 0.110523105
000030 6c b3 0c be 50 09 3f bc c4 61 0b bd d2 36 04 3e
       -0.13740319 -0.011659935 -0.034028783 0.12911537
000040 dc 22 2b 3d b1 0d 37 be f8 8a 42 bd 52 93 e4 bd
       0.04178129 -0.17876317 -0.047495812 -0.111609116
000050 9e 33 16 3e 08 14 1b 3d f4 ce 0a be 10 8b df 3c
       0.14668128 0.0378609 -0.13555509 0.02728799
000060 50 4d 2b bd b8 5e 88 3d 58 c1 ec 3d 38 b9 f7 3d
       -0.041821778 0.06658691 0.11560315 0.120958745
000070 58 ad e7 3d a2 4a 39 3e
       0.113123596 0.18094876

fc3.weight f4 [30, 30]
000000 45 9b 80 bd 74 ba c4 3d 78 1b fb 3c c5 e9 a8 bd
       -0.06279615 0.096058756 0.030652747 -0.08247713
000010 a8 b9 e0 3d 4c 68 40 bd d0 7c 25 3c 69 f1 9f bd
       0.10972911 -0.046974465 0.010100558 -0.07809717
000020 5c 93 2b bd 8c de 20 be 74 43 07 be 74 78 1d 3e
       -0.04188858 -0.15709895 -0.13209325 0.1537798
000030 3f 81 ce bd 68 38 92 3c 92 73 10 3e fc d8 95 3d
       -0.100832455 0.017849162 0.14106587 0.07316777
000040 d3 ef 28 be 2b 59 ca bd 14 c1 15 3e f8 c8 d0 3d
       -0.16497736 -0.09880289 0.14624435 0.10194582
000050 64 64 43 3d e0 61 e8 bc a0 f3 e6 3d 60 bf b3 3d
       0.04770316 -0.028366983 0.112769365 0.08776736
000060 a4 51 9f 3d 50 f0 0c 3e ac e1 0f 3e c0 9d 69 bc
       0.077792436 0.13763547 0.1405093 -0.014258802
000070 66 1e d0 bd 74 1e 22 be f4 3c 8d 3d 50 9b 2c 3c
       -0.10162048 -0.1583193 0.068963915 0.010535076
000080 30 45 d9 3c 1e 8b 09 3e c2 e3 25 3e 14 d3 39 be
       0.026522249 0.13431975 0.16200164 -0.18146926
000090 68 2a 0c be 38 75 d7 3d e2 53 b4 bd 7a d5 33 3e
       -0.13688052 0.105204046 -0.08805062 0.17561904
0000a0 35 81 ca bd b2 6f 14 be 70 ec 50 bd 50 e1 69 3d
       -0.098879255 -0.14495733 -0.051006734 0.05709964
0000b0 18 c5 0e bd 80 b3 d5 bb 66 fb 38 3e 80 a3 6c bc
       -0.034855932 -0.006521642 0.18064651 -0.014443278
0000c0 17 b1 ff bd 19 59 0a be 00 f2 e1 b9 e0 70 b2 3d
       -0.12484949 -0.1351055 -0.00043095648 0.087129354
0000d0 ea e5 eb bd 90 6f 4a 3c 08 5a 62 bd 50 b4 2d bc
       -0.11518462 0.0123557 -0.05526164 -0.010602072
0000e0 f7 bd e4 bd f2 2b 33 3e 46 13 0d be 00 11 e8 ba
       -0.111690454 0.17497233 -0.13776883 -0.0017705262
0000f0 7a ba 9b bd fc a6 0a 3d dc fc 4f bd ab 24 0b be
       -0.07603927 0.033850655 -0.050778255 -0.13588206
000100 b6 cc 0a be 38 fd e1 bd 14 e5 ce 3d a0 ef 55 bd
       -0.13554654 -0.11034626 0.10102287 -0.052230477
000110 e0 11 a0 3b 82 cc 1d be 18 0a 8d 3d 33 d6 27 be
       0.0048849434 -0.15410045 0.06886691 -0.16390304
000120 6d 71 18 be 01 19 38 be f4 bf 51 bd a4 d9 74 bd
       -0.14887019 -0.17978288 -0.05120845 -0.05977787
000130 78 45 fd 3c 70 e4 8c 3d 84 d4 c7 3d 7c 11 84 3d
       0.030916914 0.068795085 0.09757331 0.064486474
000140 88 47 53 3d c8 cc 28 3e b1 73 c1 bd bc 21 02 bd
       0.05158189 0.16484368 -0.094458945 -0.031770453
000150 7a b5 16 3e 90 eb fc bc 78 5e 2c be a0 c0 8f bc
       0.14717665 -0.030874044 -0.16832912 -0.017547905
000160 80 b6 d3 bc 8c 03 03 be c0 5c 0a 3b a0 72 f4 3d
       -0.025843859 -0.12794322 0.0021112412 0.119359255
000170 58 e2 83 bc 84 5d d1 3d d0 53 b5 3d 98 b9 4e 3d
       -0.01609914 0.10222915 0.088538766 0.050469965
000180 12 fc 01 3e b8 cc ab bc 58 48 f8 3d ec 88 99 3d
       0.12693813 -0.020971641 0.121231735 0.07496819
000190 c2 11 09 be 3c af 07 bd 6c d0 5a bd d0 17 03 3e
       -0.1338568 -0.0331261 -0.053421423 0.12802052
0001a0 5e ad 6c bd d8 2b f1 3c 28 44 08 3d 20 e9 b8 3b
       -0.057782523 0.029439852 0.033268124 0.005643025
0001b0 8d 8f cd bd f0 94 99 3c fc dd b1 3d 90 46 78 3d
       -0.10037146 0.018747777 0.08684918 0.06061417
0001c0 e7 e7 ba bd f0 40 be bd ac e1 e5 3d 77 f4 35 be
       -0.09126263 -0.092897296 0.11224684 -0.17769037
0001d0 8e 4e 11 3e 68 d5 22 3d 4c 0d f1 bd e0 6c 1f 3e
       0.14190122 0.0397543 -0.11770114 0.15568876
0001e0 5e 2c fa bd a8 4e 8d bc 83 30 20 be ac 83 b6 3d
       -0.122154936 -0.01724942 -0.15643506 0.08911833
0001f0 40 55 f3 3c 19 3d b8 bd e0 02 c7 3d 4a ec 84 bd
       0.029703736 -0.089960285 0.09717345 -0.06490381
000200 b8 87 47 bd b4 91 22 3e b0 ae a0 3d 36 79 e3 bd
       -0.048713416 0.15875894 0.07845819 -0.111071035
000210 dc c7 13 3e e4 c0 04 be 10 4b 0f 3d 6c 57 e9 3d
       0.14431709 -0.12964207 0.034983695 0.113936275
000220 ac 0e ca 3d 70 e5 08 3d 85 04 f7 bd 80 09 e1 bc
       0.0986608 0.033421934 -0.12061409 -0.02747035
000230 18 21 46 3d b8 cf 2b be df 84 28 be c8 1a fc 3d
       0.048371404 -0.16778457 -0.16456936 0.123097956
000240 c4 97 c1 3d a0 ec df 3d 8c 80 69 bd e7 ca c0 bd
       0.09452775 0.109338045 -0.057007357 -0.094137006
000250 a8 d2 99 bc 10 9a 7d 3d 48 19 38 3d 10 3e 54 bc
       -0.018777207 0.061914504 0.044945985 -0.01295425
000260 82 17 20 3e 2c 9f 04 bd 0c 08 20 bd 3c c9 a5 3d
       0.15633968 -0.03237836 -0.039070174 0.08095023
000270 78 93 f7 3d d0 06 f6 3d 60 b4 16 bc 2c 98 8e 3d
       0.12088674 0.12013018 -0.009198278 0.06962618
000280 40 12 7a bb 98 2a 9f 3c f8 af a0 3d 40 3a e6 3d
       -0.003815785 0.01942949 0.078460634 0.11241579
000290 5c 55 03 3e 50 73 ea 3d ce 91 25 be 1b 98 19 be
       0.12825531 0.11447775 -0.16168901 -0.1499943
0002a0 df 21 a7 bd 1e 9e 2b 3e dc bf 2b 3e 79 5b 95 bd
       -0.08160757 0.16759536 0.16772407 -0.07292838
0002b0 44 de 8a 3d 50 86 e5 3c ba 61 1b 3e 58 ab ec 3d
       0.06780675 0.028018147 0.15173998 0.11556119
0002c0 cc d1 df 3d 04 61 c4 3d b4 4b 03 3d 6c d0 53 bd
       0.109286875 0.09588817 0.032054618 -0.05171244
0002d0 d0 31 61 bd c2 fa 22 be c0 38 c5 bc 36 3e f6 bd
       -0.054979146 -0.15915969 -0.024074912 -0.120235845
0002e0 cc 0f 73 3d a0 98 ad bb c0 2b 31 be cf 91 de bd
       0.059341237 -0.0052977353 -0.17301846 -0.108676545
0002f0 28 98 7b 3d b8 6b d6 bc c6 9d c8 bd 58 bb 15 3e
       0.061424404 -0.026174411 -0.09795718 0.14622247
000300 ce b6 ed bd fa 7c 06 be 0f 1f 2e be d4 1e 0d 3e
       -0.11607133 -0.13133612 -0.17004035 0.13781291
000310 90 bc 6a 3c a8 84 52 3d d0 a9 c9 3d 84 00 30 3e
       0.014327183 0.051396042 0.09846842 0.17187697
000320 d4 82 44 3d 3e 3d 06 be da 31 24 3e 78 59 b2 3d
       0.04797633 -0.131093 0.16034642 0.08708471
000330 38 31 ee bc 71 1b 89 bd f0 cb 24 bd cc e1 66 3d
       -0.029076204 -0.06694687 -0.040233552 0.05636768
000340 01 02 c0 bd fc 3e fe 3d a5 c3 14 be a8 d0 2d 3d
       -0.09375382 0.12414357 -0.14527757 0.04243532
000350 e8 7c cd bd 90 17 fe 3c 2e 32 d2 bd 98 a2 fa bc
       -0.100335896 0.031017095 -0.10263477 -0.030595109
000360 5a 87 20 3e 76 72 ef bd 68 60 0a 3e 39 5e 98 bd
       0.15676633 -0.116917536 0.13513339 -0.074398465
000370 2a 66 9c bd 90 f9 91 3d ec b9 26 bd a0 9a fb 3c
       -0.07636674 0.071276784 -0.040704653 0.03071338
000380 b7 91 2a be 42 5d 85 bd 54 12 d1 bd c0 a8 b6 bc
       -0.16657148 -0.06511928 -0.10208574 -0.022297263
000390 80 0e a3 bb 0c 0a a8 3d 40 f2 14 3d ea 8e 02 3e
       -0.004976094 0.08205041 0.03636384 0.1274983
0003a0 20 bc cb 3b e8 82 2b 3d 30 56 fd 3d 54 3d 29 3e
       0.0062174946 0.04187289 0.123699546 0.16527301
0003b0 50 ec c6 3d 72 bc e4 bd f0 c3 ec 3d 3c 55 6e bd
       0.09713042 -0.111687556 0.115608096 -0.058186755
0003c0 98 cb 1c 3d 70 d0 c6 bc b0 4d 02 3c f8 a3 a0 3d
       0.0382801 -0.024269313 0.007953092 0.078437746
0003d0 9a 48 03 be 00 dc f8 3a 80 0e d9 bc f6 0f a8 bd
       -0.12820664 0.0018986464 -0.026496172 -0.08206169
0003e0 60 68 b3 3d 50 f3 2d 3e d3 4a 02 be 20 ab 48 3d
       0.08760142 0.16987348 -0.12723856 0.048991323
0003f0 60 29 b1 3d 31 3e b8 bd 7f ad d9 bd 84 60 13 bd
       0.0865047 -0.08996237 -0.10628795 -0.035980716

fc3.bias f4 [30]
000000 08 a6 c5 bc 46 f5 14 3e f0 ab 49 3d dd cd 32 be
       -0.024127021 0.1454669 0.049236238 -0.17461343
000010 40 f2 4e bc 9c dd 8d bd 7e c8 b1 bd 04 6e 15 be
       -0.012630999 -0.06927034 -0.08680819 -0.14592749
000020 1f 6a ad bd e0 05 15 bc 08 7f 28 3e 74 33 80 3d
       -0.084675066 -0.009095639 0.16454709 0.06259814
000030 66 f3 31 3e 10 b0 f8 bc 7c ce 31 3e 8c fb c9 3d
       0.17378005 -0.03035739 0.17363924 0.09862432
000040 ac 0b df 3d e0 c1 62 3d 74 85 2f bd 34 d2 14 be
       0.10890898 0.055360675 -0.04285188 -0.14533311
000050 be b0 17 3e 20 1d d0 3d 77 3b 35 be 8c a0 81 3d
       0.14813516 0.10161805 -0.17698465 0.0632945
000060 78 f5 fc 3d 28 2a 0b be fb ac 17 be f5 58 a8 bd
       0.12351507 -0.135903 -0.1481208 -0.08220092
000070 4d 93 9a bd f0 60 48 3c
       -0.07547627 0.012230143

fc4.weight f4 [1, 30]
000000 a4 ce 26 be f0 95 f5 bc 80 28 cc 3a 00 8a 11 ba
       -0.16289765 -0.029978722 0.0015576035 -0.00055518746
000010 80 dc 9a bd 40 cc 71 bb 08 75 af bc 40 48 30 3b
       -0.07561588 -0.0036895424 -0.02141811 0.0026898533
000020 ed 25 0a be e8 f6 0c bd f6 26 04 3e 0f c9 25 be
       -0.1349103 -0.034415156 0.12905487 -0.16189979
000030 8c 21 00 bd 94 e0 33 3e 80 26 e8 bd 4a 8e 82 3d
       -0.031281993 0.17566139 -0.11335468 0.06374796
000040 90 c8 e9 3d 70 6b 8b 3d f6 a4 bd bd 80 c5 21 bc
       0.114152074 0.068076015 -0.092599794 -0.009873748
000050 58 2d a7 bc 30 a7 32 be 74 5c 54 3d 94 2b f7 3d
       -0.020407364 -0.1744659 0.051845983 0.12068859
000060 48 9b 0a 3e 00 50 96 b9 a0 6d 48 3d 0c d3 c0 3d
       0.13535798 -0.00028669834 0.04893267 0.09415254
000070 43 bc 99 bd b0 45 52 3c
       -0.07506611 0.012833998
