CriticModel.pt (torch, 70027 bytes, 7 tensors)

fc1.weight f4 [90, 3]
0	0xbe0e21e3	-0.13880114
1	0x3f464d57	0.7746176
2	0xbee0da2d	-0.43916455
3	0xbed9e144	-0.42554677
4	0x3e16612c	0.14685506
5	0x3a158000	0.00057029724
6	0xbf0318e7	-0.5120987
7	0x3e0e4c8a	0.13896385
8	0x3ec82d27	0.39096949
9	0xbd3eb69b	-0.046560865
10	0x3f7804e1	0.96882445
11	0x3d2b2db3	0.04179163
12	0xbf433696	-0.76255167
13	0x3d99fa16	0.07518403
14	0xbdf21dd4	-0.118220955
15	0xbed0c563	-0.40775594
16	0xbe720115	-0.23633225
17	0xbcb53354	-0.022119202
18	0x3eaae2af	0.3337607
19	0x3f88a4f6	1.0675342
20	0xbec0c09c	-0.3764695
21	0xbe671b00	-0.22568893
22	0x3f2b5ee9	0.66941696
23	0x3e0dd9f6	0.13852677
24	0x3e8d4fe3	0.2760001
25	0x3f57c988	0.8429189
26	0x3d1e048b	0.03857855
27	0xbec714f0	-0.38883162
28	0xbec1c6ea	-0.37847072
29	0xbeea44c9	-0.45755604
30	0x3e99086e	0.29889244
31	0xbe5e13be	-0.21687219
32	0xbcb55282	-0.02213407
33	0xbede9c95	-0.43478838
34	0x3f3d7840	0.7401161
35	0xbe33ed62	-0.17571023
36	0x3e7086c1	0.23488905
37	0x3eec0287	0.46095678
38	0xbeb10f27	-0.34581873
39	0x3ed20dd5	0.41026178
40	0x3ed4bb3c	0.41549098
41	0x3ed9686c	0.4246248
42	0xbead582f	-0.3385634
43	0xbec78ac4	-0.38973057
44	0xbe82dee8	-0.2556069
45	0xbef51c0e	-0.47872967
46	0xbf08ff36	-0.5351442
47	0xbc853893	-0.016262328
48	0x3e9490e0	0.2901678
49	0xbf3369c5	-0.70083266
50	0xbe35abfb	-0.17741387
51	0x3eab0eb7	0.33409664
52	0xbe05575b	-0.13021605
53	0xbed8b509	-0.4232562
54	0x3e9adf1f	0.30248353
55	0xbf022ce9	-0.5084978
56	0xbea031a0	-0.3128786
57	0xbedca5ce	-0.4309525
58	0xbf105b11	-0.56388956
59	0xbe8ee822	-0.27911478
60	0xbf2a3f59	-0.6650291
61	0xbf1e3973	-0.6180641
62	0xbe2ffd66	-0.17186508
63	0xbed7fc90	-0.42184877
64	0xbf016ff9	-0.5056148
65	0xbe60f43e	-0.21968171
66	0x3cfb1530	0.030649751
67	0x3dc81479	0.0976953
68	0x3ef2da04	0.47431958
69	0xbf01c895	-0.5069669
70	0x3f6c635c	0.9233911
71	0x3b9a609a	0.004711223
72	0xbe83dd47	-0.2575476
73	0xbf358621	-0.7090779
74	0xba617d69	-0.00086017564
75	0x3e81b0a3	0.25330076
76	0x3f3178e4	0.6932509
77	0x3d1cf17f	0.038316246
78	0x3d979570	0.0740155
79	0xbeb9d8c1	-0.36298183
80	0xbf26ea4b	-0.6520125
81	0x3e8422f1	0.25807908
82	0x3ef16f92	0.47155434
83	0x3f0d5b4c	0.5521743
84	0xbe664ea3	-0.22490935
85	0x3d9941ed	0.074832775
86	0xbf1c0dd0	-0.60958576
87	0xbf6008cf	-0.8751344
88	0xbf51d90a	-0.819718
89	0x3e626db2	0.22112158
90	0x3e82f591	0.25577977
91	0xbf449222	-0.7678548
92	0x3e36aa3a	0.17838374
93	0x3f06b43f	0.52618784
94	0x3f33aa35	0.7018159
95	0x3ed1c8cd	0.4097351
96	0xbec718df	-0.38886163
97	0xbdef3c04	-0.11681369
98	0xbeb3a7ef	-0.3508906
99	0xbe8dc505	-0.27689376
100	0xbf47b004	-0.78002954
101	0x3d7d2653	0.061804127
102	0x3ec2a4bc	0.38016307
103	0xbec6abab	-0.38802847
104	0xbe687865	-0.22702177
105	0x3e198b57	0.1499456
106	0x3e069aa3	0.13144927
107	0xbe15f934	-0.14645845
108	0x3f1d2d03	0.6139681
109	0xbf3e7ce1	-0.744093
110	0xbee6bc7f	-0.45065686
111	0xbeb76a28	-0.35823178
112	0xbf213912	-0.6297771
113	0xbe6af7a2	-0.22946027
114	0xbefec56e	-0.49760002
115	0x3f6b5d83	0.9193956
116	0xbddb75f8	-0.1071586
117	0xbea29ee2	-0.31761843
118	0xbf525c21	-0.8217183
119	0xbe71cbbe	-0.23612878
120	0xbf4fde85	-0.8119891
121	0x3f5761d7	0.84133667
122	0x3f154a24	0.58316255
123	0x3e11fb61	0.1425605
124	0xbefd0b86	-0.49422854
125	0xbcb09436	-0.021555047
126	0x3f037500	0.513504
127	0x3f36bc71	0.7138129
128	0x3eff5287	0.4986765
129	0xbf269962	-0.65077794
130	0x3f5b2d4c	0.8561599
131	0xbc3bf928	-0.011472978
132	0xbe5321a1	-0.20618297
133	0x3f37af0a	0.71751463
134	0xbeaff7e0	-0.343688
135	0xbe42fcc7	-0.1904174
136	0xbe985b6b	-0.29757246
137	0xbdcc4c34	-0.09975472
138	0xbf336249	-0.70071846
139	0xbf52b170	-0.82302
140	0xbe7b6edc	-0.24554008
141	0xbf21b203	-0.6316225
142	0x3f50b64c	0.8152816
143	0x3ee63ba6	0.44967383
144	0x3e7d4779	0.24734296
145	0x3f06fef5	0.52732784
146	0xbf1ea3f2	-0.6196891
147	0x3d8f1d5c	0.06988022
148	0x3f64acb3	0.8932602
149	0xbd913246	-0.07089667
150	0xbf0c7672	-0.54868233
151	0x3f365101	0.7121735
152	0x3cb2f1e2	0.021843854
153	0xbf34ace6	-0.7057632
154	0x3f0d2d92	0.5514766
155	0x3e159cf2	0.14610651
156	0xbf05be6a	-0.52243674
157	0xbf60c6c7	-0.8780331
158	0x3f0287d3	0.509885
159	0x3f266431	0.6499663
160	0xbf256459	-0.64606243
161	0x3eea5b89	0.4577296
162	0x3e2c8e14	0.16851074
163	0x3f039c76	0.51410615
164	0x3ed7d558	0.42154956
165	0xbf110102	-0.5664216
166	0xbeb3623c	-0.35035884
167	0xbb125407	-0.0022327916
168	0x3d69a57d	0.057042588
169	0xbebb44b5	-0.36575857
170	0xbf323200	-0.69607544
171	0x3d52a52f	0.051427063
172	0xbe8f0b11	-0.2793813
173	0xbd8ab8f9	-0.06773562
174	0x3eadd48b	0.3395122
175	0xbf5ebe8a	-0.8700949
176	0x3d60bd06	0.054867767
177	0x3f00d3c2	0.50323117
178	0xbee0215e	-0.43775457
179	0xbee19866	-0.44061583
180	0xbe499f82	-0.19689754
181	0xbd3889d0	-0.045053303
182	0x3bb2d080	0.005456984
183	0xbe9a126a	-0.30092174
184	0x3f65ceee	0.89768875
185	0x3e313897	0.17306744
186	0x3f6f7b59	0.9354759
187	0xbf77709e	-0.96656215
188	0xbf17b513	-0.5926067
189	0xbefc7ee8	-0.49315572
190	0xbf30d9d4	-0.6908238
191	0x3d1f01ac	0.038819954
192	0x3f400bd6	0.7501806
193	0x3ebca30f	0.36843154
194	0x3f1a176b	0.60191983
195	0xbe04a9b3	-0.1295536
196	0x3f252703	0.6451265
197	0xbf1617d0	-0.58630085
198	0x3eacf601	0.33781436
199	0x3eaf5383	0.34243402
200	0x3edc0233	0.42970428
201	0x3e9104e1	0.28324035
202	0xbf004dde	-0.50118816
203	0x3edb7ebd	0.4287013
204	0xbeecefba	-0.46276647
205	0x3f7be6a5	0.9839881
206	0xbe677cc0	-0.22606182
207	0x3f3acd10	0.7296915
208	0xbf246c95	-0.64228183
209	0xbe71b901	-0.2360573
210	0xbecfd3e0	-0.40591335
211	0xbed1c695	-0.4097182
212	0xbe094b75	-0.13407691
213	0xbe6f7241	-0.23383428
214	0xbedc14fd	-0.42984763
215	0xbd261e72	-0.04055638
216	0xbe898de1	-0.26866058
217	0xbf1d0146	-0.6133007
218	0xbe38c911	-0.18045451
219	0xbe93038e	-0.2871365
220	0xbeb919a6	-0.3615238
221	0xbeeb8ef0	-0.4600749
222	0x3f0363f7	0.5132441
223	0xbed1cc0d	-0.4097599
224	0x3f1126bd	0.56699735
225	0xbe8ca59a	-0.27470094
226	0xbeb42bf0	-0.35189772
227	0xbf2c2167	-0.6723847
228	0xbe52f45e	-0.20601031
229	0xbf7b0aab	-0.98063153
230	0xbbe1bcfe	-0.0068889847
231	0x3e9c1ef3	0.30492362
232	0x3ebd0f19	0.3692558
233	0xbd77ddbc	-0.060514197
234	0xbdaf1e5f	-0.08550715
235	0xbf4fae21	-0.81125075
236	0xbdf4c2bb	-0.119512044
237	0xbd87cb56	-0.0663058
238	0x3f7d6043	0.9897501
239	0xbda91128	-0.082552254
240	0xbeed43be	-0.46340746
241	0x3d2542ba	0.04034684
242	0xbe2d658f	-0.16933273
243	0xbf3110f6	-0.69166505
244	0x3f37d9b4	0.71816564
245	0x3e09177d	0.13387866
246	0x3f289e6b	0.65866727
247	0x3db5f28e	0.08884154
248	0x3f1a7581	0.60335547
249	0xbd524b54	-0.05134137
250	0xbf2e7f88	-0.6816335
251	0xbdfd84f6	-0.12378876
252	0xbf311fca	-0.6918913
253	0xbe81eb6c	-0.25374925
254	0xbbd481b1	-0.006485187
255	0x3f64ea2c	0.8941982

fc1.bias f4 [90]
0	0x3eb1aad5	0.34700647
1	0xbef9fe92	-0.48827034
2	0x3f42d72c	0.76109576
3	0x3d3535fd	0.04424094
4	0x3f656b0c	0.89616466
5	0x3f48c3de	0.7842387
6	0x3f2e5849	0.6810346
7	0x3f430095	0.76172763
8	0x3eee4a04	0.46540844
9	0x3f23e263	0.64017314
10	0x3ee405c0	0.44535637
11	0x3ed9bf0b	0.42528567
12	0xbf203662	-0.6258298
13	0x3efc43dd	0.49270526
14	0x3e8a43e9	0.27004936
15	0x3ec2febb	0.3808497
16	0x3f456cb6	0.77119005
17	0x3e7f5c99	0.24937667
18	0x3ef74184	0.48292172
19	0x3eabcb1b	0.33553395
20	0x3f05d594	0.5227902
21	0x3ea64fe3	0.32482824
22	0x3f3f11f2	0.7463676
23	0x3f0066ee	0.5015706
24	0x3e84aa6e	0.25911278
25	0x3ed54712	0.41655785
26	0x3e3e1c1b	0.18565409
27	0x3ee2514f	0.4420266
28	0x3cd4796a	0.025936801
29	0x3f379f09	0.71727043
30	0x3d76d41d	0.06026088
31	0x3d7c6d64	0.06162776
32	0xbeae50ce	-0.34046024
33	0x3c22841e	0.0099191945
34	0x3e2caee8	0.16863596
35	0x3f402979	0.7506328
36	0x3ed7be59	0.4213741
37	0xbc669e82	-0.014075877
38	0x3f3e6ca9	0.7438455
39	0x3e3e6990	0.18594956
40	0xbe577338	-0.21040046
41	0x3c10122e	0.008793397
42	0x3eca9d37	0.3957307
43	0x3f25a82f	0.6470975
44	0xbdc2164f	-0.09476911
45	0x3f484494	0.7822964
46	0x3f0a3f02	0.5400239
47	0x3f3b9049	0.73267037
48	0xbeba8474	-0.3642918
49	0x3e686328	0.22694075
50	0x3f0aac29	0.54168946
51	0x3f413240	0.754673
52	0x3efdfb31	0.49605706
53	0xbec25f5f	-0.37963387
54	0x3eefe86b	0.46857008
55	0x3f4fccc1	0.81171805
56	0xbf0d10e0	-0.55103874
57	0x3f2662bd	0.6499441
58	0x3f0dc3c3	0.55376834
59	0x3f1b73b8	0.6072345
60	0xbec8d554	-0.39225256
61	0xbe361ee5	-0.17785223
62	0xbe58d00f	-0.21173118
63	0x3e3ae95a	0.18253079
64	0xbddb3f5c	-0.10705444
65	0xbecb5c04	-0.3971864
66	0x3f0fc742	0.5616342
67	0xbefa24ec	-0.48856294
68	0x3ef46873	0.47735938
69	0xbdc4cf32	-0.09609832
70	0x3bda207e	0.0066567054
71	0x3e6fcc9f	0.234179
72	0xbd9bd71a	-0.07609387
73	0xbe94f1c7	-0.2909071
74	0x3e208293	0.1567481
75	0xbef4775b	-0.4774731
76	0x3e395d1e	0.18101928
77	0x3f6152ab	0.88016766
78	0x3cb5c049	0.022186415
79	0x3d74c458	0.05975756
80	0x3f69fc1a	0.914003
81	0x3f352725	0.70762855
82	0xbe813b9c	-0.2524079
83	0xbd357895	-0.04430445
84	0x3f3e8041	0.7441445
85	0xbec03ad9	-0.37544897
86	0x3f090692	0.5352565
87	0x3e47f5dc	0.19527382
88	0x3c494ac7	0.012285895
89	0x3e8cedb9	0.27525118

fc2.weight f4 [90, 90]
0	0xbd5176a0	-0.05113852
1	0x3dc6cd47	0.09707122
2	0x3d8c99e3	0.06865289
3	0x3e57ed82	0.21086696
4	0x3ce33e18	0.02773957
5	0x3ded5f55	0.11590449
6	0x3da65a9c	0.08122751
7	0x3d7b01ad	0.061280895
8	0x3d8c3e6e	0.06847845
9	0x3d4b36ab	0.049612682
10	0x3dc02402	0.09381868
11	0xbd9d9b95	-0.076956905
12	0xbe3f9431	-0.18708874
13	0x3b092e40	0.0020932108
14	0xbc01eefa	-0.007930512
15	0x3e8552c4	0.26039708
16	0x3d6fe1e6	0.058565043
17	0xba858aea	-0.0010188494
18	0xbd8d753c	-0.06907126
19	0x3da7fbc5	0.08202318
20	0x3e724d21	0.23662235
21	0x3dcc3c70	0.09972465
22	0x3ddba37f	0.10724544
23	0x3cd22fc5	0.025657544
24	0x3e963f90	0.2934537
25	0x3e35beea	0.17748609
26	0x3d63bdd8	0.05560097
27	0xbcb29a9e	-0.021802243
28	0xbd8f8373	-0.07007494
29	0x3e3feb8d	0.18742199
30	0x3d35990e	0.044335417
31	0x3b95cdd4	0.0045716558
32	0xbe18ec36	-0.14933857
33	0x3e50acb2	0.20378378
34	0x3d3330e5	0.0437478
35	0x3d08b97c	0.033380017
36	0xbc88d4ba	-0.016702998
37	0x3d8e4983	0.06947615
38	0x3e02eb62	0.12785104
39	0x3c832a9f	0.016011534
40	0xbd13d009	-0.03608707
41	0x3eb5bf03	0.35497293
42	0x3da63e80	0.0811739
43	0x3d48c0d4	0.04901202
44	0xbd5ea92d	-0.054360557
45	0x3e5f8f91	0.2183211
46	0x3e3e4f77	0.18585001
47	0x3dff5bb3	0.12468662
48	0xbdd9a1a1	-0.106265314
49	0x3de700ec	0.11279473
50	0xbc22f2cf	-0.009945585
51	0xbbc5de1f	-0.006038442
52	0xbd25d75c	-0.040488586
53	0xbe1a75a2	-0.15083936
54	0x3de570cf	0.11203157
55	0x3e76e886	0.24112138
56	0x3b02b4a3	0.0019944094
57	0x3e0ed3d8	0.13948
58	0x3e5427d0	0.20718312
59	0xbd0a187c	-0.033714756
60	0xbdc124d7	-0.09430855
61	0xbb03c2b9	-0.0020105077
62	0xbe324977	-0.17410837
63	0x3e8073e1	0.2508841
64	0xbdcd4702	-0.10023309
65	0xbd819020	-0.06326318
66	0xbd030dcb	-0.031995576
67	0xbc553d6d	-0.013015133
68	0xbe0bc8ca	-0.13650814
69	0xbdf24111	-0.11828817
70	0xbd85a397	-0.06525343
71	0x3db18873	0.08668604
72	0xbd876bc3	-0.06612351
73	0xbd2a2383	-0.041537773
74	0x3d9ff908	0.07811171
75	0xbe0472b3	-0.1293438
76	0x3ea4f61c	0.32219017
77	0x3e7cac74	0.2467516
78	0x3eab0a31	0.33406213
79	0x3e164752	0.14675644
80	0xbc0dcfe6	-0.008655524
81	0x3dc176c2	0.094464794
82	0xbc577bd0	-0.013152078
83	0x3ea997d1	0.3312364
84	0x3d6c9442	0.057758577
85	0xbe1f69d9	-0.15567721
86	0x3e29d4f7	0.16585146
87	0x3db49ff4	0.08819571
88	0xbdd143e5	-0.10218028
89	0xbb15724f	-0.002280373
90	0xbd9e0faa	-0.077178314
91	0x3d5c4faa	0.05378691
92	0x3d95fa15	0.0732309
93	0x3e0e356f	0.13887571
94	0x3e2c5005	0.168274
95	0x3e44badc	0.19211906
96	0x3daf4ccb	0.08559569
97	0x3cc4187f	0.023937462
98	0x3d9d40ff	0.07678413
99	0x3d83471c	0.064100474
100	0x3e347c6e	0.17625591
101	0xbd946e4f	-0.07247602
102	0xbd83e082	-0.06439306
103	0x3dcb167f	0.099164
104	0x3dbc2d9e	0.09188388
105	0x3e3c0551	0.18361403
106	0x3d29516e	0.041337423
107	0xbdcbc4be	-0.09949635
108	0xbdcd6238	-0.10028499
109	0x3e16d028	0.14727843
110	0x3e7076a7	0.23482762
111	0xbd2bcc2a	-0.041942753
112	0xbcef46be	-0.029208537
113	0x3e7cee4a	0.24700275
114	0x3eb41189	0.35169628
115	0x3e430f14	0.1904872
116	0xbdfaecc3	-0.1225219
117	0xbd1d99dc	-0.03847681
118	0xbc96330a	-0.018334884
119	0x3e0524e7	0.13002358
120	0x3db2ce96	0.087308094
121	0x3d5da0c6	0.054108404
122	0x3c21bdf0	0.009871945
123	0x3e2175bf	0.15767573
124	0x3bcd7ec3	0.0062712147
125	0xbc8ac100	-0.016937733
126	0xbd4112cb	-0.047137063
127	0x3d81ae7d	0.06332109
128	0x3d8cfb7a	0.06883903
129	0xbc9fe024	-0.019516058
130	0x3d25c8f5	0.04047485
131	0x3eb58169	0.35450295
132	0xbd647b96	-0.055781923
133	0x3d2e8f29	0.042616997
134	0xbe162c1e	-0.14665267
135	0x3e109821	0.14120533
136	0x3e0a3ccc	0.13499755
137	0x3defde77	0.11712354
138	0xbe285fc0	-0.16442776
139	0x3dd42fe7	0.10360699
140	0x3d9fd529	0.07804329
141	0x3d247104	0.040146843
142	0x3e0a9885	0.13534744
143	0xbdd7aff9	-0.10531611
144	0xbd4b9625	-0.049703736
145	0x3e2dfd0c	0.16991061
146	0xbde225f6	-0.11042397
147	0x3e65dfde	0.2244868
148	0x3e969ddd	0.29417315
149	0xbd7f27d0	-0.062293828
150	0xbd1a75b6	-0.037709914
151	0xbe01e60f	-0.12685417
152	0xbcd41e8a	-0.025893468
153	0x3e95a6e6	0.29228896
154	0xbde6b7e8	-0.11265546
155	0xbe3fb82c	-0.187226
156	0x3d8acc03	0.067771934
157	0xbe44f444	-0.19233805
158	0xbcc7dd75	-0.024397591
159	0xbe7c4a48	-0.24637711
160	0x3d2cd70a	0.042197265
161	0x3dbbff0e	0.09179507
162	0xbda6757e	-0.081278786
163	0xbe310c9f	-0.17289971
164	0xbd1b839b	-0.037967306
165	0xbd216ad6	-0.039408527
166	0x3ea41985	0.3205072
167	0x3defd12d	0.11709819
168	0x3ed58bc9	0.4170821
169	0x3d2660f4	0.040619805
170	0xbbd68b9d	-0.006547405
171	0x3e343fbe	0.1760244
172	0xbc9da1cb	-0.019242188
173	0x3e9f4db1	0.3111396
174	0x3e26bccd	0.1628296
175	0xbe1fade2	-0.15593675
176	0x3e4008bc	0.18753332
177	0xb937e184	-0.00017536251
178	0x3cf11f47	0.02943386
179	0x3d5ecfca	0.05439738
180	0xbdeb54cf	-0.11490785
181	0xbdd2fc3e	-0.10302018
182	0x3cbd7742	0.023128156
183	0x3ec10420	0.3769846
184	0x3e1fb97c	0.155981
185	0x3e3bcf92	0.183409
186	0x3d5c5b86	0.05379822
187	0xbbee75b8	-0.0072772168
188	0x3e23d17f	0.15997885
189	0x3d559892	0.052147456
190	0x3d7c48b6	0.06159278
191	0x3d92503a	0.07144208
192	0xbdeb94a6	-0.11502962
193	0xbdce40d4	-0.10070959
194	0x3ca69ac6	0.020337474
195	0x3e447190	0.19183946
196	0xbced81fc	-0.028992645
197	0xbe4df4d0	-0.2011292
198	0xbc88a21c	-0.016678862
199	0x3dc5ffd3	0.09667935
200	0x3e55c058	0.20874155
201	0x3dd3eebc	0.10348269
202	0xbd9f3e58	-0.07775563
203	0x3e3d52bf	0.18488596
204	0x3e7d4e4c	0.24736899
205	0x3e3ce90b	0.18448274
206	0xbe2269ab	-0.15860622
207	0xbd47cf86	-0.048781894
208	0xbe04e18b	-0.12976663
209	0x3e27ebee	0.16398594
210	0xbe501017	-0.20318638
211	0xbd8750e6	-0.06607227
212	0xbe16ea97	-0.14737926
213	0x3e0593c6	0.13044652
214	0xbe5e6fb0	-0.21722293
215	0x3cd7caaf	0.026341764
216	0xbe13b7b1	-0.14425541
217	0xbd161510	-0.03664118
218	0x3e4ec607	0.20192729
219	0x3dea9ed7	0.114560775
220	0xbdaa95f7	-0.08329385
221	0x3e13c0c4	0.14429003
222	0xbdc5d127	-0.09659033
223	0x3e4ee3f2	0.20204142
224	0xbd4defd1	-0.050277535
225	0x3deefc24	0.11669186
226	0x3e3992e3	0.18122439
227	0x3dc4e626	0.0961421
228	0xbdbbd5fb	-0.09171673
229	0x3e622d08	0.2208749
230	0x3e47aba0	0.19499063
231	0x3c809b11	0.015698941
232	0xbd9b053c	-0.07569358
233	0xbeab93d0	-0.3351121
234	0xbdd88819	-0.105728336
235	0x3db8b1d0	0.0901829
236	0xbe872e2c	-0.26402414
237	0x3e8ce886	0.2752115
238	0x3e3e0624	0.1855703
239	0x3ca741cb	0.020417115
240	0x3c31d1e0	0.010853261
241	0xbdece1ce	-0.11566506
242	0xbe8cd944	-0.2750951
243	0x3dd64dbb	0.10464045
244	0xbe0e7230	-0.13910747
245	0xbe4f86af	-0.20266221
246	0xbe05365a	-0.13009015
247	0xbe2b2107	-0.16711818
248	0x3d616751	0.05503017
249	0xbec834c0	-0.39102745
250	0xbbf0f79c	-0.007353736
251	0x3e0b7597	0.13619076
252	0xbd10e0a1	-0.035370473
253	0xbdc09ae1	-0.09404541
254	0xbd5c4002	-0.05377198
255	0xbd4eee18	-0.050520033

fc2.bias f4 [90]
0	0x3e8481c4	0.25880253
1	0x3e1cc0b1	0.15307881
2	0x3e906e94	0.28209364
3	0x3e4398e9	0.191013
4	0x3e2039b7	0.15647016
5	0x3e208afa	0.15678015
6	0x3e6b7979	0.22995557
7	0x3df967b5	0.12177984
8	0x3e0f0b20	0.13969088
9	0xbd113784	-0.035453334
10	0x3e7fe150	0.24988294
11	0x3e8f44fe	0.27982324
12	0x3d93c3ac	0.07215056
13	0x3e302be0	0.17204237
14	0x3e519ec9	0.20470728
15	0xbd3cc414	-0.046085432
16	0x3dca0e74	0.09866038
17	0xbe067e0f	-0.13134025
18	0x3e8237ad	0.25433102
19	0x3e026897	0.1273521
20	0x3e00279a	0.12515107
21	0x3e319468	0.17341769
22	0x3e45e954	0.19327289
23	0x3e9562ad	0.29176846
24	0x3e4f73ce	0.2025902
25	0x3e41f1bd	0.18939872
26	0x3dd873e0	0.105689764
27	0x3dfd96b4	0.1238226
28	0x3e8166d2	0.25273758
29	0x3e0e0edf	0.1387286
30	0x3e1ae765	0.15127333
31	0x3e87db1c	0.26534355
32	0x3e84d88e	0.25946468
33	0x3eaaa552	0.33329254
34	0x3e75af18	0.23992574
35	0x3ec4e6ed	0.38457432
36	0xbd830c20	-0.06398797
37	0x3e6bc381	0.23023798
38	0x3e1ce0f6	0.15320191
39	0x3de39a97	0.1111347
40	0x3e713d03	0.2355843
41	0x3e759e3b	0.23986141
42	0x3df189cb	0.1179386
43	0x3e863bfc	0.2621764
44	0x3e7fb0e2	0.24969819
45	0x3e30734f	0.17231487
46	0x3e3c7a7a	0.18406096
47	0x3e34239f	0.17591713
48	0x3e018140	0.12646961
49	0x3e6f5f05	0.23376091
50	0x3dc03ce1	0.09386612
51	0x3dc2a350	0.09503806
52	0x3eaa9d5c	0.3332318
53	0x3e5ff5a6	0.21871051
54	0x3e4343b9	0.19068803
55	0x3e52896b	0.20560233
56	0x3e4d535b	0.20051329
57	0x3e99c739	0.30034807
58	0xbd42b1a6	-0.0475327
59	0x3e8796a8	0.2648213
60	0x3da59072	0.080841914
61	0x3e153d51	0.14574172
62	0xbd415a8a	-0.047205485
63	0x3e1f59ec	0.15561646
64	0x3dfef767	0.12449532
65	0x3dc36621	0.09540964
66	0x3e1e3adf	0.15452145
67	0x3e5cd546	0.21565732
68	0x3ded0785	0.115737
69	0x3da86762	0.08222844
70	0x3dd630ff	0.10458564
71	0x3e42e763	0.1903358
72	0x3c8ab20c	0.016930602
73	0x3da8745b	0.08225318
74	0x3e49e4c1	0.19716169
75	0x3e77d2fa	0.24201575
76	0x3e0a09f4	0.1348036
77	0x3ddab5df	0.106792204
78	0xbd17443a	-0.0369303
79	0x3e447587	0.19185458
80	0x3de5cd82	0.11220838
81	0x3e3ddf7a	0.18542281
82	0x3e48d13b	0.19611065
83	0xbd6cdf2a	-0.057830013
84	0x3e8ec9db	0.27888379
85	0x3e1cc37c	0.15308946
86	0x3e708e37	0.2349175
87	0x3e72fd23	0.23729376
88	0x3e1642df	0.14673947
89	0xbd74457d	-0.05963658

fc3.weight f4 [90, 90]
0	0xbd857e82	-0.0651827
1	0xbd03bf93	-0.03216512
2	0xbdc4a2f3	-0.096013926
3	0xbda80ed8	-0.08205956
4	0xbd390e93	-0.045179915
5	0x3c88ddce	0.016707327
6	0xbd3fb963	-0.046807658
7	0x3d13fbdd	0.036128867
8	0xbdac2f5b	-0.0840747
9	0xbd459b0d	-0.04824357
10	0xbddd71e2	-0.10812737
11	0x3c23edd4	0.010005433
12	0xbd41c84b	-0.047310155
13	0x3dca00f2	0.098634616
14	0x3d91b47c	0.07114503
15	0x3d8453c5	0.0646129
16	0x3d97415f	0.073855154
17	0xbcf987e0	-0.030460298
18	0xbd5ea6fb	-0.054358464
19	0xbdac1d2e	-0.08404003
20	0xbd2739b9	-0.040826533
21	0xbd2f6bcf	-0.042827424
22	0x3db7e361	0.08978916
23	0xbd66c6f7	-0.05634209
24	0xbd37b318	-0.04484853
25	0xbca5c111	-0.020233663
26	0xbdac8338	-0.084234655
27	0xbd4b4212	-0.049623556
28	0x3da478c1	0.080308445
29	0x3dbd9026	0.0925601
30	0x3d2d7e3e	0.042356722
31	0x3ccbdd37	0.024885757
32	0xbdbb8a5e	-0.09157251
33	0xbcc35b48	-0.023847237
34	0x3d169df3	0.036771726
35	0xbd9701a5	-0.073733605
36	0xbdc53052	-0.09628357
37	0x385439d4	5.0598595e-05
38	0xbd7c614d	-0.06161623
39	0x3daf7b46	0.085684344
40	0xbc9ace7a	-0.018897284
41	0x3d117df8	0.035520524
42	0xbb62ff26	-0.0034636944
43	0xbdbb321f	-0.09140419
44	0xbd12b355	-0.035815556
45	0x3d5019d8	0.050805897
46	0xbdd0a411	-0.10187543
47	0xbda84807	-0.08216863
48	0x3d8b8dc7	0.06814151
49	0xbc54eab1	-0.012995408
50	0x3c7c751c	0.01540878
51	0x3d7e8b6e	0.06214469
52	0xbd18823c	-0.037233576
53	0x3d838f93	0.06423869
54	0x3d67ee2a	0.056623615
55	0xbddb98f9	-0.107225366
56	0xbd548260	-0.051882148
57	0x3d3294c1	0.043598894
58	0x3db83cf3	0.08996
59	0xbda23a6b	-0.079212986
60	0x3ccfa2d4	0.025346197
61	0xbd93e639	-0.07221646
62	0x3d34a2b2	0.04410047
63	0xbd92c875	-0.071671404
64	0xbdd6a3f9	-0.10480494
65	0xbd41c47a	-0.047306515
66	0xbda5a479	-0.08088011
67	0xbd5481c1	-0.051881555
68	0x3c20300a	0.009777078
69	0xbc456c7e	-0.012049792
70	0xbddce858	-0.107865036
71	0xbb572e93	-0.0032834157
72	0x3d04256b	0.032262247
73	0x3c9964a8	0.018724754
74	0xbda8b757	-0.08238094
75	0xbcb0ebb0	-0.02159676
76	0x3da34e56	0.07973926
77	0x3d4376b1	0.047720615
78	0x3dceb437	0.10092967
79	0xbdb8a322	-0.0901549
80	0xbdc77be9	-0.09740431
81	0x3d8cbcd6	0.06871955
82	0x3d43f501	0.047841076
83	0x3cf012f4	0.029305913
84	0x3c0fb785	0.008771782
85	0xbd1d0fc8	-0.03834513
86	0x3d9123fa	0.0708694
87	0x3c4c3786	0.01246441
88	0x3c616981	0.013758064
89	0x3d90976b	0.07060131
90	0xbd3622d3	-0.044466805
91	0x3cfc127f	0.030770538
92	0xbdca156b	-0.098673664
93	0x3d1041c0	0.035218954
94	0xbd57f65f	-0.052725192
95	0x3dbb61cc	0.09149513
96	0x3db7671b	0.08955213
97	0x3d6ed3d7	0.058307495
98	0x3b6794ea	0.0035336562
99	0xbcd0b8aa	-0.02547868
100	0x3cd0295f	0.025410352
101	0x3d83cae0	0.0643518
102	0xbc6aa3be	-0.014321266
103	0xbd00e24d	-0.031465817
104	0xbdb4b97b	-0.0882444
105	0xbdc4a979	-0.09602637
106	0xbdcd8d80	-0.100367546
107	0x3d399c98	0.045315355
108	0xbdbf451c	-0.093393534
109	0x3d2df296	0.042467676
110	0x3b41c9b3	0.0029569685
111	0x3d5912d5	0.052996475
112	0x3d808cc9	0.06276853
113	0xbc97273c	-0.018451326
114	0xbd4bdddb	-0.049772125
115	0xbd2bd91f	-0.04195511
116	0x3bd540f1	0.0065079858
117	0xbd2d93d7	-0.04237732
118	0x3d515100	0.05110264
119	0xbcb08bce	-0.02155104
120	0x3d672d34	0.056439593
121	0xbdc2207e	-0.09478854
122	0xbd8be458	-0.068306625
123	0x3d7b4c67	0.06135216
124	0xbc2d7e5c	-0.010589208
125	0xbd6be61f	-0.057592507
126	0xbd77b870	-0.060478628
127	0xbc31c457	-0.010850034
128	0xbd1aeb48	-0.037822038
129	0xbc6926d2	-0.014230447
130	0xbd62915e	-0.055314414
131	0xbd872f67	-0.06600838
132	0xbbfc3a74	-0.007697398
133	0xbd45b2a0	-0.048266053
134	0x3d8693ff	0.06571197
135	0xbd611f9c	-0.054961786
136	0x3d3e1ffe	0.04641723
137	0x3d96d5dd	0.0736501
138	0x3bc9437b	0.0061420775
139	0xbca182cd	-0.019715691
140	0xbdc9e6dd	-0.09858487
141	0xbdc11807	-0.09428411
142	0xbc3eaf32	-0.0116384495
143	0xbd6db008	-0.058029205
144	0xbe00527e	-0.12531468
145	0xbca9c31b	-0.020722916
146	0xbd22240d	-0.039585162
147	0xbbd66e99	-0.006543946
148	0x3dbce383	0.09223082
149	0x3ccabb80	0.02474761
150	0xbdcc999a	-0.09990235
151	0x3cca739b	0.024713328
152	0x3dcc88f7	0.099870615
153	0xbc9c463c	-0.01907646
154	0xbd41b8d6	-0.047295414
155	0x3d5fd6dd	0.05464827
156	0x3d1ac7a3	0.037788045
157	0x3ca72c49	0.020406859
158	0x3d0ae6d2	0.033911534
159	0xbdb1ebca	-0.08687551
160	0x3d32be31	0.043638412
161	0x3da3dfd0	0.08001673
162	0xbdb38751	-0.08766044
163	0xbde00bba	-0.10939737
164	0x3d1e3f6b	0.0386347
165	0xbdbbe605	-0.09174732
166	0x3d11d398	0.035602182
167	0xbc4e0a39	-0.012575679
168	0xbd45bdb7	-0.04827663
169	0xbdd3dda4	-0.10345009
170	0x3d944873	0.07240381
171	0x3dbd0075	0.09228603
172	0xbd88546c	-0.06656727
173	0x3d6b570e	0.05745607
174	0xbdca7de4	-0.09887293
175	0x3cd7a2cf	0.02632275
176	0xbd838077	-0.06420987
177	0xbbdd042c	-0.006744882
178	0x3d53e4d3	0.051731896
179	0xbd8dfe2e	-0.069332466
180	0x3de9643b	0.113960706
181	0x3cd7a931	0.026325794
182	0x3e52a61f	0.20571183
183	0x3e6b7caa	0.22996774
184	0x3cee6079	0.029098736
185	0x3d3fd009	0.046829257
186	0x3e264b32	0.16239622
187	0x3da90e46	0.082546756
188	0x3e15b5eb	0.14620177
189	0x3d950bfe	0.07277678
190	0x3e411926	0.1885725
191	0x3d9e1365	0.07718543
192	0x3d3e5328	0.046466023
193	0x3e11df3e	0.14245316
194	0x3e5429bd	0.20719047
195	0x3c1ddc92	0.009635108
196	0x3e14793f	0.14499377
197	0xbebdd956	-0.37079877
198	0x3dc7ffa9	0.0976556
199	0x3d9ca466	0.07648544
200	0x3d846ede	0.06466459
201	0xbf050384	-0.5195849
202	0xbb2faaca	-0.002680468
203	0x3ec39c0e	0.38204998
204	0x3e29e83d	0.16592498
205	0x3e706ea0	0.234797
206	0x3e184e77	0.14873682
207	0x3e33572e	0.17513725
208	0x3de56740	0.11201334
209	0x3cae34f2	0.02126548
210	0x3d16c352	0.036807366
211	0x3e3419f7	0.1758803
212	0x3e4e55a9	0.20149864
213	0x3ebfe0e2	0.3747626
214	0x3e1e06eb	0.15432326
215	0x3ecd2119	0.40064314
216	0x3da88a6a	0.082295254
217	0x3cfd6025	0.030929634
218	0x3e08550a	0.1331369
219	0x3ded10fd	0.11575506
220	0x3d6d3f5b	0.05792175
221	0x3e0ca895	0.13736184
222	0x3ccaff08	0.024779812
223	0x3e4ee10f	0.2020304
224	0x3e3e3fb5	0.1857899
225	0x3d61210c	0.054963157
226	0x3e06a1fc	0.1314773
227	0x3e4a07f4	0.19729596
228	0x3e675900	0.22592545
229	0x3bd5062b	0.0065009794
230	0x3e425f72	0.18981722
231	0x3e0bcd3c	0.1365251
232	0x3eb9b631	0.36271814
233	0x3de6f02a	0.112762764
234	0x3cbf8cb0	0.023382515
235	0xbc43a5d5	-0.011941393
236	0x3da48346	0.08032851
237	0x3e43e9f8	0.19132221
238	0xbdbc403e	-0.09191941
239	0x3e15805b	0.14599745
240	0x3d2a9f03	0.04165555
241	0x3df5ba83	0.11998465
242	0xbd715496	-0.058918558
243	0x3e0a4416	0.13502535
244	0x3e0a6f1c	0.13518947
245	0x3c567f01	0.0130918035
246	0x3de6d308	0.1127072
247	0x3d171f47	0.036895063
248	0x3e1b24ba	0.15150729
249	0x3e3bb9fe	0.18332669
250	0x3e3ef23f	0.18647097
251	0x3e47be29	0.19506134
252	0xbd6787b6	-0.05652591
253	0x3d6d2d69	0.057904635
254	0x3e39e50f	0.18153785
255	0x3ddd9a56	0.10820453

fc3.bias f4 [90]
0	0x3dae85ff	0.085216515
1	0xbbc71eb6	-0.006076659
2	0x3dc32d22	0.09530093
3	0xbd0c57e7	-0.034263518
4	0x3e051136	0.12994847
5	0xbcf79e03	-0.030226713
6	0xbdb5fdc6	-0.08886294
7	0x3e255c33	0.16148452
8	0xbd4c0772	-0.049811788
9	0x3e0d9ec2	0.13830093
10	0xbdaf74fd	-0.085672356
11	0x3ca69ced	0.0203385
12	0x3d28acc6	0.041180395
13	0x3c2188e1	0.009859295
14	0xbc6d0f71	-0.014469014
15	0x3d137bac	0.036006615
16	0x3e03fac9	0.12888636
17	0x3d2aae6b	0.041670244
18	0x3cbe61e9	0.023240047
19	0x3e61e31c	0.22059292
20	0xbcc15efd	-0.023604864
21	0x3d7c6e1c	0.061628446
22	0x3dd5b0ff	0.1043415
23	0x3e24fa76	0.16111168
24	0x3c5845f5	0.013200273
25	0xbdd6bf48	-0.10485703
26	0x3e3b0fa4	0.18267685
27	0x3db3b370	0.08774459
28	0xbdb9fbfc	-0.09081265
29	0x3d723929	0.059136543
30	0x3d460341	0.048342947
31	0xbdcb0dab	-0.09914716
32	0x3e17bb95	0.1481765
33	0x3e116b2d	0.1420104
34	0x3c57f8b7	0.013181857
35	0xbcf082b4	-0.0293592
36	0x3de15e6c	0.11004338
37	0xbda522f8	-0.080633104
38	0xbd754332	-0.059878536
39	0x3e1c09a7	0.15238057
40	0x3e73894f	0.23782848
41	0x3d17233e	0.036898844
42	0x3e28f090	0.16498017
43	0x3e2a60d5	0.16638501
44	0x3df3cbc0	0.119040966
45	0x3ba3074e	0.004975236
46	0x3cd43ee1	0.02590889
47	0x3c938e31	0.018012138
48	0x3d36521d	0.044511903
49	0xbd371c90	-0.044704974
50	0x3e4a58b7	0.19760405
51	0x3e4ce0d0	0.20007634
52	0x3d160091	0.036621634
53	0x3dbf4f50	0.093412995
54	0x3b94ff34	0.004547024
55	0x3deae536	0.114695
56	0x3d846be1	0.06465889
57	0xbdb8be41	-0.09020663
58	0xbdcc6781	-0.09980679
59	0x3d36cc59	0.044628475
60	0xbe12717c	-0.14301103
61	0x3dce9da3	0.100886606
62	0x3e56cae9	0.20975842
63	0x3e5b2cd8	0.21403825
64	0x3e461da2	0.19347242
65	0xbd47af58	-0.048751205
66	0x3ce540fd	0.02798509
67	0x3e3bf803	0.18356328
68	0xbdc981fd	-0.098392464
69	0x3d9258a0	0.0714581
70	0xbd028b57	-0.031871166
71	0x3e14ac4b	0.1451885
72	0x3ddea774	0.10871783
73	0xbd7fe319	-0.062472437
74	0x3d9690bc	0.07351825
75	0x3d0a269c	0.033728227
76	0x3da88354	0.08228174
77	0x3df0d3cc	0.11759147
78	0x3d903e0e	0.07043086
79	0x3da14baf	0.078757636
80	0xbcca40fb	-0.024689188
81	0x3e0cd9b0	0.13754916
82	0xbde8f37f	-0.11374568
83	0xbd947e56	-0.07250659
84	0xbdd5ca7f	-0.10439014
85	0x3e4f5719	0.20248069
86	0x3b26fee1	0.002548151
87	0xbd353f64	-0.044249907
88	0x3c55db4a	0.013052771
89	0x3e699fd8	0.22814882

fc4.weight f4 [1, 90]
0	0x3ca3b9f5	0.019986132
1	0x3dc5ba00	0.09654617
2	0xbe49eb9b	-0.19718783
3	0x3d27eb2a	0.040995754
4	0xbe4f11ea	-0.20221677
5	0x3c6a3ff9	0.014297479
6	0x3f37dee9	0.7182451
7	0xbe3d5205	-0.18488319
8	0xbbcaeec9	-0.006193016
9	0xbe77f197	-0.24213253
10	0x3dc3b48f	0.09555923
11	0xbe61676d	-0.2201211
12	0xbe677ca3	-0.22606139
13	0x3f2623fb	0.6489865
14	0x3d9fec4c	0.07808742
15	0xbe536be2	-0.20646623
16	0xbe7d4ce4	-0.24736363
17	0x3d6c88b9	0.057747576
18	0xbe831295	-0.25600114
19	0xbe3a1283	-0.18171124
20	0x3c9f65ca	0.019457716
21	0x3d313fbc	0.043273672
22	0xbe76765d	-0.2406859
23	0xbe55cb56	-0.20878348
24	0x3daf3e05	0.08556751
25	0x3daaa6ef	0.08332621
26	0xbe54eaa1	-0.20792629
27	0x3c257566	0.010098791
28	0x3d8f34d1	0.06992496
29	0xbe3a0b99	-0.18168487
30	0x3bd64d59	0.0065399823
31	0x3f87c3d0	1.0606632
32	0xbe4ade71	-0.19811417
33	0xbe1dc135	-0.15405734
34	0xbe61793c	-0.22018903
35	0xbdd32d6e	-0.103113994
36	0xbe3b230b	-0.18275087
37	0x3d47560b	0.04866604
38	0x3cf592fe	0.029977318
39	0xbe7b3bdc	-0.24534553
40	0xbe336878	-0.1752032
41	0x3cdac96b	0.026707372
42	0xbe180a2b	-0.14847629
43	0xbe162430	-0.14662242
44	0xbe8422f1	-0.25807908
45	0x3f2ded8d	0.679406
46	0x3d43bc3a	0.04778693
47	0xbe3fe3f1	-0.18739296
48	0xbd4cc632	-0.0499937
49	0x3ce748cc	0.028232954
50	0xbe1e2bd9	-0.15446414
51	0xbe3b73f9	-0.18305959
52	0xbe5c61c0	-0.21521664
53	0xbe6728e5	-0.22574194
54	0x3d5dda91	0.05416352
55	0xbe41aa6d	-0.18912669
56	0x3dbda5fa	0.09260173
57	0x3ea9fc10	0.3320012
58	0x3f22e82a	0.63635504
59	0x3be7df4a	0.0070761787
60	0x3eb95f9a	0.3620575
61	0xbe47a116	-0.19495043
62	0xbe23c794	-0.15994102
63	0xbe232879	-0.15933408
64	0xbe60d486	-0.21956071
65	0x3f3cde6a	0.73776877
66	0xbe68ffcc	-0.22753829
67	0xbe14f229	-0.14545502
68	0x3d33855f	0.043828364
69	0x3dc42c6f	0.095787875
70	0x3e3233b9	0.17402543
71	0xbe709d3f	-0.23497485
72	0xbe65fd39	-0.22459878
73	0x3d96c538	0.07361835
74	0x3d7a121c	0.061052427
75	0x3dbdd2b9	0.09268708
76	0x3d7e952e	0.062153988
77	0x3f54295f	0.8287563
78	0xbe4a4506	-0.19752893
79	0x3dfeee28	0.124477684
80	0x3f32a100	0.69776917
81	0xbe76f801	-0.24118043
82	0x3b75b619	0.0037492572
83	0x3f2e0e7e	0.67990863
84	0x3cac35a9	0.02102168
85	0xbe714d05	-0.23564537
86	0x3e3d437c	0.18482774
87	0xbca0242d	-0.0195485
88	0x3c330ea8	0.010928787
89	0xbe22f653	-0.15914278
