IHAVECHOSENYOU.pt (torch, 10699 bytes, 7 tensors)

fc1.weight f4 [30, 3]
000000 95 eb 25 3d b5 b5 82 be f0 06 bc be 6e 65 a2 be
       0.04050787 -0.25529256 -0.36724043 -0.3171801
000010 e5 a8 7b bf 73 f7 4f 3e d2 8d e7 3e 61 aa 20 bf
       -0.9830459 0.20309238 0.45225388 -0.6275998
000020 d5 5c db 3e 91 89 f0 be ea 58 0b 3f 80 37 2e bf
       0.42844263 -0.46979955 0.5443255 -0.68053436
000030 18 37 41 be c9 d3 97 3f 5f 64 90 3d 77 c0 61 be
       -0.18868673 1.1861507 0.07050394 -0.22046076
000040 3b 74 2e bf b2 c1 1f 3d e7 d4 26 3f 8b ad 3e bf
       -0.68146104 0.03900308 0.65168613 -0.74483556
000050 c1 f0 a0 be 6f 11 fe 3e 62 8c 8e be 69 0c 68 be
       -0.3143368 0.49622676 -0.2784148 -0.22660984
000060 79 d6 85 be 9d 15 4d bf 9b 62 05 bf 00 3e 0a bf
       -0.26140192 -0.80111104 -0.52103585 -0.54000854
000070 7e 76 e0 3f 2e 4a d3 3e 09 9c 82 3f 1d 4d 73 bf
       1.7536161 0.41267532 1.0203868 -0.9503954
000080 10 45 f3 be 28 6a 15 be 1a 18 e9 be b0 fa 4f be
       -0.47513628 -0.14591277 -0.455262 -0.20310473
000090 a8 c2 d8 3e 49 49 95 be 7c 91 38 bf 1c 0e 2a 3d
       0.4233601 -0.29157475 -0.7209699 0.041517362
0000a0 a6 81 5b bd e9 0a bb bc e5 2c e0 bc dc c6 cb be
       -0.05359044 -0.02283235 -0.027365157 -0.39800155
0000b0 dd c5 f6 3d 84 68 3c 3f 07 f8 8b 3e fb 25 1d be
       0.12049458 0.7359698 0.27337667 -0.1534652
0000c0 4b fb e8 be 04 fc 62 bf 74 86 6d be 37 e3 75 3d
       -0.4550422 -0.88665795 -0.23195821 0.060031142
0000d0 1f 52 b2 be 38 a6 02 bf 53 f2 7c bf 9f e8 89 bf
       -0.34828278 -0.5103488 -0.9880726 -1.0774115
0000e0 61 1a 87 3d a6 c6 c4 be 3a 9c 96 bf d3 5e ed be
       0.06596828 -0.38432807 -1.1766427 -0.46361408
0000f0 ae 29 4b 3f fb ab 8f be d7 9d 93 3e d0 34 2e 3f
       0.79360473 -0.28060898 0.2883136 0.68049335
000100 fb 76 96 bf 8f 79 de be 5e b8 ca be da 37 99 bf
       -1.175506 -0.43452117 -0.39593786 -1.197017
000110 28 e2 59 bf b6 1f 3a 3e 47 66 45 3f eb c1 02 bf
       -0.8511071 0.1817616 0.7710919 -0.51077145
000120 1a 64 7e 3e 19 40 40 3f 87 9f ed be 6a 4e 24 be
       0.24842873 0.75097805 -0.46410772 -0.16045538
000130 55 19 cc 3f c3 d5 4d 3f 28 8c de be 2e f9 28 3e
       1.5945231 0.804043 -0.43466306 0.16501305
000140 a3 fc 21 bd 8e 28 38 3e 8b d0 6f 3d e1 ca 29 3b
       -0.039547574 0.1798422 0.05854849 0.0025908279
000150 91 33 2a bf 4f 60 81 bf 3b c4 08 3d f3 7f 7e 3f
       -0.66484934 -1.0107516 0.033390265 0.99413985
000160 d3 bc b4 3d 3e 44 ed 3e
       0.08825078 0.46341127

fc1.bias f4 [30]
000000 ea 2a d9 be 00 3b 35 bd 36 88 90 bf 9e 72 17 bf
       -0.42415553 -0.04424572 -1.1291568 -0.59159267
000010 49 73 a8 3f fc 43 24 bf a7 70 d7 be 65 f9 25 bf
       1.3160182 -0.64166236 -0.42078134 -0.6483367
000020 3c 5f 60 bf 54 b6 c8 3f 49 de 7c be bf b7 22 bf
       -0.87645316 1.5680642 -0.2469417 -0.63561624
000030 fe 85 ec 3e 4e a9 50 bf fc 1b 86 bf 2e 23 f2 3e
       0.46195978 -0.8150834 -1.047729 0.47292465
000040 1a 55 f9 be 97 48 65 3f a5 ce fa be fb ea 85 3e
       -0.4869774 0.8956389 -0.48985782 0.26155838
000050 49 0e 52 bd 9f ee 92 be bd e5 f7 bd 1b 3f 1e 3f
       -0.051283155 -0.28697678 -0.12104366 0.6181504
000060 80 45 5e bf b9 ce 5a 3f 98 8c 73 bf 1a dc 9e bf
       -0.868248 0.85471684 -0.95136404 -1.241092
000070 ed 55 df bd 20 7f 93 be
       -0.10905061 -0.28807926

fc2.weight f4 [30, 30]
000000 6d dd 1c bf e4 70 80 3d c4 46 08 3f c0 d8 0e bf
       -0.6127537 0.06271532 0.5323298 -0.55799484
000010 50 8f 97 3f 87 71 16 be 02 15 63 3f 00 67 15 bf
       1.184061 -0.14691745 0.8870393 -0.5836029
000020 a1 32 3a 3e d8 79 ad 3f 5d d3 a6 3e 7d 90 68 3d
       0.18183376 1.3552809 0.32583132 0.05677842
000030 bf e7 e5 3e 30 17 32 bf 4d 3f 80 bd e8 f2 2b 3f
       0.4490337 -0.6956663 -0.06262074 0.6716752
000040 11 99 09 bf ac b6 ff 3e 70 c6 12 bf d4 bc 12 bd
       -0.53749186 0.49944055 -0.5733404 -0.03582461
000050 42 1b 30 bf ae d8 0b bc bf 25 fb be e0 d4 59 3f
       -0.6879159 -0.008535547 -0.49052235 0.85090446
000060 b2 26 2a 3f cd f8 9b 3f 84 57 99 3f 39 74 90 3d
       0.66465294 1.2185303 1.1979833 0.07053418
000070 62 1e 3d 3e 2d 6b 19 3f 03 97 19 3e 9c b5 62 bf
       0.18468621 0.5992916 0.14999013 -0.88558364
000080 a7 12 f3 3d 97 36 88 bf 04 b1 2d bd 82 41 09 bf
       0.11868792 -1.064166 -0.042405143 -0.5361558
000090 81 d2 4c 3e 3b 0d 1a 3f ce 46 e8 3e a2 bb 04 be
       0.20002176 0.6017644 0.4536652 -0.12962201
0000a0 6d c2 72 3d bc 0c 2a bf 17 f3 b3 3e 7e 84 f7 be
       0.05926745 -0.6642568 0.351464 -0.4834327
0000b0 cf 4a 53 bf 44 b2 3f 3d da e5 87 bf 63 fe cd 3e
       -0.82536024 0.046800867 -1.061702 0.40233144
0000c0 ba 7a 5d bf 08 4b 1d 3e f7 9f 48 3f 7e 45 b9 3e
       -0.8651539 0.15360653 0.78369087 0.3618583
0000d0 d3 4e d0 be 15 14 e2 bd 0e 13 3c bf 98 de e6 3d
       -0.40685138 -0.110389866 -0.73466575 0.11272925
0000e0 73 73 06 bf 65 13 10 bf 7b cf 7f bf b4 8b 14 3f
       -0.5251991 -0.56279594 -0.99925965 0.5802567
0000f0 16 55 9b 3e 3f 4d 14 bf 1e 52 0c 3e b3 66 ed 3e
       0.30338353 -0.5793037 0.137032 0.46367416
000100 36 4a d2 bd 3d 4d 23 bf e8 0d 2d be 08 3d c8 3c
       -0.10268061 -0.6378973 -0.16899836 0.024443164
000110 80 37 fd 3b a0 95 22 3e 1b eb 38 3f 24 41 e0 be
       0.0077275634 0.1587739 0.7223374 -0.43799698
000120 cf 27 ef bd 55 44 39 bf 10 bf c4 be 60 00 fe bc
       -0.11677515 -0.7236989 -0.3842702 -0.031006038
000130 0a 52 45 bf 04 35 18 be f0 5e 3d bf 50 e8 ec bc
       -0.77078307 -0.14863974 -0.7397299 -0.028919369
000140 78 a5 dd 3d 6c b5 e3 3d c5 a6 21 bf 1e ea 3c bf
       0.10822576 0.11118588 -0.63145095 -0.73794734
000150 5d 77 20 bf dd 1e 97 bd de 74 0a bf 2a c5 b6 be
       -0.62682134 -0.073789336 -0.54084575 -0.356973
000160 17 1e 2a bf ec c2 8d bd 70 11 dd be 0e 97 25 bf
       -0.66452163 -0.06921944 -0.43177366 -0.64683616
000170 77 9d 20 bf 6d 11 31 3f 84 04 17 bf a6 17 48 bf
       -0.6274027 0.69167215 -0.58991265 -0.78161085
000180 9f 53 15 bf c1 22 21 bf 4a ee 33 bf fa ed ea be
       -0.5833072 -0.62943655 -0.70285475 -0.45884687
000190 bb e2 15 bf 80 88 3e bf 68 23 1e bf 1c 4c da be
       -0.5854909 -0.7442703 -0.61772776 -0.42636192
0001a0 cc 00 45 bf 9a 73 ec 3e 16 cc 04 bf 22 bb 09 bf
       -0.7695434 0.46181947 -0.5187391 -0.53801167
0001b0 b3 69 1b bf df 30 38 bf ae 0d da be da 2c d9 be
       -0.6070816 -0.7194957 -0.42588562 -0.42417032
0001c0 d1 3b 24 bf 2d b6 18 bf d6 9e 22 3f 18 b2 18 bf
       -0.6415377 -0.5965298 0.63523614 -0.5964675
0001d0 48 b3 1f be 70 42 2a bf 07 eb f9 be e3 ba 27 bf
       -0.15595734 -0.66507626 -0.48812124 -0.6551954
0001e0 1c 60 32 3d 30 3f 10 bf 93 0c ef bd 82 2c 2b be
       0.04354869 -0.56346416 -0.1167232 -0.16716197
0001f0 66 03 e6 be 00 f2 bd b9 a0 66 0d bf 8b 6e dc bd
       -0.44924468 -0.00036229193 -0.5523472 -0.10763272
000200 10 6a 16 bc 02 86 c9 be 51 06 2b bf 47 76 ea be
       -0.009180561 -0.39360052 -0.66806513 -0.45793363
000210 c0 e1 3b 3b e8 ac 21 bd 20 fb 00 3e 71 65 ec bd
       0.0028668493 -0.039471537 0.12595797 -0.11542786
000220 1b 44 2b be 48 37 af bd 72 73 fe bd 34 bc 04 bd
       -0.16725199 -0.08555466 -0.12424363 -0.032406047
000230 84 a3 43 bd bc 70 2a bf b4 0c 03 bf fa 3b 19 bf
       -0.047763363 -0.6657827 -0.5119126 -0.5985714
000240 fa 89 7c bd b7 89 01 bf cc 86 2e be 5a 88 19 be
       -0.061655022 -0.5060076 -0.17043608 -0.1499342
000250 02 21 13 bf c0 c0 92 3d 77 13 ec be 6f f0 00 bf
       -0.5747224 0.071656704 -0.461086 -0.5036687
000260 5a df 0a 3f ed 62 03 bf ff 4d 10 bf de 21 eb be
       0.5424706 -0.51322824 -0.5636901 -0.45924276
000270 44 03 1f bf 8f bb fc be ce 39 ec be 9b bb 31 bf
       -0.6211436 -0.49361846 -0.4613785 -0.6942689
000280 95 6c 1b bf d7 99 3a bf 39 0f 03 bf 45 78 29 bf
       -0.6071256 -0.7289099 -0.511951 -0.6619914
000290 d0 23 3c bf 0c b3 21 3f bb c7 1b bf 1b 84 39 bf
       -0.73492146 0.6316383 -0.6085164 -0.724672
0002a0 87 1a 3e bf a1 92 0c 3f 62 24 2f bf 23 92 38 bf
       -0.7425923 0.5491124 -0.6841489 -0.72097987
0002b0 82 1a ed be 82 84 17 bf d5 37 0f 3f 70 58 37 3f
       -0.46309286 -0.59186566 0.5594457 0.7161932
0002c0 c7 7a 28 bf f9 79 df be 69 2b ec be da ef 1e 3f
       -0.65812343 -0.43647745 -0.4612687 0.62084734
0002d0 cb 7c 84 3d 60 48 84 bf bc cb 77 3e 8a aa 8a bf
       0.06469115 -1.0334587 0.24198812 -1.0833294
0002e0 43 82 f9 be aa ca 50 bf ba ca 2e bf 83 5f c2 be
       -0.48732194 -0.8155924 -0.68278086 -0.37963495
0002f0 ed 7a 6e 3f 14 f2 11 bf 4a e8 29 bf b3 d4 0c bf
       0.9315632 -0.57010007 -0.6637007 -0.55012053
000300 53 89 b6 bd 96 a7 19 3e 36 42 16 be f6 25 f8 bd
       -0.08912911 0.15005335 -0.14673695 -0.121166155
000310 1c 21 63 bf 08 05 6e 3d 8c a9 72 bf 75 56 ce be
       -0.88722396 0.058110267 -0.9478996 -0.40300336
000320 7c 21 80 3f b1 36 21 bf be 28 8e bf 93 0b 31 bf
       1.0010219 -0.6297408 -1.1106184 -0.69158286
000330 f2 94 89 3d 93 24 9b bd d4 27 f9 be 77 87 e5 be
       0.06717862 -0.07575335 -0.486632 -0.44829914
000340 d4 29 84 bf 35 68 ef 3e 9b 77 3e 3e 01 e0 78 bf
       -1.0325265 0.4675919 0.18600313 -0.972168
000350 86 f9 16 bf 58 11 4e bf c0 00 3b be 17 09 7d bf
       -0.5897449 -0.80495214 -0.18262005 -0.98841995
000360 05 02 00 bc 33 77 2d 3f 9d 0f 40 3f bb 28 b1 bc
       -0.0078129815 0.6776001 0.75023824 -0.021625867
000370 62 4a 2f 3f 35 55 53 bf 00 48 6d 3f 81 ad 0f bf
       0.68472874 -0.8255189 0.9268799 -0.5612412
000380 bb 7c 87 bf 58 24 26 bd f5 d7 85 3e 30 45 2b 3f
       -1.058494 -0.040562004 0.26141325 0.66902447
000390 be eb 28 3e 6a 0c 56 3f 45 56 19 3f 6a 3b 6f 3f
       0.16496179 0.8361269 0.5989726 0.93450034
0003a0 1f 99 6c 3f 65 70 78 3f 54 72 fb 3d 99 e6 b0 be
       0.92421144 0.970465 0.12277666 -0.34550932
0003b0 66 27 e9 be b0 f2 47 bf b4 8f f9 bd 16 68 0a 3f
       -0.4553787 -0.78104687 -0.12185612 0.5406507
0003c0 61 a7 54 bf e4 8e 0f 3e 29 2a 12 be ab d9 3d 3f
       -0.830679 0.14019352 -0.14273895 0.7416026
0003d0 d9 22 23 bf ec 9e 6f bf 71 18 0c 3e 6b 13 8e 3e
       -0.6372505 -0.9360187 0.13681199 0.2774919
0003e0 64 5a 9c 3e 36 30 33 3d 40 5c 83 3f 55 7d 34 bf
       0.30537713 0.04374715 1.0262527 -0.7050374
0003f0 76 c4 72 3f 8b e4 20 3f 49 41 09 bf a9 ea 7e 3e
       0.94831026 0.6284873 -0.5361524 0.24894203

fc2.bias f4 [30]
000000 f5 21 6c 3f e1 1f ad be 1c 8f 0b bf a1 35 3c bf
       0.92239314 -0.33813384 -0.5451524 -0.7351933
000010 4a 97 1a bf a8 5a ff be 7d 94 3d bf 1c b3 98 be
       -0.603871 -0.49873853 -0.740547 -0.2982415
000020 99 e9 7a bf 08 d5 2f 3d 71 9e 1d bf c9 d6 42 bf
       -0.9801269 0.04292777 -0.6156989 -0.76108986
000030 d5 36 21 bf c7 c0 b6 3f 87 03 48 bf c7 26 13 bf
       -0.6297429 1.4277581 -0.7813038 -0.57481045
000040 a2 29 6e 3f db f5 27 3f 8d a2 00 bf b8 c4 5c bf
       0.93032277 0.6560952 -0.5024803 -0.8623767
000050 93 0b 13 bf 55 f4 10 bf e8 cf 31 bf 24 01 04 bf
       -0.57439536 -0.5662282 -0.69457865 -0.5156424
000060 da 78 1a bf d1 4d a0 3f fc c1 25 bf c0 7c fa 3b
       -0.60340655 1.2523748 -0.6474912 0.007644266
000070 28 44 50 bf 6e 8e 0d bf
       -0.81354 -0.55295455

fc3.weight f4 [30, 30]
000000 22 b6 14 3e 61 b6 3a bf 32 9d b4 bd d9 7b 08 bf
       0.14522603 -0.7293454 -0.08819045 -0.53313977
000010 2c f2 8e 3d 28 b9 36 be 73 1f fb be f6 ac 36 bf
       0.06979784 -0.17844069 -0.4904743 -0.7135767
000020 ad fd 36 bf 14 d7 5a 3d 50 46 c9 3d a9 b0 04 bf
       -0.7148083 0.05342777 0.09827864 -0.5183206
000030 d0 32 42 bf f9 d8 04 bf 42 12 ff be 5f 42 1a bf
       -0.75858784 -0.51893574 -0.49818617 -0.60257524
000040 ed 60 27 bf 02 5f ec be a6 c6 1d bf d7 24 30 bf
       -0.6538227 -0.46166235 -0.6163124 -0.68806213
000050 02 73 36 3f 79 8a 27 bf 8f 63 0b bf 2d 09 06 bf
       0.7126924 -0.6544567 -0.5444879 -0.5235775
000060 2b 92 db 3e 1e 87 f0 bd 0b a3 32 bf 40 b3 69 bc
       0.42884955 -0.117445216 -0.69780034 -0.014263928
000070 1a 3d 20 bf ad 7a db be 07 b2 ec be 3a 60 13 bf
       -0.62593234 -0.42867032 -0.46229574 -0.57568705
000080 d1 41 b0 bd e2 76 80 3d b0 25 20 3c f2 69 c7 bd
       -0.086063035 0.06272675 0.00977461 -0.09737004
000090 73 d0 18 be 10 4d 65 3d 71 a2 81 bd 16 b9 36 be
       -0.14923267 0.055981696 -0.06329811 -0.17844042
0000a0 88 87 32 3e 1e c9 71 bd cb 41 1b bf d1 9f cb be
       0.17434514 -0.05902969 -0.6064727 -0.39770368
0000b0 c6 89 08 3e 58 e3 86 bc a5 c1 18 bf dc 35 cd be
       0.13333806 -0.016465828 -0.5967048 -0.40080154
0000c0 d0 d8 3d bc c3 5a 34 bf 98 c6 f4 be 20 87 22 bc
       -0.011587337 -0.7045099 -0.47807765 -0.009919912
0000d0 f8 0a 8f 3d 51 75 1a be 93 64 2f bf f8 ea d8 be
       0.06984514 -0.15083815 -0.6851284 -0.42366767
0000e0 f2 0b 0a bf 7a 85 07 3e 5c 85 21 bf 2c c3 28 be
       -0.5392448 0.13234511 -0.63094115 -0.16480702
0000f0 a3 13 12 bf c6 b3 28 3f 02 7d 29 3f 19 10 07 3f
       -0.57061213 0.6589931 0.6620637 0.5275894
000100 27 20 07 bf bb ac 23 3f 75 74 28 3f ee 25 8e 3f
       -0.52783436 0.6393544 0.658027 1.1105325
000110 3b b3 67 3f 86 49 0a 3e ec 27 07 3f 15 ac 3b 3f
       0.9050786 0.1350461 0.5279529 0.7330945
000120 28 83 a9 be d1 a5 3b bf b3 d9 2b 3f ea 3b 24 3f
       -0.33107877 -0.7329989 0.6712906 0.6415392
000130 86 c6 7a 3e b9 a8 27 be 92 ef f4 3e df 09 93 be
       0.24489793 -0.16372956 0.47839028 -0.2871847
000140 08 96 ec bd 5d 19 aa be 81 73 07 3f da d0 15 3f
       -0.11552054 -0.33222476 0.5291062 0.5852181
000150 ec be 0a bd 5e 1a 75 bf d4 67 11 bb 80 7c 06 3e
       -0.033873484 -0.9574336 -0.002218713 0.1313343
000160 f2 10 66 be b8 01 17 3f a5 38 a2 bf 4d 12 ab 3e
       -0.22467402 0.58987 -1.2673537 0.334124
000170 0e c0 2b 3f 8d 72 19 3f b3 a7 c0 be 9c cf fa 3e
       0.6708993 0.59940416 -0.37627944 0.48986518
000180 70 6b 29 3f c9 e6 71 3f 4a 2c 46 3f 38 ae 76 bd
       0.6617956 0.94492775 0.7741133 -0.06022474
000190 63 8a 17 3f d5 37 01 3f 11 50 13 be 68 b9 87 bf
       0.59195536 0.5047582 -0.14386012 -1.0603456
0001a0 50 a0 45 3f a3 72 1f 3f 34 ec 86 3e 6f 18 04 be
       0.7719774 0.62284297 0.26352084 -0.12899946
0001b0 d4 88 05 3f a1 b1 9b be f5 e3 93 be f6 8c 19 be
       0.5216191 -0.30408958 -0.28884855 -0.14995179
0001c0 c0 09 1b 3f e2 99 21 3f 3b 23 5d bd 6f aa 5d bf
       0.6056175 0.6312543 -0.053988677 -0.86588186
0001d0 3d 77 0f be 46 1d 1a 3e 54 ee bf bd 2a 38 0f 3f
       -0.1401033 0.1505023 -0.09371629 0.55945075
0001e0 55 71 16 bf 4c 8a 1f bf e0 bd 52 bc a7 58 07 bf
       -0.5876668 -0.623204 -0.012862653 -0.5286965
0001f0 a8 33 56 3d b5 a4 2f bf 10 21 30 bf 83 0e 30 bf
       0.052295357 -0.686107 -0.6880045 -0.68772143
000200 7c c1 19 bf ed 7a f2 bd 3b e5 27 bf 7e e1 0e bf
       -0.6006086 -0.118398525 -0.6558415 -0.55812824
000210 d1 85 ec be d1 81 42 bf ad 37 42 bf 5c 70 eb be
       -0.46195844 -0.75979334 -0.75866205 -0.4598416
000220 ec 1b 42 bf 5f 83 35 bf d4 f9 e0 be 82 c1 36 bf
       -0.75823855 -0.7090358 -0.43940604 -0.7138902
000230 b2 3d 1b bf 1f 69 e7 be 2c c1 18 bf 21 cb 16 bf
       -0.60641015 -0.4519739 -0.59669757 -0.589037
000240 c0 55 12 bf db dd 26 be b3 0b 1b bf 24 6b 34 3d
       -0.57162094 -0.16295569 -0.60564727 0.04404749
000250 3c 75 db be a4 96 e2 be 85 45 14 be 10 03 37 bc
       -0.4286288 -0.44255555 -0.14479645 -0.011170164
000260 91 ba 0a bf a8 2d 2b 3d 5c 6e 1a 3d 80 6a 97 bb
       -0.5419093 0.041791588 0.037702903 -0.00462085
000270 cb 2d d4 bd b8 9f 91 3d cc d2 c6 bd c8 c5 8a bc
       -0.10360297 0.07110542 -0.09708175 -0.016940013
000280 a9 9d bd bd 48 e9 78 3d 9f c9 0f bf 26 d6 22 be
       -0.09258587 0.06076935 -0.56167024 -0.15902004
000290 74 01 71 bd a8 28 cc bc dc 7d 6b 3d 87 35 26 bf
       -0.058839276 -0.02492173 0.057493076 -0.64925426
0002a0 ac 8c c3 3d 43 15 f0 be d2 72 0e bf 8a 36 02 3f
       0.095483154 -0.4689122 -0.5564395 0.5086447
0002b0 21 56 1e be 88 c8 e9 3d 78 d5 21 bf 1c bf 1d be
       -0.15462543 0.114152014 -0.6321635 -0.15404934
0002c0 18 56 0f bf 28 91 ac 3c bb 7a bf be 52 93 1a 3e
       -0.55990744 0.02106531 -0.37398323 0.1509526
0002d0 11 47 2f bf e6 60 40 bf e0 9a 1e 3f 21 dd 46 bf
       -0.68467814 -0.75147855 0.6195507 -0.77681166
0002e0 e0 cf 62 3c 84 09 28 3f 08 94 2a bf 92 56 d2 be
       0.013843507 0.6563952 -0.6663213 -0.41081673
0002f0 7a d1 ee be 3d 67 b5 bd 9a 02 1c 3f 7f 43 44 bf
       -0.46644193 -0.08857582 0.6094147 -0.7666549
000300 6c 3b c4 be d0 8c 8f bf 54 b6 00 3f fa 06 e9 3e
       -0.38326585 -1.1214848 0.5027821 0.45513135
000310 92 26 35 bf 1b a1 0e bf 34 8b 39 bf 4f 15 49 be
       -0.7076198 -0.5571458 -0.7247803 -0.19637035
000320 01 c4 2b be 83 7c b8 be f0 66 16 3f 03 5a 10 bf
       -0.16773988 -0.36032495 0.5875082 -0.56387347
000330 b2 de 0b bd fe e1 47 bf b3 a3 07 be 48 55 ac 3d
       -0.034147926 -0.7807921 -0.1324604 0.084147036
000340 78 45 4b bd 0c 70 3d 3f c4 c6 39 bf 77 fb 09 3f
       -0.049626797 0.73999095 -0.7256892 0.5389933
000350 70 20 06 3f 24 b6 05 3f cf 20 34 bf 67 5b 02 3f
       0.52393246 0.5223105 -0.7036256 0.5092072
000360 fb fd b9 3e fa df 87 3f 94 7f 4a 3f 40 2c 65 3d
       0.36326584 1.0615227 0.7910092 0.055950403
000370 4b 20 2b 3f 7e ee cd 3e ce 36 b1 be 55 de 58 bf
       0.6684615 0.40221018 -0.34612125 -0.8471425
000380 08 e5 4f 3f 15 42 3a 3f bf b0 6e 3d 11 76 65 be
       0.8120885 0.72757083 0.058274027 -0.2240832
000390 e1 6b 1a 3f 43 be 41 bb d2 a3 51 be 83 55 04 be
       0.6032086 -0.0029562868 -0.20472649 -0.12923245
0003a0 57 0d 3a 3f d1 15 42 3f d6 77 a4 be fa 89 78 bf
       0.72676605 0.7581454 -0.32122678 -0.97085536
0003b0 35 49 14 be 88 4a 68 bd 6f e5 e1 bd b0 20 fd 3e
       -0.14481051 -0.056711704 -0.11030089 0.49439
0003c0 34 2d 8d 3d 5b 2f 49 bf 39 14 0c be c3 1f 3f bf
       0.068933874 -0.78587884 -0.1367959 -0.7465784
0003d0 a4 2c 29 bf 83 8a f9 be 86 f6 19 bf a0 65 e4 be
       -0.6608374 -0.4873849 -0.6014179 -0.44608784
0003e0 2c 99 32 bf b4 5b 6f 3d 39 ba f9 3e a9 ca 24 bf
       -0.6976497 0.058437064 0.4877489 -0.64371735
0003f0 76 86 e6 be 57 f0 50 bf b7 16 48 bf 9a ee 19 bf
       -0.4502446 -0.8161673 -0.7815966 -0.601297

fc3.bias f4 [30]
000000 c9 5a 3a bf 8a 6b 11 bf e3 fe 54 bf e8 13 2e bf
       -0.7279478 -0.56804717 -0.83201426 -0.67999125
000010 be 00 22 bf ca 48 28 bf 76 50 be be 08 92 50 bf
       -0.6328238 -0.6573607 -0.37170762 -0.81472826
000020 b7 31 c0 be 81 1e d7 be 62 4e f6 be 6f 02 7c bf
       -0.3753793 -0.4201546 -0.48106676 -0.98441213
000030 80 f5 5b bf ff 56 d9 be 42 42 6e 3f 18 36 3c bf
       -0.8592148 -0.42449185 0.9306985 -0.7352004
000040 17 82 5f bf c3 49 47 bf 40 36 c1 3f f9 61 37 bf
       -0.87307876 -0.77846926 1.5094681 -0.7163387
000050 14 b0 1d bf fa 78 37 bf 0c 78 b2 be 3c b3 34 bf
       -0.615968 -0.7166897 -0.34857213 -0.7058599
000060 b2 92 30 bf 13 16 af 3f f6 3e 44 bf fd 5c f5 be
       -0.6897384 1.3678612 -0.7665857 -0.47922507
000070 55 91 2b bf 28 c1 54 bf
       -0.67018634 -0.83107233

fc4.weight f4 [1, 30]
000000 8c 86 f1 3e 45 54 04 bf dc ee 1b be 57 db 15 be
       0.47172964 -0.51691085 -0.15227836 -0.14634453
000010 24 0c d6 3e de 1a d4 3e 2c b9 81 bd 20 cf 12 be
       0.41806138 0.41426748 -0.06334147 -0.14336824
000020 53 b5 31 bc 9c c0 8c be e1 12 de 3e b8 78 b5 3e
       -0.010846454 -0.274907 0.43373778 0.35443664
000030 f9 ca 26 3f df 4f 0c 3f 96 34 19 be da 89 10 3f
       0.6515346 0.54809374 -0.14961466 0.56460345
000040 80 be 49 bd 41 38 16 be 64 92 9c bf ed 82 10 3f
       -0.04925394 -0.14669897 -1.2232175 0.56449777
000050 d5 0b 27 bd 3b c1 e4 3e 62 a7 09 3f b5 4a 11 bf
       -0.04078277 0.44678673 0.5377103 -0.5675462
000060 bc 00 e9 3e 57 a2 7f bf aa ff d8 3e d9 4d 1e bf
       0.45508373 -0.99857086 0.42382556 -0.61837536
000070 82 99 04 3f 7d b3 77 be
       0.51796734 -0.24189563
