Messed.pt (torch, 10699 bytes, 7 tensors)

fc1.weight f4 [30, 3]
0.28222963 -0.7810325 0.4011201 -0.20196655 -0.48207214 -0.23768997 -0.006087828 0.14022481
0.57083994 -0.26855558 -0.91558206 -0.15267245 0.23313767 -0.16897976 -0.38775885 1.479121
-0.3403321 0.6733805 -0.030685237 1.4834173 0.5425389 0.6376416 -0.5639514 0.24290092
-1.3778826 1.6403679 0.5244551 -0.11570157 -0.76210845 -1.1769286 0.93483657 -0.7704259
0.66143954 -0.73411477 1.2351269 0.5786073 -0.6910069 -0.24423756 -0.8091277 -0.47404563
-0.80090874 -0.41901204 0.70455396 -1.2004266 0.6313472 0.34223077 -0.59078795 0.9044493
-0.92434007 -1.0915064 -1.4359404 -0.13575296 -0.8785672 0.095362924 0.6037174 -1.1564606
0.41704953 0.95555985 -1.0211699 0.6096183 -0.8074184 -0.07788272 -0.7331934 -0.37675872
-0.6800098 -1.1089557 -0.43746272 1.0130053 -0.56519747 0.50287396 -1.1325 1.1192333
-0.41872397 -0.36069536 -0.2504815 -0.4708197 -0.4725801 -0.06978276 -0.5700551 -0.751325
-0.3499069 0.8946934 -0.4914605 0.5837612 0.111174285 0.06437235 -0.25633863 -0.21421677
-0.8326262 -1.0702758
00000000: 6780 903e bff1 47bf 9d5f cd3e 52d0 4ebe
00000010: 29d2 f6be 0065 73be 677c c7bb 1897 0f3e
00000020: 9122 123f 1e80 89be 9663 6abf 2b56 1cbe
00000030: a4bb 6e3e 0809 2dbe 5488 c6be d653 bd3f
00000040: 0240 aebe aa62 2c3f 9b5f fbbc 9ee0 bd3f
00000050: d4e3 0a3f 7b3c 233f 1e5f 10bf 05bb 783e
00000060: 755e b0bf 93f7 d13f b042 063f f2f4 ecbd
00000070: 8a19 43bf 99a5 96bf 7351 6f3f a23a 45bf
00000080: 1a54 293f f2ee 3bbf a318 9e3f 9c1f 143f
00000090: d4e5 30bf 6919 7abe fe22 4fbf 1cb6 f2be
000000a0: 5b08 4dbf bf88 d6be a65d 343f 94a7 99bf
000000b0: f89f 213f df38 af3e e13d 17bf fd89 673f
000000c0: 8da1 6cbf 7bb6 8bbf e5cc b7bf d302 0bbe
000000d0: c8e9 60bf a34d c33d 398d 1a3f e706 94bf
000000e0: 8487 d53e 929f 743f b2b5 82bf f20f 1c3f
000000f0: f9b2 4ebf fa80 9fbd 90b2 3bbf 85e6 c0be
00000100: 1f15 2ebf 43f2 8dbf 1dfb dfbe 28aa 813f
00000110: c8b0 10bf 59bc 003f c3f5 90bf 0943 8f3f
00000120: fd62 d6be 10ad b8be 1c3f 80be 480f f1be
00000130: 05f6 f1be 44ea 8ebd 22ef 11bf d656 40bf
00000140: ff26 b3be a00a 653f b6a0 fbbe 6071 153f
00000150: 58af e33d a7d5 833d d13e 83be a45b 5bbe
00000160: fe26 55bf ccfe 88bf

fc1.bias f4 [30]
-0.6611378 -1.1165525 1.1202824 -0.93058825 -1.3010712 0.4674605 1.22675 -0.05910315
1.267984 0.060617313 -0.32380202 1.0688231 -0.06335431 -0.8722403 -0.11928327 -0.18668973
0.3137754 -0.5539483 0.5546341 0.058951117 -0.18168727 0.506932 1.0401849 -0.10611447
-1.3716036 -0.9201154 -0.70446086 0.08837466 -1.173794 1.3814659
00000000: 5440 29bf 31eb 8ebf 6a65 8f3f 083b 6ebf
00000010: 8089 a6bf fc56 ef3e 2506 9d3f 2516 72bd
00000020: 4d4d a23f dc49 783d 61c9 a5be 32cf 883f
00000030: e8bf 81bd 244b 5fbf c94a f4bd 982b 3fbe
00000040: 2ba7 a03e 8ecf 0dbf 80fc 0d3f ba76 713d
00000050: 3a0c 3abe 4cc6 013f c724 853f 8b52 d9bd
00000060: b590 afbf af8c 6bbf 8c57 34bf c6fd b43d
00000070: e23e 96bf e0d3 b03f

fc2.weight f4 [30, 30]
-0.42027038 -0.44331306 -0.47893712 -0.69175285 -0.6039346 -0.52305293 0.60229766 -0.7693935
0.527817 -0.7300548 -0.503551 -0.6286111 -0.7447797 -0.58155924 -0.6540604 -0.44390705
0.05542791 -0.6954834 -0.69764525 -0.45810962 -0.66320646 -0.44149923 0.46095732 -0.48001772
-0.6613648 -0.6152787 -0.47592235 -0.59689885 -0.64005613 -0.6934963 -0.71322006 -0.47049716
0.41324094 -0.69317603 -0.47317117 -0.40924492 0.8908614 -0.43797213 1.331108 0.71239346
-0.47055188 0.8860158 0.5194703 -0.49505633 -0.61033 -0.66821635 0.8545721 -0.6555312
0.9812318 -0.75976604 0.70257723 1.1509753 1.3360593 -0.6521355 -0.46117136 -0.71008635
-0.4580769 0.5467119 -0.5253477 0.7563948 -0.69034123 -0.6601005 -0.62411153 -0.6678681
-0.5156582 -0.5649235 -0.2641648 -0.64595056 -0.30940238 -0.72352463 -0.5553138 -0.75905746
-0.57293034 -0.4351343 -0.6382884 -0.7166573 -0.37513098 -0.5048417 -0.36125606 -0.5967954
-0.38835773 -0.60554785 -0.49367893 -0.46929094 -0.49388736 -0.7682212 -0.526515 -0.6017903
-0.67965156 -0.59184206 -0.18411602 -0.3976561 -0.9427624 -0.53836167 0.52409774 -0.40633604
-1.2620273 -0.25248972 -0.8968577 -0.928283 -0.37346137 -0.81603724 0.1760796 -0.22906715
-0.52337927 -0.8190228 -0.6138889 -0.41447306 -0.47400072 -0.3506817 0.16050187 -0.7873209
-0.78330475 -0.33532876 -0.24638543 -0.093778506 -0.28183258 -0.875218 -0.34079862 1.0686123
-0.65519077 -0.5113793 0.74372 -0.39812672 0.88424647 0.20276396 0.85827464 -0.06914377
1.1465015 0.55134493 -0.38501287 0.9775871 0.9751989 -0.43510178 -0.16092013 -0.31400552
0.6118946 -0.51823074 0.21217409 -0.1546421 0.62446827 0.49655214 0.8078952 -0.47014177
-0.5746554 -0.62134826 -0.70079964 -0.6295407 -0.30250147 0.48083007 -0.6342218 -0.6337681
-0.5746548 -0.45660177 -0.70044285 -0.6452742 -0.47142053 -0.59351593 -0.5968098 -0.7434403
-0.7696649 -0.461664 -0.54138815 0.7738665 0.42234522 -0.612343 -0.45108318 0.5343557
-0.43731177 -0.6788864 -0.5454921 -0.540013 -0.5433164 -0.6624403 -0.61505014 0.4983183
-0.443306 -0.6527043 0.7325103 -0.5941341 -0.09113387 -0.26546863 -0.9729178 -0.10703109
0.55663145 -0.59130704 -1.0969218 -0.1539642 -0.8835183 -0.50149703 -0.44074988 -0.90515465
0.10432894 -0.09407624 -0.4612407 -0.3762772 0.677723 -0.3402048 -0.54654557 -0.27812383
-0.13999116 -0.5037818 -1.1533657 -0.15922049 -0.3262373 -0.12225578 -0.27450925 -0.78956395
-0.12309866 0.17102763 -0.69960344 0.015363399 0.60923624 -0.68279 0.7839856 0.63100827
1.2509534 0.503537 1.1970804 0.7647281 0.5342622 0.9967472 1.1720759 -0.87775016
-0.32378796 0.20593402 1.1665121 -0.49445722 0.21193524 0.3925363 1.0396571 1.0481043
1.2542118 -0.43895146 -0.08654715 -0.8477303 -0.34038815 0.6502466 -0.66009253 0.7776592
0.50151885 0.099441454 -1.0949503 0.15011491 0.40840518 -0.2601893 -1.1830189 -0.6618865
-1.0159788 -0.4181957 -0.17915496 -1.1794552 -0.124547735 0.34210405 -0.18166427 -0.034565456
00000000: ae2d d7be eef9 e2be 3f37 f5be b716 31bf
00000010: 759b 1abf cce6 05bf 2e30 1a3f f9f6 44bf
00000020: 041f 073f dfe4 3abf b8e8 00bf a8ec 20bf
00000030: e2a9 3ebf 11e1 14bf 8170 27bf c947 e3be
00000040: 6008 633d 330b 32bf e198 32bf 588d eabe
00000050: e6c7 29bf 300c e2be 9902 ec3e e2c4 f5be
00000060: 344f 29bf e882 1dbf 18ac f3be 5dce 18bf
00000070: b8da 23bf f988 31bf 9795 36bf 01e5 f0be
00000080: 5194 d33e fc73 31bf 7e43 f2be 8d88 d1be
00000090: 7e0f 643f e23d e0be bf61 aa3f 6b5f 363f
000000a0: 2dec f0be eed1 623f 01fc 043f 0678 fdbe
000000b0: 963e 1cbf 3a10 2bbf 3dc5 5a3f e5d0 27bf
000000c0: 0232 7b3f 0780 42bf 1adc 333f 2953 933f
000000d0: fe03 ab3f 5af2 26bf a71e ecbe 38c8 35bf
000000e0: 0e89 eabe 50f5 0b3f 307d 06bf 17a3 413f
000000f0: 34ba 30bf 59fc 28bf c6c5 1fbf 67f9 2abf
00000100: 2d02 04bf d49e 10bf 9c40 87be 045d 25bf
00000110: fd69 9ebe e938 39bf 0c29 0ebf 9751 42bf
00000120: 90ab 12bf ecc9 debe de66 23bf da76 37bf
00000130: 2b11 c0be 4e3d 01bf 8ef6 b8be 95c7 18bf
00000140: d3d6 c6be 2f05 1bbf 7cc3 fcbe e746 f0be
00000150: cede fcbe 25aa 44bf b0c9 06bf ee0e 1abf
00000160: a5fd 2dbf f682 17bf e988 3cbe 9599 cbbe
00000170: e058 71bf 12d2 09bf 452b 063f 470b d0be
00000180: 1c8a a1bf 5546 81be 7798 65bf f4a3 6dbf
00000190: 5436 bfbe d1e7 50bf 364e 343e 9490 6abe
000001a0: 2ffc 05bf 7aab 51bf d327 1dbf d035 d4be
000001b0: 39b0 f2be 8d8c b3be 9a5a 243e dd8d 49bf
000001c0: a986 48bf 36b0 abbe 764c 7cbe f20e c0bd
000001d0: 5c4c 90be 490e 60bf 287d aebe 4ac8 883f
000001e0: 95ba 27bf c1e9 02bf 6f64 3e3f 44d7 cbbe
000001f0: fa5d 623f 5ba1 4f3e e3b7 5b3f 409b 8dbd
00000200: 90c0 923f f124 0d3f 6820 c5be 2643 7a3f
00000210: a3a6 793f a9c5 debe 3fc8 24be 55c5 a0be
00000220: 20a5 1c3f c5aa 04bf 2a44 593e 805a 1ebe
00000230: 27dd 1f3f 153c fe3e 38d2 4e3f 6cb6 f0be
00000240: 9e1c 13bf ae10 1fbf 9b67 33bf 9429 21bf
00000250: 79e1 9abe 5c2f f63e 5c5c 22bf a03e 22bf
00000260: 941c 13bf b5c7 e9be 3950 33bf b130 25bf
00000270: 085e f1be a9f0 17bf 87c8 18bf 1a52 3ebf
00000280: c208 45bf 395f ecbe 6a98 0abf 1d1c 463f
00000290: a23d d83e 83c2 1cbf 60f4 e6be 89cb 083f
000002a0: 54e7 dfbe 80cb 2dbf 5fa5 0bbf 4b3e 0abf
000002b0: c916 0bbf b095 29bf ed73 1dbf 9423 ff3e
000002c0: 01f9 e2be a117 27bf cc85 3b3f 2c19 18bf
000002d0: 65a4 babd 81eb 87be 2411 79bf 1e33 dbbd
000002e0: 667f 0e3f e65f 17bf ef67 8cbf cba8 1dbe
000002f0: 412e 62bf 1c62 00bf f8a9 e1be 37b8 67bf
00000300: 69aa d53d 0bab c0bd be27 ecbe 68a7 c0be
00000310: 417f 2d3f 532f aebe 69ea 0bbf 3f66 8ebe
00000320: d859 0fbe d8f7 00bf 7da1 93bf b20a 23be
00000330: 9308 a7be 3d61 fabd 7a8c 8cbe dd20 4abf
00000340: 261b fcbd de21 2f3e 3619 33bf c4b6 7b3c
00000350: e8f6 1b3f 53cb 2ebf 48b3 483f c289 213f
00000360: 3e1f a03f cde7 003f ee39 993f 39c5 433f
00000370: 68c5 083f d32a 7f3f 9506 963f 3cb4 60bf
00000380: 89c7 a5be 5ee0 523e 4550 953f 7f29 fdbe
00000390: 8d05 593e 85fa c83e 7c13 853f 4828 863f
000003a0: 038a a03f 3fbe e0be a23f b1bd da04 59bf
000003b0: 5b47 aebe 9076 263f d3fb 28bf ac14 473f
000003c0: 8a63 003f f6a7 cb3d 5527 8cbf b9b7 193e
000003d0: 7c1a d13e 8837 85be 2a6d 97bf 6571 29bf
000003e0: 980b 82bf bf1d d6be 6674 37be 63f8 96bf
000003f0: e212 ffbd 4328 af3e 3306 3abe 8294 0dbd

fc2.bias f4 [30]
-0.5877651 0.55876696 -0.8104294 -0.87207854 0.9449148 -0.46472323 -1.0490766 0.8416591
-0.74311674 1.2999278 -0.59902775 -0.22110063 -0.44683573 -0.14140525 0.31965914 0.9861044
0.7334578 -0.6625088 -0.67103916 1.0513619 -0.73279387 0.6582238 0.79832137 1.3027352
-0.7907567 0.87759566 -0.81999713 -0.76081043 -0.7695298 0.8169328
00000000: c677 16bf 5a0b 0f3f 4d78 4fbf 8a40 5fbf
00000010: f0e5 713f 34f0 edbe 2448 86bf f976 573f
00000020: e63c 3ebf 0964 a63f e259 19bf 3468 62be
00000030: a7c7 e4be 8acc 10be 5daa a33e 5771 7c3f
00000040: e4c3 3b3f 2d9a 29bf 39c9 2bbf 0793 863f
00000050: 6198 3bbf 5b81 283f ca5e 4c3f 07c0 a63f
00000060: 086f 4abf 1caa 603f 55eb 51bf 79c4 42bf
00000070: e8ff 44bf 8222 513f

fc3.weight f4 [30, 30]
0.14021623 -0.7024976 -0.087098 -0.05350107 -0.047582924 -0.61758995 -0.61504287 -0.4468668
-0.5995096 -0.67761624 -0.14089142 -0.7717604 -0.5637243 0.038728014 -0.7382251 -0.420889
-0.59877664 -0.030489817 0.09183049 -0.57411164 -0.4565427 -0.5272983 -0.48474896 -0.49595138
0.6849582 0.048850268 -0.05566819 -0.4263988 -0.6941449 -0.55271256 -0.5134892 -0.8190099
-0.6411808 -0.5383195 -0.64061755 0.51987654 -0.56995094 -0.56394076 -0.7368866 -0.52370065
0.46888366 -0.96589005 -0.47264025 -0.041972503 -0.80681044 -0.7197481 -0.5008939 0.08473104
0.77488834 -0.6738758 0.44985828 0.19211021 -1.00356 -0.71526057 -0.75648737 -0.7947117
-1.0012285 -0.8978236 -0.52755135 -0.1378927 -0.44984788 -0.8395801 -0.7481899 -0.5244278
-0.7090143 0.48434773 -0.5483902 -0.3452932 -0.4676928 -0.370293 0.7486545 -0.80085367
-0.4585914 0.1641376 -0.86021733 -0.43870282 -0.11105075 -0.5734725 0.5778903 -0.4725227
0.42653883 0.36514348 -0.9491354 -0.2753605 -0.42678714 -0.7093936 -0.54004854 -0.48822486
-0.44337067 0.016487617 0.73899114 0.57380563 0.5573515 -0.25601307 0.2540419 -0.7045323
-0.36334473 -0.9692586 -0.20284654 -1.0686332 -0.59820914 -0.2216113 0.41872746 0.005635053
-0.007321189 -0.31959698 0.744655 -0.4808309 -0.43091926 -0.595588 -0.14904803 0.79399866
0.50076646 -1.1197515 -0.1912795 0.82907563 -0.2297876 -0.49941322 0.6517581 -0.2559577
-0.54745513 -0.27803358 -0.74088156 0.39135116 1.0438712 0.6335741 0.45409042 1.218785
0.46447122 1.3587924 0.6724381 0.5764613 -0.5460898 -0.1799844 -0.27646777 1.1174158
1.3408978 0.54635334 0.6651623 1.0107862 0.67142063 0.9428289 0.4362689 1.1727984
0.19853207 1.0558722 0.60544205 0.5794586 -0.7089004 0.75708896 0.123468846 0.08932531
-0.17282961 0.1033563 -0.09609218 -0.059775174 -0.021979958 0.030745238 0.04040426 -0.01460886
-0.18161462 -0.1726886 0.17590374 0.10561091 -0.14238147 -0.032740086 -0.0904818 0.04060079
0.08274317 -0.15326469 -0.061664946 0.10241172 -0.07576177 -0.06515297 -0.11042067 -0.08210687
-0.03980738 -0.11511438 -0.05086866 -0.0038067251 0.4822192 0.5147012 0.10950494 -0.08852922
-0.008444443 -0.4603525 -0.65350074 -0.77894056 -0.52347046 -0.5294016 0.08901006 -0.76574004
0.73917717 -0.118469976 -0.75476396 -0.5873288 -0.5664836 -0.018984273 0.6361721 -0.4990678
-0.48373535 -0.42558894 -0.66721797 -0.7434356 0.43447226 0.66829246 0.019183204 -0.7114446
-0.43493572 -0.44677222 0.026978716 -0.43336263 0.08764082 0.018961683 -0.52429503 0.008325875
-0.028301075 -0.4603296 -0.14708547 -0.6652172 0.12023729 -0.6371071 -0.09410436 -0.07105621
-0.5758482 -0.5316975 -0.46433064 -0.17342582 -0.017591536 -0.6001401 -0.1564298 -0.48744467
-0.4900586 -0.50481385 -0.17191125 -0.43702576 0.048666894 0.16285107 0.11075768 -0.37647155
0.5049187 0.32987213 0.46977982 -0.1812613 0.25992846 0.60770744 -0.13649574 -0.70748484
-0.26387858 -0.83906823 -0.46035522 -0.362986 0.6990038 0.005928263 -0.24642742 -0.61329484
00000000: d894 0f3e e2d6 33bf 7060 b2bd f023 5bbd
00000010: 50e6 42bd 601a 1ebf 7373 1dbf bacb e4be
00000020: 7679 19bf 4278 2dbf d745 10be 1792 45bf
00000030: 3c50 10bf 44a1 1e3d 52fc 3cbf c37e d7be
00000040: 6d49 19bf c8c5 f9bc a011 bc3d fbf8 12bf
00000050: f7bf e9be 05fd 06bf 0431 f8be 57ed fdbe
00000060: 6c59 2f3f 3817 483d 5404 64bd f250 dabe
00000070: 7bb3 31bf 927e 0dbf 0774 03bf a2aa 51bf
00000080: 6d24 24bf 4fcf 09bf 83ff 23bf a116 053f
00000090: 4ee8 11bf 6c5e 10bf 9aa4 3cbf 3f11 06bf
000000a0: 8511 f03e 9244 77bf e7fd f1be 5ceb 2bbd
000000b0: 218b 4ebf 6941 38bf 953a 00bf 7887 ad3d
000000c0: 155f 463f 2083 2cbf d353 e63e 8ab8 443e
000000d0: a774 80bf 511b 37bf 28a9 41bf 3a72 4bbf
000000e0: 4128 80bf c4d7 65bf 9b0d 07bf be33 0dbe
000000f0: 7652 e6be b9ee 56bf 6089 3fbf e640 06bf
00000100: f681 35bf 6dfc f73e 4d63 0cbf 45ca b0be
00000110: 6e75 efbe 0b97 bdbe d2a7 3f3f bf04 4dbf
00000120: 7ecc eabe b013 283e 3437 5cbf a89d e0be
00000130: 936e e3bd 18cf 12bf 9ef0 133f 7fee f1be
00000140: 4c63 da3e 16f4 ba3e 8afa 72bf 0dfc 8cbe
00000150: d883 dabe d29a 35bf 9f40 0abf 9cf8 f9be
00000160: 7b01 e3be 0a11 873c 862e 3d3f ede4 123f
00000170: 97ae 0e3f 2514 83be c811 823e 3b5c 34bf
00000180: 5208 babe 5521 78bf 01b7 4fbe f9c8 88bf
00000190: 3c24 19bf 13ee 62be 7263 d63e 40a6 b83b
000001a0: 96e6 efbb 37a2 a3be b6a1 3e3f 782f f6be
000001b0: 73a1 dcbe 7578 18bf 0ca0 18be 7f43 4b3f
000001c0: 3b32 003f 0454 8fbf c6de 43be 4d3e 543f
000001d0: 714d 6bbe 17b3 ffbe 9ed9 263f e30c 83be
000001e0: 0526 0cbf 6b5a 8ebe 6aaa 3dbf 2e5f c83e
000001f0: 929d 853f ea31 223f 8a7e e83e 2601 9c3f
00000200: 2ccf ed3e e9ec ad3f e724 2c3f f892 133f
00000210: 8bcc 0bbf d54d 38be 2f8d 8dbe 7b07 8f3f
00000220: 8aa2 ab3f d0dd 0b3f 1448 2a3f 7161 813f
00000230: 39e2 2b3f 3c5d 713f a35e df3e 421e 963f
00000240: fe4b 4b3e d226 873f 40fe 1a3f 6657 143f
00000250: 7f7a 35bf 95d0 413f 3cdd fc3d 30f0 b63d
00000260: 3ffa 30be 78ac d33d facb c4bd d0d6 74bd
00000270: 500f b4bc 70dd fb3c f07e 253d 005a 6fbc
00000280: 2ff9 39be 48d5 30be 1c20 343e 884a d83d
00000290: 73cc 11be 781a 06bd 864e b9bd 044d 263d
000002a0: 4075 a93d 6bf1 1cbe 6294 7cbd 3cbd d13d
000002b0: fd28 9bbd ec6e 85bd 3b24 e2bd a627 a8bd
000002c0: 100d 23bd 17c1 ebbd a85b 50bd 407a 79bb
000002d0: 6fe5 f63e 75c3 033f 2044 e03d cf4e b5bd
000002e0: 905a 0abc 53b3 ebbe d34b 27bf a668 47bf
000002f0: 2902 06bf dd86 07bf e84a b63d 8a07 44bf
00000300: b73a 3d3f 63a0 f2bd 3638 41bf 2e5b 16bf
00000310: 1205 11bf e884 9bbc 2ddc 223f d185 ffbe
00000320: 29ac f7be cbe6 d9be ccce 2abf cc51 3ebf
00000330: 2673 de3e 3715 2b3f 1826 9d3c 3c21 36bf
00000340: e5af debe 54bf e4be 7802 dd3c b5e1 ddbe
00000350: 087d b33d 8855 9b3c 3338 06bf 4069 083c
00000360: a8d7 e7bc 52b0 ebbe 939d 16be ad4b 2abf
00000370: f83e f63d 7319 23bf c9b9 c0bd eb85 91bd
00000380: ca6a 13bf 541d 08bf bfbc edbe 8a96 31be
00000390: 201c 90bc c8a2 19bf 222f 20be 5992 f9be
000003a0: f6e8 fabe 7b3b 01bf 8109 30be d7c1 dfbe
000003b0: f056 473d 6ec2 263e ecd4 e23d e1c0 c0be
000003c0: 5a42 013f 00e5 a83e fb86 f03e 909c 39be
000003d0: 5815 853e b792 1b3f 8ac5 0bbe ba1d 35bf
000003e0: 181b 87be 2dcd 56bf aeb3 ebbe 4dd9 b9be
000003f0: eaf1 323f e041 c23b 7857 7cbe e400 1dbf

fc3.bias f4 [30]
-0.74514586 -1.1252872 -0.7046785 -0.51124364 0.32162222 -0.16372034 -0.65230477 -0.6541972
-0.7847806 -0.34250227 -0.49242762 -0.69218266 -0.7755463 -0.45888948 -0.47295284 -0.45066303
1.0225608 -0.3674742 1.3466887 -0.48290986 1.3034093 -0.64218706 -0.29003856 -1.0411035
0.5315807 -0.15188146 -0.43320954 0.9271085 -0.4965558 1.2738649
00000000: e1c1 3ebf 6909 90bf cf65 34bf dde0 02bf
00000010: abab a43e 4ea6 27be 72fd 26bf 7879 27bf
00000020: 62e7 48bf 755c afbe 791f fcbe e232 31bf
00000030: 348a 46bf 90f3 eabe e026 f2be 4ebd e6be
00000040: 46e3 823f 9425 bcbe 4c60 ac3f f63f f7be
00000050: 1ed6 a63f 5f66 24bf ef7f 94be e142 85bf
00000060: ac15 083f d086 1bbe a4cd ddbe fc56 6d3f
00000070: 903c febe 010e a33f

fc4.weight f4 [1, 30]
0.41834933 -0.024036668 -0.07082307 0.22505057 0.9758888 -0.059963174 0.44741854 0.38924137
0.4221811 0.38929316 0.70913047 0.5692809 -0.7490994 0.20494722 0.12424047 -0.5359012
1.2128867 0.38903108 1.1122344 -0.44016802 1.2061595 0.17453858 0.758843 0.4646474
0.29221377 0.0532652 0.80132914 -0.31681424 -0.48056397 1.1421905
00000000: e231 d63e 8ce8 c4bc b00b 91bd a873 663e
00000010: d9d3 793f f29b 75bd 0b14 e53e a54a c73e
00000020: 1f28 d83e 6f51 c73e 9389 353f 65bc 113f
00000030: fac4 3fbf afdd 513e ca71 fe3d d230 09bf
00000040: df3f 9b3f 152f c73e b25d 8e3f b45d e1be
00000050: 6f63 9a3f 3eba 323e 8943 423f 44e6 ed3e
00000060: 0b9d 953e 9c2c 5a3d e823 4d3f 7a35 a2be
00000070: 7b0c f6be 4c33 923f
