Model1.pt (torch, 10699 bytes, 7 tensors)

fc1.weight f4 [30, 3]
00000000: aeac b53e 5736 153f bb4b 523d 3f1c 193f
00000010: 8056 643e 3180 29be b15d 1240 49e3 813e
00000020: 111b 92bf a82e 123f 963f a9be 5c27 273c
00000030: 0b1b 5abe cac9 c73f 51a6 48bf 28ed 22bc
00000040: f4c4 123e 1301 873d 42cc 8ebc 0d3b 04bf
00000050: 1881 123f a880 dbbe f781 433d 1d75 ce3e
00000060: b63c d73e 3fca 883e f00b c5be 4c85 6c3f
00000070: 35dd 34c0 a743 043f 1c1e 50bf 937f 93be
00000080: 4a72 883f 3aa1 b2be 9e2b 55bf 6402 f13e
00000090: 9b1f 913e 4fd2 7b3f 84c2 fabb c122 153e
000000a0: 03b0 833e c867 b1bd e8ec 2cbe 17e0 50be
000000b0: ec2b 6cbd 52e8 25bf a3bf 3ebf ef58 ae3e
000000c0: 38be 4e3e 1221 38be 6214 6abc 73ba b1bd
000000d0: d7d6 a93e ce98 44be c069 9bbe b285 e4be
000000e0: 574b 11bf 2d61 103f c798 8b3d 04b9 b63d
000000f0: fa53 df3f 8962 623e 214a 24bf 35bf b33e
00000100: ab2e 5b3f a1a7 83bf b2f1 15bc a3ce 29bf
00000110: f215 1fbe c953 f13f 3cbb 693f 1cde 27bf
00000120: 7233 e0bf 02ba 55bf e5c0 373f 7578 fb3e
00000130: 9a0a 833d 808e dcbd e963 9f3f 07ce d1bf
00000140: 2113 90bf 4a72 ccbd 24f6 b3bf 791e 25c0
00000150: a485 0a40 f16a 2e3f fc54 17bf cce9 773f
00000160: 79ef 4b3f 289f 57be
0.35483307 0.5828604 0.051341753 0.59808725 0.22298622 -0.16552807 2.2869685 0.25368717
-1.141451 0.5710244 -0.33056325 0.010202255 -0.21299379 1.5608456 -0.7837878 -0.009944238
0.14332944 0.06592002 -0.017431382 -0.51652604 0.5722823 -0.42871594 0.047731366 0.40323725
0.42038506 0.26716802 -0.3848567 0.92390895 -2.8260014 0.5166573 -0.81295943 -0.2880827
1.0659878 -0.3488863 -0.8326968 0.47072136 0.28344426 0.9836778 -0.0076525826 0.14564039
0.25720224 -0.08662373 -0.16887248 -0.20397983 -0.057659075 -0.6480762 -0.74511164 0.34052226
0.2018975 -0.17981365 -0.014287086 -0.086781405 0.33171722 -0.19198915 -0.30354118 -0.4463325
-0.56755584 0.5639828 0.06816249 0.08922008 1.7447503 0.221079 -0.6417561 0.35106817
0.85618085 -1.0285531 -0.009151863 -0.6633093 -0.15535715 1.8853694 0.9130132 -0.65573287
-1.75157 -0.8348695 0.7177871 0.4911534 0.063985065 -0.10769367 1.2452365 -1.6391
-1.1255838 -0.099827364 -1.4059491 -2.579985 2.1644068 0.6813193 -0.5911405 0.9684112
0.7966228 -0.21056807

fc1.bias f4 [30]
00000000: 632c 8ebf bcec c7bf 75b6 093f cfe3 3dbf
00000010: 6990 5bbe 8daf 04bf e745 c53e 2af8 f13c
00000020: 127a 50bf 428e af3f c234 89be c0d5 533d
00000030: ca82 b3bf da7b 06bf a177 b2be 16b9 a53e
00000040: e21a 0dbf df89 91bf b17e 58bf 599b d5bf
00000050: 574f 96bf e450 f4bf 92e5 63bd 6d6c ecbe
00000060: 94c0 893f e039 4cbf b807 283f d068 c93f
00000070: 66cb 5abf ea40 cdbf
-1.1107296 -1.5619121 0.5379403 -0.74175733 -0.21441807 -0.5183037 0.38529894 0.02953728
-0.81436265 1.3715289 -0.26798064 0.05171752 -1.4024289 -0.5253273 -0.34856895 0.32367772
-0.55119145 -1.13702 -0.84568316 -1.6688033 -1.1742963 -1.9087186 -0.055638857 -0.46176472
1.0761895 -0.7977581 0.6563678 1.5735111 -0.8546661 -1.6035435

fc2.weight f4 [30, 30]
00000000: b351 443f d426 eb3d e1e8 04bf de4e f1be
00000010: 496c 933d a366 3fbf 043c e8be 768f dabe
00000020: 98b2 aabe ed6f 433f c6ce 97be 519a 0bbf
00000030: af93 683e 7065 4cbf 206c fabe 846a 60bf
00000040: d04d 12bf d795 31bf 7f49 26bf 2357 22bf
00000050: 92ad 2dbf f8a0 79be 73a4 03bf fe99 8cbc
00000060: 3b31 7ebe ac8a 643f e7db 52bf d0ed e93d
00000070: 5cc1 48bf 7e06 69bf c613 27be 9a4c 5dbe
00000080: 5447 31bf dc81 2ebd 5fd3 043e 609c fbbe
00000090: 9f5e 2cbf 392b 1cbf 6e50 cdbe ebfc 24be
000000a0: 4b5b 09bf 49d9 d9be 91a3 8abd 1703 f6bd
000000b0: 819a d8be 6abf fdbe 75b7 debe ceaf 4c3c
000000c0: 39aa e7be c545 b73e ee6c 20bf 0a3a 2e3e
000000d0: a212 3bbf 66b1 3ebb 2546 cebe 589b a2be
000000e0: 1cfb 4abf a8c1 39bd 6687 94be 2d7a 74bc
000000f0: 8f03 f1be f1da 58bf d0ca e43e 2180 01bf
00000100: fcae 6bbf e4ef ecbe e813 0cbf 6731 1ebf
00000110: cadc 0f3d 2d28 1bbf a531 04bf 665e c63e
00000120: aed4 35bf 9c27 5fbf 9556 0ebf a7d5 63bf
00000130: a001 2abf e9fb 2dbf 9c76 efbe 1dde 3e3f
00000140: 7d33 43bf d0df 51bf c7b5 11bf f110 013b
00000150: 918a 10bf 7f4f 28bf 1fab 79bf 0766 18bf
00000160: 78b6 43bf d606 cb3d c0e9 dfbe d797 0abf
00000170: a079 0cbf c9ed 28bf 41a8 25bf 1d2a fcbe
00000180: fecb b5be 01d0 ebbe 929c c7be f2e6 68bf
00000190: c97e 3abf 5cf2 e9be 502d dabe 0f9e 13bf
000001a0: d052 0abf 7fd0 f4be e927 f4be 361b 18bf
000001b0: 1b98 b0be dc19 13bf ce4f 35bf f376 12bf
000001c0: 2139 f6be 7557 62bf d6a7 c4bd f08a d8be
000001d0: 060e d0be e963 42bf 6778 2dbf 9575 76bf
000001e0: cc0d 173f e6ba a3be a31d 80be c1d0 44bf
000001f0: 88a2 02bf f012 e1be 0fe7 23bf acca e7be
00000200: 0e4a 0cbf 28da 64bf 6fd3 11be 9f51 1cbf
00000210: 5105 3fbf cf79 8ebe 3b18 c2be a2cc 19bf
00000220: f286 85be 9818 3fbf 0606 4dbe 1c72 313e
00000230: 3f7c 13bf 3f90 843f d932 14bf d626 53bf
00000240: b701 5abf f52e 20bf be63 9dbf 5e44 25bf
00000250: debf 0dbf ec59 9fbf 2036 db3e 63d2 e83e
00000260: 1a59 40c0 1af6 8b3e 227a 8f3c 394e 42be
00000270: 69e9 fd3c a04b 0bbd 2af9 7fbf 0f3e acbf
00000280: 4260 0f3f be48 353e 54d1 9ebe c315 73be
00000290: 3f19 50be 7aa2 8cbd e073 9fbe d279 1b3d
000002a0: 8641 a1be 5100 77be 2d41 9bbf 96af 0d3f
000002b0: fa44 24be d57b 9bbf a205 293d 34ed 163e
000002c0: 0fa3 97bf 76f3 c53f 800d bcbf 113c 74be
000002d0: 9d84 aebe 3755 05bf c7f8 eebe ee30 08bf
000002e0: b3fb 9dbe 2dc0 c8be 7991 54bf e911 a6be
000002f0: e8a0 0bbd 9c11 1bbf bc15 09bf 1db3 86be
00000300: 0afe 03bf 9e24 8ebe fe23 ccbe bfa6 7ebf
00000310: 89b8 50bf 8471 65be a538 13bf 6c51 3b3e
00000320: 0589 d7be f437 c5be 4499 1ebf 8de1 aabe
00000330: dc62 343f 6709 a7be 1702 7ebf 8bcb a3be
00000340: 734f e4be a0a5 b9be 0fe1 b83e 215c 603f
00000350: 20c7 05c0 80b0 623e 1e7c 88bf 49ee 4e3e
00000360: eab8 1c3f 63ac d83e c80e 17bf 36be 21c0
00000370: 1df1 523f 76a8 0d3f b59e d3be 3a85 74be
00000380: 7f58 33be 3242 ea3e 8a94 673d 30bd 11be
00000390: 589c d8be ebb1 abbd 9c3f 67bf 6096 f23e
000003a0: 7e7b 8abe fad4 a7bf 18e0 7bbf 55d4 d4bd
000003b0: 38d7 d9bf 1333 91bf c02d 53bf 094e 21bf
000003c0: 52a4 243e ab2b d13d c61a 8ebf 0629 8fbe
000003d0: 27f4 babe 3967 133e e4e8 2a3d e03e b83c
000003e0: 25bb 82be 4817 cfbc aa4a d6be f3e1 513d
000003f0: e1ef ffbe a902 a7be 5aaa 913e f303 d1bd
0.76687163 0.11482015 -0.51917845 -0.47130483 0.07198388 -0.74765986 -0.45358288 -0.42687577
-0.3333938 0.7634266 -0.29649943 -0.54532343 0.22712587 -0.7984228 -0.48910618 -0.8766253
-0.5714998 -0.6936926 -0.64955896 -0.6341421 -0.6784297 -0.24377811 -0.51422805 -0.017163273
-0.24823467 0.89274096 -0.82366794 0.11422312 -0.78420043 -0.9102553 -0.16316137 -0.21611252
-0.69249463 -0.042604312 0.12971257 -0.49142742 -0.6733188 -0.6100345 -0.40100425 -0.16112106
-0.53654927 -0.42548588 -0.06769479 -0.12012308 -0.42305377 -0.495601 -0.43499342 0.012493087
-0.45247057 0.35795417 -0.62666214 0.17014328 -0.73075306 -0.0029097437 -0.4028789 -0.31759143
-0.7928941 -0.0453507 -0.2900955 -0.014921707 -0.47073027 -0.8470908 0.44685984 -0.50586134
-0.9206388 -0.46276772 -0.54717875 -0.6179413 0.03512267 -0.6060818 -0.5163825 0.38743895
-0.7102765 -0.87169814 -0.55600864 -0.8899788 -0.6640873 -0.6796251 -0.4677018 0.7455767
-0.7625044 -0.81982136 -0.56917995 0.0019693936 -0.56461436 -0.657463 -0.97526735 -0.5953068
-0.764503 0.09913413 -0.43733025 -0.5413794 -0.54873085 -0.6598783 -0.6470986 -0.4925088
-0.35507196 -0.46057132 -0.3898664 -0.90977395 -0.7284971 -0.45692718 -0.42612696 -0.57663053
-0.5403261 -0.4781532 -0.476867 -0.5941652 -0.34491047 -0.57461333 -0.708249 -0.5721275
-0.4809046 -0.884147 -0.09602325 -0.422935 -0.406357 -0.759337 -0.67761844 -0.96273166
0.5900543 -0.3197853 -0.2502261 -0.76881033 -0.51029253 -0.4395976 -0.6402444 -0.45271814
-0.548005 -0.8939538 -0.14240812 -0.61062044 -0.7461749 -0.27827308 -0.3790911 -0.6007787
-0.26079518 -0.746469 -0.20021829 0.17328686 -0.5761146 1.035652 -0.5789009 -0.82481134
-0.85158867 -0.6257165 -1.2296064 -0.64557445 -0.5537089 -1.2449317 0.42814732 0.45473012
-3.0054383 0.27336198 0.017514292 -0.18975152 0.030995088 -0.03400767 -0.9998957 -1.3456439
0.5600625 0.1770353 -0.3101908 -0.2373877 -0.2032213 -0.068669274 -0.31143093 0.037957974
-0.31495303 -0.24121214 -1.2129265 0.5534605 -0.16041937 -1.2147166 0.041265137 0.14738923
-1.1846637 1.5464923 -1.469162 -0.23851039 -0.3408555 -0.5208315 -0.46674177 -0.5319966
-0.30856094 -0.39209118 -0.83034474 -0.3243554 -0.034089 -0.60573745 -0.5354879 -0.26308528
-0.5155951 -0.27762312 -0.3987121 -0.99473184 -0.8153158 -0.22406584 -0.5750831 0.18292779
-0.42096725 -0.3851925 -0.61952615 -0.33375207 0.7046335 -0.3262436 -0.9922194 -0.31991228
-0.44591865 -0.36259174 0.36109206 0.8764058 -2.0902786 0.22137642 -1.0662878 0.20208086
0.61219656 0.4231902 -0.5900693 -2.5272346 0.8239916 0.55335176 -0.4133202 -0.23878947
-0.17514227 0.45753628 0.056538142 -0.14232326 -0.4230678 -0.083835445 -0.90331435 0.47380352
-0.27047342 -1.311187 -0.98388815 -0.103920616 -1.7018805 -1.1343712 -0.82491684 -0.630097
0.16078308 0.10213407 -1.1101921 -0.27960986 -0.36514398 0.14394845 0.041726008 0.022490919
-0.25533405 -0.025279656 -0.4185384 0.051240873 -0.499877 -0.32619217 0.2845028 -0.102058314

fc2.bias f4 [30]
00000000: 122e 8cbf c65a 04bf 7771 50bf e56f 26bf
00000010: 8d6b 9fbf c020 3e3c 430c 12bf 53b6 8e3d
00000020: be4c 08bf 775f eabe 0b1a 49bf 9a73 87be
00000030: 703c 1cbf b527 5fbd 13df 42bf 5604 d6be
00000040: acca 22bf 61cf b8be 2df4 e9be 147f 08bd
00000050: 53ca 993f 822d ecbe 1851 6dbf 68ca 47bf
00000060: f38e 54bf 9630 9a3e d11b 20bf c45a dcbe
00000070: 3ea9 86bf 2af7 89be
-1.095156 -0.5170101 -0.81423134 -0.6501449 -1.2454697 0.011604488 -0.5704996 0.06968369
-0.532421 -0.4577596 -0.78555363 -0.26455384 -0.6102972 -0.054481227 -0.76121634 -0.41800183
-0.635905 -0.36095718 -0.45694104 -0.033324316 1.201487 -0.4612847 -0.92701864 -0.7804322
-0.83030623 0.30115193 -0.62542444 -0.43038 -1.0520399 -0.26946384

fc3.weight f4 [30, 30]
00000000: e0c5 cb3e af11 f33e ce40 b73e 71d0 903e
00000010: 5715 053e 243a b5be 8031 81be 2e3f 3ebf
00000020: 9edf 8bbe 0b2b 43bf 87a0 17bf b98d c0bf
00000030: f763 3cbf 589d d5bc bcf7 f63d 585b 05bf
00000040: ecab 19bf c393 16bf 0653 143f f580 6b3c
00000050: 521c 29bf ae0f e43e 233c 03bf f13a 24bf
00000060: f684 133f 5475 c2be 35ba 24bf b22e e43e
00000070: 981e fcbe 5ff7 13bf 1782 25bf 42b2 97be
00000080: b470 ef3e 914a 183f 72ef 603f efff 14bc
00000090: aac8 b53e 7bbb 06bf 57af 24bf a696 c03d
000000a0: b5d9 0ebf 71e4 cd3c 0447 30bf 8236 b7bd
000000b0: 67c8 0fbf 07d4 1e3f 1b3c e33e dbd8 493f
000000c0: ffe3 56be 23bd d3be b4cd 1fbe e2d7 f8be
000000d0: 2c64 e73e 77de 2a3f 241e 14bf ede9 b4be
000000e0: 1bc9 de3e d4de 19bf 04aa 023f 4603 0b3f
000000f0: e90c 7b3e 009b 253e 3143 31be 945a 113e
00000100: bec8 84bf 7fb9 8b3e 58e8 9f3d 4d84 a43e
00000110: 18f7 853e a8f2 91bc 0852 a03c 9bad f53d
00000120: f846 b93d e710 1bbf e211 10be 033a 1bbe
00000130: 6c9f a03d 4878 f0bc 10ee 4fbc 2825 0a3e
00000140: 5c63 a03e dff1 22be 7ba4 8ebd 367b 603f
00000150: a180 053f f6c8 be3e a522 22be 226b 183e
00000160: c0fb 3d3d d828 c6bc 411f d33e 720e 1dbf
00000170: 6e53 da3e 34ae 263f 03d5 e23e 4146 6bbe
00000180: 4196 80be 2ddb a73c ace6 d03d 1962 95be
00000190: 13cc 60be e3a1 94be 3bce 983e 5017 28bd
000001a0: 1fd4 7a3e 9837 25be b18d f8be 553e f1be
000001b0: 5452 efbe 33f7 a9bd ba2a 50be 9248 f03e
000001c0: 289b 05bf 1321 0ebf 8424 483f 84a2 a4bd
000001d0: 5071 c53c 8bcf 463f c397 40bf e8c1 f63b
000001e0: c863 03bf 4d97 15bf a8e8 15bf 2bd6 e1be
000001f0: 4b17 243f e20c 13bf 28b1 cdbd 4ae9 efbe
00000200: 7ed2 a0bc b826 263f 0c68 fabe 90a8 45bf
00000210: 630d 22bf d0d0 30bf 1910 413f c488 15bf
00000220: 96fe ecbe 408e 15bf 3dd1 383f 3e21 0cbf
00000230: 455c e4be 7807 1bbf 1e3d f8be 465e d7be
00000240: 9be8 213f 1743 17bf 5a0c 15bf 3724 fd3e
00000250: 08d0 d9be 29fc 1cbf 4ac0 243f 4a0f 0a3f
00000260: 1855 35bf 0bd1 0dbf 875f d5be ccbf 30bf
00000270: 806a 15bf 08ef 04bf 3493 51bf 2091 72bf
00000280: 09cf a0be 16f4 28bf c434 f33e 3842 fbbc
00000290: a599 1b3f 2767 84bf 2382 39bf 7350 4dbf
000002a0: 4705 64be a3b1 90be 27c7 54bf a4bf 0b3f
000002b0: 004a 11bf f7b3 143f 6689 3f3f d416 92be
000002c0: 60a0 f43e 4f44 18bf df5e 323f 7cc1 0b3f
000002d0: 42e2 07bf 62fb ffbe 4421 f5be 45e4 283f
000002e0: 0c13 013f 63b0 bb3d 426a 30be e072 5d3e
000002f0: 85f6 6b3e 9fb1 1d3f 4dfe 0abf c065 26bb
00000300: 62f0 08bf e8c7 0cbf 824e d63e 908c 1abc
00000310: aaba fcbe 2325 42bf c624 f8be f23f 78be
00000320: 59ca 1240 1cb6 2dbf cf74 febe fcd6 06bf
00000330: 60d6 60bd ba89 a6be afbe 1ebf f8ce 1b3f
00000340: 4d3a 14bf 8af1 23bf 3b29 14bf 5069 34bf
00000350: 9631 213f c3e1 1ebf 9ff2 d4be 9394 d8be
00000360: b33e 2ebf a259 d9be 9cfa 1abf 58ce 0fbf
00000370: 6fdf 0fbf 6a61 17bf 3756 0fbf 71c9 dcbd
00000380: 5e7a e8bd d11d d9be 8e0e 0e3e bd00 3bbf
00000390: f859 2abf 6764 cdbe 52fa 23bf 940f c2bd
000003a0: 6b08 b6bd 0b10 97bd 4c32 173e 53c6 31bf
000003b0: 1408 583d 3e8d 0abe 24e7 b03d af3c 173f
000003c0: 8936 27bf b787 dabe 19fc 14bf 882e efbe
000003d0: 6923 043f 47d8 1fbf d636 34be 0471 07bf
000003e0: 307c ffbe 2584 223f 00ba 32bf 859f 11bf
000003f0: 9b24 3ebf 5d65 a9bd 2dbd 3d3f eb83 1fbf
0.39799404 0.4747443 0.3579163 0.28284028 0.12996422 -0.3539592 -0.25233078 -0.74315155
-0.27319044 -0.76237553 -0.5922932 -1.504325 -0.73590034 -0.026076004 0.1205897 -0.52092505
-0.60027957 -0.58819216 0.57939184 0.0143740075 -0.6605884 0.44543213 -0.51263636 -0.6415244
0.5762476 -0.3798014 -0.6434663 0.44566876 -0.4924209 -0.57799333 -0.64651626 -0.29628187
0.46765673 0.5948878 0.87865365 -0.009094222 0.35504657 -0.5262982 -0.6433005 0.09403734
-0.55800945 0.025133343 -0.6885836 -0.089459434 -0.56165165 0.6204228 0.44381794 0.7884652
-0.20985411 -0.41355237 -0.15605813 -0.48602206 0.45193613 0.66745704 -0.5785849 -0.3533472
0.43512806 -0.60105634 0.51040673 0.5430187 0.24516644 0.16172409 -0.17310788 0.14194709
-1.0373762 0.2728996 0.07807988 0.32132187 0.2616508 -0.017815903 0.019570366 0.11996003
0.09046739 -0.60572666 -0.14069322 -0.15158848 0.07842907 -0.02935423 -0.012691036 0.13490736
0.31325805 -0.15912579 -0.06964966 0.87688005 0.521494 0.37262696 -0.15833528 0.14884618
0.046382666 -0.024189398 0.41234782 -0.61350167 0.42641777 0.6510956 0.4430314 -0.22976018
-0.25114635 0.020490253 0.10200247 -0.29176405 -0.21952848 -0.2902976 0.2984484 -0.041037858
0.2449498 -0.16134489 -0.48545602 -0.47117868 -0.467425 -0.08299103 -0.20328799 0.46930367
-0.52189875 -0.5551922 0.7818072 -0.0803881 0.024101883 0.77660435 -0.7523157 0.0075304396
-0.5132413 -0.5843399 -0.5855813 -0.4410871 0.6409804 -0.5744153 -0.100435555 -0.46857673
-0.01963162 0.6490283 -0.48907506 -0.7721033 -0.63301677 -0.6906862 0.7541519 -0.5841181
-0.46287984 -0.5842018 0.7219427 -0.54738224 -0.44601646 -0.6055827 -0.4848413 -0.42064112
0.6324555 -0.59086746 -0.5822197 0.49441692 -0.42541528 -0.61322266 0.6435591 0.5392958
-0.7083297 -0.553971 -0.41674444 -0.6904266 -0.5836563 -0.5192723 -0.8186524 -0.94752693
-0.31407955 -0.65997446 0.47501194 -0.030671224 0.6078132 -1.034398 -0.724642 -0.8020088
-0.22267638 -0.28260526 -0.8311638 0.54589295 -0.5675354 0.58087105 0.7481903 -0.2853304
0.47778606 -0.5947923 0.6967601 0.5459211 -0.5307962 -0.49996477 -0.47876942 0.6597331
0.5041969 0.091645025 -0.17228034 0.21625853 0.23043258 0.61599153 -0.5429428 -0.0025390238
-0.53491795 -0.5499253 0.41856772 -0.009432927 -0.49361163 -0.75837916 -0.48465556 -0.24243143
2.2936003 -0.67856 -0.49698493 -0.5267179 -0.054891944 -0.32526952 -0.6200971 0.60862684
-0.5790146 -0.64040434 -0.5787541 -0.70473194 0.6296629 -0.62063235 -0.41591355 -0.42300853
-0.6806442 -0.42451197 -0.6053865 -0.5617423 -0.5620031 -0.5913302 -0.5599093 -0.107806094
-0.11351465 -0.4240556 0.1387274 -0.73048 -0.6654353 -0.40115663 -0.64053833 -0.094756275
-0.08888324 -0.07376107 0.1476528 -0.69443244 0.05274208 -0.13530442 0.086378366 0.5907697
-0.6531759 -0.42681667 -0.5819717 -0.46715188 0.5161653 -0.6243939 -0.17599043 -0.52906823
-0.49899435 0.63482887 -0.69815063 -0.5688403 -0.74274606 -0.08271287 0.74116784 -0.62310666

fc3.bias f4 [30]
00000000: baed 46bf 6f08 68bf 9dd3 213f 5ca8 cabd
00000010: a5fa 63bf 6c53 57bf 7c92 7b3f 84fa 26bf
00000020: fd4c 2bbf b4e5 8cbd bb6f 9abe f868 b23f
00000030: 18b6 5bbf 462b 203f 7e1b 09bf bb6b bbbe
00000040: 8af5 ecbe f8a1 88be 8757 92bf 8e9a dfbe
00000050: c9c4 bf3f a84c 29bf 231b 31bf 3792 4abe
00000060: cd40 98bf eee1 80bf 3101 c8bf caf7 a4be
00000070: 9e90 ad3f b09e b8bd
-0.7770649 -0.9063787 0.6321352 -0.09895393 -0.8905433 -0.84111667 0.9827039 -0.65226007
-0.6691435 -0.0687975 -0.3016337 1.3938284 -0.8582473 0.6256603 -0.53557575 -0.3660563
-0.4628108 -0.26686072 -1.1432961 -0.43672603 1.4981929 -0.66132593 -0.6918203 -0.19782339
-1.1894776 -1.0068948 -1.5625364 -0.32220298 1.3559759 -0.09014642

fc4.weight f4 [1, 30]
00000000: b9b8 dd3e 442d 543e 940e 883e 54b8 a4bd
00000010: cb81 da3e be56 14bf 6f7b db3f 3326 f83e
00000020: c671 193f 5e58 b5be d288 093f 491d da3e
00000030: b84f e33e cee7 b23f 2812 c83e 932e 96be
00000040: f7e9 21bf 3d35 b1be 5026 4c3d e654 0cbf
00000050: eb86 033f f20d e13e 1f8c 023f 4519 8cbd
00000060: 6435 d3be 5aa1 a0be 8662 8e3e 4c31 fbbe
00000070: 287a b83e bc0d cbbd
0.43304995 0.20720392 0.26573622 -0.0804297 0.4267715 -0.5794486 1.7147044 0.48466644
0.5993923 -0.3541898 0.53724396 0.42600468 0.44396758 1.3976991 0.39076352 -0.29332408
-0.6324763 -0.3461093 0.049841225 -0.54817045 0.51377743 0.43955952 0.5099506 -0.06840757
-0.4125167 -0.313731 0.27809542 -0.49061048 0.36030698 -0.09914729
