PPOClip.pt (torch, 70027 bytes, 7 tensors)

fc1.weight f4 [90, 3]
-0.4677731 0.5360376 0.23845516 -0.50202256 -0.35601458 -0.1384368 -0.17033008 -0.28666136
-0.20555927 -0.40419292 -0.31383073 0.0843646 -0.30210117 0.2485261 -0.5521768 -0.5745752
0.28495994 -0.027608298 0.032757323 0.26912525 0.22239606 0.55903393 -0.50562227 0.41153988
0.22517563 -0.47435012 0.05855857 -0.70259935 0.19495952 0.31207567 0.37814072 0.51292855
0.25723055 -0.08446843 -0.19065632 -0.11028569 -0.43953672 -0.4403965 0.33886847 0.23429422
0.045819703 0.11912851 -0.24675141 0.6676009 -0.011684769 0.35772467 0.5388632 -0.5170992
0.55099493 0.36733183 -0.2736188 0.6883813 -0.2728515 -0.46689335 0.7317487 -0.062222414
-0.52317566 -0.22388321 0.058099307 0.27309203 0.34054145 0.6252947 0.48935488 -0.57947224
0.41584387 -0.3516575 -0.6060241 0.40563655 -0.109477036 0.5578961 -0.06683545 -0.1560222
0.05201827 0.12683626 0.19084565 0.22421308 -0.2094042 0.4309172 0.031687602 -0.10942827
-0.4263233 -0.59545493 -0.5446612 0.49640682 0.38997415 0.0022819433 0.3806304 -0.39923534
0.021929245 -0.16300824 0.24441978 0.65151674 0.543259 0.4528041 0.4721755 0.05571707
-0.20032777 -0.6106228 -0.20286459 -0.36144042 0.13503458 0.24130516 0.09861713 -0.0669911
0.5527315 0.5553625 0.6648732 0.5717151 -0.53814435 -0.034243852 -0.49962392 -0.5884489
-0.36069208 0.20468189 0.36523417 0.10171102 0.024639083 -0.22925253 0.17571484 -0.19416249
-0.60193986 -0.40128383 0.14175646 -0.0029083951 0.5770555 0.42759985 -0.57483196 -0.32330608
-0.12564585 0.4674506 0.48966017 -0.25928715 -0.26867136 -0.17649253 -0.067808345 -0.30090111
-0.26995426 0.47055855 -0.5281373 -0.46429527 -0.587912 -0.31357613 0.008266319 0.4124916
0.26792872 0.04949874 -0.20081683 -0.15251668 -0.65233797 0.11044655 0.53178686 0.71838015
0.3402074 -0.32547656 -0.51628816 -0.5852609 0.1602329 -0.5231475 0.37259698 0.058611367
0.65488654 -0.5436315 -0.11205286 -0.08070648 -0.14374103 -0.45524514 -0.6314258 0.22054379
0.36302045 0.31697342 -0.13627796 -0.4424612 -0.6680185 0.1033619 0.22216383 0.46883947
-0.16346398 0.3530422 -0.30529553 0.15491447 0.1299917 -0.48607248 -0.123989195 -0.18340646
0.5412521 -0.08125685 0.05880491 -0.543487 0.41215676 -0.3780914 0.39566818 0.18099862
0.058762483 -0.47635192 -0.012844928 0.23885633 0.5358875 0.13153158 -0.2899713 0.22184595
-0.46382368 -0.467337 0.45631966 0.058773447 0.5075784 -0.3931697 0.2199259 -0.28402007
-0.6919234 0.21379605 0.4112799 0.18106802 0.050025947 0.4150253 -0.24229105 0.4492879
-0.38572127 0.23182234 -0.011098603 -0.45748088 -0.43723157 -0.5233022 0.19354463 -0.6418588
0.4068825 0.09925933 -0.00040751966 -0.39027116 -0.4547951 0.40244693 -0.44167396 -0.26531488
0.58189434 0.34090042 -0.27581713 0.04030062 0.5845331 -0.5506171 0.35519928 0.28150094
-0.09859521 -0.2455448 -0.09134922 0.06633209 -0.1338659 -0.03526921 0.5478779 0.10739015
0.13669801 -0.04088863 -0.085985586 -0.26347482 -0.58814764 0.03474357 -0.2913024 -0.4027111
00000000: f57f efbe c339 093f 972d 743e 8d84 00bf
00000010: 8b47 b6be 60c2 0dbe 026b 2ebe 47c5 92be
00000020: 217e 52be 60f2 cebe 6cae a0be 59c7 ac3d
00000030: 01ad 9abe a07d 7e3e 755b 0dbf 5c17 13bf
00000040: 45e6 913e cc2a e2bc 8b2c 063d c9ca 893e
00000050: cbbb 633e d91c 0f3f 7670 01bf 5bb5 d23e
00000060: 7194 663e 05de f2be 1cdb 6f3d 8ddd 33bf
00000070: 78a3 473e 62c8 9f3e a99b c13e 494f 033f
00000080: b9b3 833e c9fd acbd 693b 43be 77dd e1bd
00000090: f50a e1be a67b e1be 2b80 ad3e d3ea 6f3e
000000a0: 71ad 3b3d a6f9 f33d 67ac 7cbe e5e7 2a3f
000000b0: 7971 3fbc b027 b73e f0f2 093f 9d60 04bf
000000c0: 010e 0d3f eb12 bc3e c317 8cbe c239 303f
000000d0: 31b3 8bbe a50c efbe e253 3b3f eedc 7ebd
000000e0: d7ee 05bf a441 65be 8af9 6d3d b8d2 8b3e
000000f0: 735b ae3e 5013 203f b98c fa3e 4b58 14bf
00000100: 7de9 d43e 740c b4be 6524 1bbf 98af cf3e
00000110: 7f35 e0bd 47d2 0e3f 06e1 88bd 49c4 1fbe
00000120: 1c11 553d 5de1 013e 0b6d 433e 1d98 653e
00000130: 0e6e 56be 2ea1 dc3e dcca 013d ee1b e0bd
00000140: 0c47 dabe bc6f 18bf eb6e 0bbf 0929 fe3e
00000150: b1aa c73e a88c 153b fde1 c23e 9368 ccbe
00000160: f6a4 b33c a2eb 26be 2e49 7a3e cdc9 263f
00000170: 0613 0b3f f0d5 e73e fdc0 f13e 9537 643d
00000180: b922 4dbe c751 1cbf bcbb 4fbe b80e b9be
00000190: 8146 0a3e b318 773e c7f7 c93d a132 89bd
000001a0: d07f 0d3f 3d2c 0e3f 2135 2a3f ec5b 123f
000001b0: d4c3 09bf 4843 0cbd b5ce ffbe 96a4 16bf
000001c0: a2ac b8be 2198 513e f9ff ba3e de4d d03d
000001d0: e7d7 c93c 2dc1 6abe 97ee 333e 88d2 46be
000001e0: bb18 1abf 1375 cdbe 9b28 113e c69a 3ebb
000001f0: e9b9 133f 5eee da3e 3028 13bf 6088 a5be
00000200: 4ea9 00be af55 ef3e bdb4 fa3e 49c1 84be
00000210: 4b8f 89be 75ba 34be 1adf 8abd b60f 9abe
00000220: 7237 8abe 0ded f03e 0234 07bf 1cb8 edbe
00000230: 6781 16bf 0d8d a0be 746f 073c 1932 d33e
00000240: f42d 893e 31bf 4a3d eda2 4dbe 552d 1cbe
00000250: 9fff 26bf cd31 e23d 2f23 083f c3e7 373f
00000260: aa2f ae3e dda4 a6be 762b 04bf a9d3 15bf
00000270: 1814 243e ffec 05bf 08c5 be3e 7912 703d
00000280: a5a6 273f 6f2b 0bbf f87b e5bd 7049 a5bd
00000290: d930 13be e415 e9be 1fa5 21bf 3bd6 613e
000002a0: d1dd b93e 574a a23e 738c 0bbe 468a e2be
000002b0: 4303 2bbf 67af d33d ea7e 633e ba0b f03e
000002c0: 1a63 27be f2c1 b43e b24f 9cbe e6a1 1e3e
000002d0: 8b1c 053e 7ede f8be 0cee fdbd e7ce 3bbe
000002e0: 7f8f 0a3f fe69 a6bd 6bdd 703d f721 0bbf
000002f0: 3606 d33e 3295 c1be 0595 ca3e b457 393e
00000300: eeb0 703d 66e4 f3be 8873 52bc c196 743e
00000310: ec2f 093f 37b0 063e 1e77 94be 962b 633e
00000320: 4c7a edbe cc46 efbe bba2 e93e 6dbc 703d
00000330: a8f0 013f 8a4d c9be 4134 613e 146b 91be
00000340: e421 31bf 5aed 5a3e 4793 d23e e569 393e
00000350: 02e8 4c3d 327e d43e 251b 78be 1009 e63e
00000360: 427d c5be d662 6d3e ead6 35bc ef3a eabe
00000370: d1dc dfbe 22f7 05bf 9030 463e dc50 24bf
00000380: e752 d03e 7a48 cb3d 5da8 d5b9 9fd1 c7be
00000390: e7da e8be 860d ce3e 1723 e2be 5ad7 87be
000003a0: 07f7 143f 808a ae3e e737 8dbe 4312 253d
000003b0: f6a3 153f 3ef5 0cbf aedc b53e e420 903e
000003c0: 49ec c9bd 1970 7bbe 4d15 bbbd 1ed9 873d
000003d0: 2414 09be 7276 10bd ba41 0c3f 5eef db3d
000003e0: 90fa 0b3e d67a 27bd 3619 b0bd 2ce6 86be
000003f0: d890 16bf 464f 0e3d 9725 95be 2630 cebe

fc1.bias f4 [90]
-0.025115184 -0.43473083 0.078871004 -0.19243221 -0.5030319 0.5511246 -0.08824763 0.08309955
-0.16127819 0.17420338 0.032823313 -0.43318307 -0.5304505 0.5113492 0.14335464 -0.4909858
-0.5896486 0.1262202 -0.4242284 -0.17117637 -0.018043207 -0.25846818 0.4609944 -0.18347685
-0.16213962 0.47180328 0.25478214 -0.022869308 -0.19196548 -0.1401502 -0.10429819 0.40637708
0.022781473 -0.2886127 0.047863327 -0.032259285 0.38589695 -0.35141587 0.2689458 -0.49701107
0.0059021395 0.4725654 0.00692184 -0.28194878 -0.60385257 -0.1776492 0.5191081 -0.0054474133
-0.5252496 0.16930759 0.06188173 -0.38618127 -0.5914479 0.5066195 -0.5422806 0.5635674
-0.16716474 -0.24854504 0.20153283 0.1364504 -0.2606594 0.22562541 -0.4746971 -0.19556326
0.42822143 -0.123968 0.021931857 0.49174318 0.19414932 0.6439304 0.17987244 -0.2351156
0.34726304 0.39475602 0.5888747 0.17451108 -0.19906233 0.44187486 -0.16730203 -0.61401737
0.593249 0.5246001 -0.19310352 -0.14938843 -0.457069 0.029946482 0.2519765 0.4192696
0.13691603 -0.48007402
00000000: 5cbe cdbc 0a95 debe 1f87 a13d f30c 45be
00000010: b3c6 00bf 8016 0d3f 2cbb b4bd 1930 aa3d
00000020: 1c26 25be 5f62 323e bd71 063d 2cca ddbe
00000030: 9bcb 07bf c8e7 023f 8fcb 123e 7e62 fbbe
00000040: 36f3 16bf de3f 013e 7734 d9be dc48 2fbe
00000050: 59cf 93bc f155 84be 7507 ec3e 5be1 3bbe
00000060: ee07 26be 3390 f13e ce72 823e 6a58 bbbc
00000070: 9992 44be 8983 0fbe 4a9a d5bd a810 d03e
00000080: 36a0 ba3c 0bc5 93be 560c 443d 5022 04bd
00000090: 4994 c53e c8ec b3be 44b3 893e 3c78 febe
000000a0: bc66 c13b 18f4 f13e 9ad0 e23b 975b 90be
000000b0: 1596 1abf ace9 35be 45e4 043f 3780 b2bb
000000c0: c276 06bf f85e 2d3e b277 7d3d 8db9 c5be
000000d0: 2169 17bf d1b1 013f e7d2 0abf f445 103f
000000e0: 3c2d 2bbe 9782 7ebe 9f5e 4e3e a7b9 0b3e
000000f0: 2675 85be 590a 673e 800b f3be bc41 48be
00000100: d73f db3e efe2 fdbd 70aa b33c c3c5 fb3e
00000110: 14cf 463e 9fd8 243f 7b30 383e 25c2 70be
00000120: 76cc b13e 761d ca3e 7ec0 163f 08b3 323e
00000130: ffd6 4bbe 6c3d e23e 3951 2bbe 3e30 1dbf
00000140: 2bdf 173f 314c 063f eebc 45be 48f9 18be
00000150: f304 eabe 5352 f53c 1003 813e 81aa d63e
00000160: b733 0c3e 43cc f5be

fc2.weight f4 [90, 90]
0.2089944 -0.05309858 -0.08541442 -0.008618451 0.02323977 0.07227388 0.044966668 -0.07568763
-0.24836412 0.0041703996 0.10518562 0.07514276 0.058929775 -0.03689008 0.03012777 -0.05491144
-0.07913126 -0.12451292 -0.07559522 0.13020946 0.03923201 0.0137667125 0.123060405 -0.19212416
0.077790275 0.04263459 -0.08410297 -0.030896459 0.07664164 -0.04375482 0.14901415 -0.0490554
0.083687216 0.022292297 0.07556082 0.042385697 -0.057131678 0.07525643 -0.1811305 0.011845608
0.11852823 -0.009670086 -0.015033894 -0.07754164 0.071366034 -0.022367146 -0.022247693 0.0056892796
0.04035776 -0.068975866 -0.030887598 0.023383254 0.013598241 -0.008652997 -0.049319144 -0.0441466
-0.107947566 0.05327634 -0.083357185 -0.05859094 0.015885212 0.16189864 -0.068078354 0.05574606
-0.22754781 -0.020138178 0.002820675 0.055881105 -0.083243 -0.0038708393 -0.101450555 -0.10868618
0.056467358 0.030341228 -0.0026794164 0.040934566 -0.10218792 0.13709962 0.12779774 0.029897517
-0.20462722 0.002077803 0.0032382226 -0.07077511 -0.018575681 0.07467679 0.12525477 -0.050793465
0.07545823 -0.026692286 0.039967097 0.026508486 -0.025353206 -0.056904756 -0.11409908 -0.0117748035
0.006730194 -0.0008531679 0.25362185 -0.055582747 0.048687782 -0.053926986 -0.059903286 0.04175945
0.20743352 -0.047844954 -0.031170487 0.018967204 -0.119899616 -0.003939914 -0.01661494 0.04547953
0.015082135 -0.08450085 0.062280275 0.054578565 0.038804833 0.0728608 0.1075363 0.05572863
0.04599348 0.099070415 -0.10805909 -0.005964939 0.050929204 -0.052392755 0.19236253 0.07728744
-0.01113149 -0.07353329 -0.09223349 -0.056647852 -0.09325413 0.007471819 -0.0760695 0.06723016
-0.08141653 -0.05981454 -0.17017452 0.027343644 -0.057867453 0.05097014 0.09294518 0.16767485
-0.12566239 0.12673472 0.01332141 -0.030598322 -0.014361715 0.0029001033 -0.020360239 0.037495922
0.039185237 0.013402202 -0.012627296 0.010215197 0.066745326 0.026996864 0.09688935 -0.052668083
0.013996951 0.02963523 0.049496807 0.04209231 0.02814075 -0.056145303 0.090443075 0.06978871
-0.033997525 -0.07633966 0.06751023 0.06965714 -0.029540552 -0.10101294 -0.088841625 0.022205329
0.029706774 0.082307585 -0.08362453 -0.06367763 0.0042509884 -0.08093885 0.03901062 -0.016718619
-0.051164053 -0.027805835 0.015534222 0.05877071 -0.05473313 -0.098145604 0.051603742 0.09985488
-6.276369e-05 -0.051269997 0.042217635 0.054611526 -0.016545594 -0.10307591 0.089296095 0.10411971
-0.10537992 -0.099842966 -0.08337381 -0.06091486 -0.06448869 -0.028903276 0.004492037 -0.097539306
-0.08126168 0.0125934705 0.102156825 -0.02719985 -0.09450863 -0.104244836 -0.02446729 -0.042361245
0.010571338 0.09669215 -0.03814237 0.06494183 0.048973687 -0.074206695 -0.076804884 0.07271191
-0.03414692 -0.10467039 -0.039105862 0.082750596 -0.027314521 0.10481431 0.10374025 -0.054506008
-0.051826358 -0.053065617 0.09213198 -0.06432216 0.088896 0.0044744536 -0.0066913664 0.011016704
-0.07447471 0.017768025 0.046318956 -0.030342042 -0.086277455 -0.062686995 0.02832701 0.09577624
0.031603612 0.026365079 -0.004010752 0.05542069 -0.097605065 -0.07371462 -0.056625485 -0.044082217
00000000: a102 563e e67d 59bd c1ed aebd 6734 0dbc
00000010: 5561 be3c 5404 943d f82e 383d 1e02 9bbd
00000020: 2a53 7ebe d9a7 883b 8f6b d73d 73e4 993d
00000030: 5960 713d 0d1a 17bd 83ce f63c d1ea 60bd
00000040: 920f a2bd a100 ffbd abd1 9abd a155 053e
00000050: beb1 203d c78d 613c 1807 fc3d 32bc 44be
00000060: 8250 9f3d 9ca1 2e3d 2e3e acbd 921a fdbc
00000070: 4bf6 9c3d 4138 33bd 2a97 183e 51ee 48bd
00000080: 3464 ab3d 569e b63c a2bf 9a3d a09c 2d3d
00000090: e802 6abd 0b20 9a3d 467a 39be 1514 423c
000000a0: eebe f23d 486f 1ebc b950 76bc 27ce 9ebd
000000b0: 5b28 923d 4e3b b7bc cb40 b6bc 236d ba3b
000000c0: 2e4e 253d 3843 8dbd fd07 fdbc 3d8e bf3c
000000d0: 28cb 5e3c 4dc5 0dbc df02 4abd 11d3 34bd
000000e0: 9d13 ddbd 4b38 5a3d 2cb7 aabd 0efd 6fbd
000000f0: b421 823c c2c8 253e aa6c 8bbd fb55 643d
00000100: 4b02 69be d2f8 a4bc 13db 383b 96e3 643d
00000110: 4e7b aabd e8ad 7dbb 4fc5 cfbd dc96 debd
00000120: 514a 673d 2b8e f83c 2699 2fbb 01ab 273d
00000130: e647 d1bd d863 0c3e 69dd 023e a3eb f43c
00000140: cc89 51be c02b 083b 5c38 543b 8af2 90bd
00000150: 072c 98bc 25f0 983d c942 003e cf0c 50bd
00000160: d889 9a3d c8a9 dabc 8ab4 233d 5328 d93c
00000170: 87b1 cfbc f614 69bd c7ac e9bd 1beb 40bc
00000180: f688 dc3b 21a7 5fba b9da 813e bcaa 63bd
00000190: d76c 473d 8be2 5cbd 265d 75bd f50b 2b3d
000001a0: 7469 543e 12f9 43bd 4059 ffbc 1c61 9b3c
000001b0: ee8d f5bd 651a 81bb 0e1c 88bc be48 3a3d
000001c0: 0f1b 773c c80e adbd 9a19 7f3d c68d 5f3d
000001d0: d1f1 1e3d 0b38 953d fe3b dc3d b443 643d
000001e0: a963 3c3d 6ee5 ca3d 164e ddbd 8975 c3bb
000001f0: 249b 503d c999 56bd affa 443e e148 9e3d
00000200: da60 36bc 9f98 96bd e9e4 bcbd 9407 68bd
00000210: 05fc bebd 29d6 f43b 53ca 9bbd f7af 893d
00000220: b6bd a6bd 1700 75bd 3b42 2ebe c7ff df3c
00000230: 6c06 6dbd 11c6 503d 0b5a be3d f5b2 2b3e
00000240: a4ad 00be bfc6 013e 0b42 5a3c 55a9 fabc
00000250: 664d 6bbc a90f 3e3b 84ca a6bc 5395 193d
00000260: b380 203d e994 5b3c b8e2 4ebc a45d 273c
00000270: c6b1 883d 8728 dd3c ec6d c63d 7dba 57bd
00000280: 7853 653c 95c5 f23c 2abd 4a3d fc68 2c3d
00000290: 6e87 e63c 9ef8 65bd 383a b93d 62ed 8e3d
000002a0: fd40 0bbd f857 9cbd ce42 8a3d 67a8 8e3d
000002b0: 07ff f1bc dfdf cebd 99f2 b5bd f3e7 b53c
000002c0: 9f5b f33c e190 a83d 5643 abbd 6b69 82bd
000002d0: e04b 8b3b 45c3 a5bd 9ac9 1f3d 7cf5 88bc
000002e0: 6691 51bd 10c9 e3bc 4083 7e3c 8eb9 703d
000002f0: d92f 60bd 9000 c9bd 725e 533d b780 cc3d
00000300: 00a0 83b8 7d00 52bd 66ec 2c3d 56b0 5f3d
00000310: a08a 87bc 7619 d3bd dfe0 b63d b73c d53d
00000320: 6dd1 d7bd 787a ccbd e3bf aabd dc81 79bd
00000330: a512 84bd 90c6 ecbc f031 933b b0c2 c7bd
00000340: 866c a6bd d854 4e3c 9937 d13d 38d2 debc
00000350: be8d c1bd 517e d5bd a06f c8bc fc82 2dbd
00000360: 6833 2d3c 8906 c63d 2c3b 1cbd 3900 853d
00000370: a298 483d aef9 97bd e14b 9dbd fbe9 943d
00000380: a4dd 0bbd 6e5d d6bd 782d 20bd 2579 a93d
00000390: b4c2 dfbc e3a8 d63d c575 d43d b141 5fbd
000003a0: e047 54bd 555b 59bd b1af bc3d 56bb 83bd
000003b0: 1b0f b63d 709e 923b 4043 dbbb 687f 343c
000003c0: 3286 98bd 408e 913c f2b8 3d3d e08f f8bc
000003d0: 3cb2 b0bd 0a62 80bd 0c0e e83c 5526 c43d
000003e0: ca72 013d 94fb d73c a06c 83bb ce00 633d
000003f0: 2ae5 c7bd b1f7 96bd 20f0 67bd 8e8f 34bd

fc2.bias f4 [90]
-0.05482326 0.1550399 -0.060418036 0.06643568 0.04890334 0.016963907 -0.113998435 -0.08903989
0.01696265 0.09764101 -0.07770569 0.030694643 0.0983666 0.058852248 -0.042527083 -0.07786864
-0.07317814 0.07512542 0.08756904 -0.0029818292 -0.11688107 0.043710906 -0.08960022 0.12220118
0.02932476 -0.050535414 0.0365307 -0.005091142 0.008376769 -0.043563772 0.06787714 0.104488656
0.0970193 0.0720842 0.069615975 0.12724353 -0.019812206 0.047786977 -0.07915328 0.057655018
0.07717436 -0.09773948 0.061495986 0.041388236 -0.06324147 -0.04051993 -0.00092048553 0.052971166
-0.04576805 -0.012564588 -0.0019416685 -0.06208086 -0.031540103 0.14336684 0.11848136 0.06647418
-0.11097777 0.09857483 0.05913409 0.09770288 -0.0071547264 -0.11901092 -0.04723249 0.006185239
-0.077400684 0.023954935 -0.03005707 -0.094201244 0.027606493 -0.009508187 0.06160775 -0.08606997
0.042339325 0.09901629 -0.028934821 0.030219264 0.0037426222 0.112433776 -0.023128003 -0.03333282
0.0559757 -0.09096173 0.016464954 0.051374007 0.025831582 0.018927272 -0.071497925 0.012829339
-0.04603286 0.022179805
00000000: 5b8e 60bd c8c2 1e3e e778 77bd 6e0f 883d
00000010: de4e 483d e4f7 8a3c 0378 e9bd 8c5a b6bd
00000020: 41f5 8a3c 03f8 c73d 2924 9fbd 5573 fb3c
00000030: 6e74 c93d 0e0f 713d e130 2ebd 9879 9fbd
00000040: 6cde 95bd 5bdb 993d 6657 b33d cb6a 43bb
00000050: 585f efbd 350a 333d 5280 b7bd 9d44 fa3d
00000060: 7b3a f03c 39fe 4ebd 37a1 153d 98d3 a6bb
00000070: b73e 093c ed6f 32bd 2c03 8b3d 26fe d53d
00000080: 0eb2 c63d e2a0 933d d292 8e3d 214c 023e
00000090: 354d a2bc 47bc 433d 1d1b a2bd ab27 6c3d
000000a0: 970d 9e3d a32b c8bd 37e3 7b3d b686 293d
000000b0: be84 81bd 3af8 25bd bd4c 71ba 4bf8 583d
000000c0: 4777 3bbd b4db 4dbc 957f feba 8048 7ebd
000000d0: 3230 01bd c2ce 123e 5ba6 f23d 9d23 883d
000000e0: 5048 e3bd 9ae1 c93d 9636 723d 7318 c83d
000000f0: 3272 eabb ffbb f3bd db76 41bd 8cad ca3b
00000100: 4084 9ebd 243d c43c 3f3a f6bc 95ec c0bd
00000110: 0327 e23c 3ac8 1bbc 6858 7c3d 7445 b0bd
00000120: 006c 2d3d 0dc9 ca3d b808 edbc 648e f73c
00000130: c846 753b ae43 e63d f076 bdbc ff87 08bd
00000140: c746 653d 254a babd 83e1 863c 8d6d 523d
00000150: c19c d33c 5e0d 9b3c 816d 92bd 2632 523c
00000160: f48c 3cbd 6cb2 b53c

fc3.weight f4 [90, 90]
-0.37906554 0.10831507 0.079751246 -0.009468871 0.10941229 -0.07542652 -0.12390134 0.013372044
0.04015808 0.0645208 -0.05025919 -0.062647425 0.104463436 0.04421177 -0.09191247 -0.10738183
-0.13454644 -0.2211151 -0.049752526 0.037640184 -0.08207413 -0.22801977 0.0051171468 0.080976106
-0.053940818 -0.033753663 0.12550128 -0.04785722 -0.12834701 0.03807858 -0.0036356766 -0.02887555
0.07245125 0.10744993 0.017682852 0.040763423 0.11860869 -0.062716685 -0.103845775 -0.017764995
-0.31555545 -0.0459191 0.111746475 -0.04233463 0.17729887 -0.15926076 -0.01866552 0.0012813348
-0.110185586 -0.2547516 -0.081773855 -0.0041303174 0.050135877 -0.035255995 0.016130034 0.226998
-0.1583293 -0.038403776 0.1042105 0.020724764 -0.21241075 -0.030038243 0.08469204 0.081574656
-0.15109508 0.20124695 -0.03080023 0.23800647 0.060451645 0.082586214 0.11703693 0.09615656
-0.06131947 0.18415155 -0.04174805 -0.014281229 0.10879578 -0.021717891 0.2084785 -0.17068383
-0.13281062 0.01680173 0.1511536 0.10560771 0.14375576 -0.048297875 -0.10188711 0.087409824
-0.15350178 0.0063097896 -0.011557739 0.11438352 -0.0064304546 -0.023111911 -0.05518941 0.07156417
0.032999426 0.06788325 -0.05527941 -0.090252005 0.09001269 0.16135283 0.0585923 0.054879148
0.019777648 0.08578692 -0.17189187 0.07320943 0.07058574 0.18131103 -0.017320441 0.079610914
-0.016312452 0.019938977 -0.047544274 -0.01255171 -0.06323655 -0.25097594 0.1027683 -0.097680576
0.12968414 -0.11569003 0.0870681 0.040160168 -0.2969097 0.09079919 -0.081605256 -0.100967206
-0.05122066 -0.10282736 0.24513927 0.012081 0.077916995 0.04309628 0.028192481 0.18813507
-0.16725428 -0.010994687 0.13663195 -0.008262721 0.07624999 -0.07608202 0.08462305 -0.23447174
0.014333315 -0.081545755 0.014934793 0.0942593 0.051537797 0.18388489 -0.042951915 0.074884444
-0.1446509 0.02590246 -0.121092066 0.0484271 -0.05407809 -0.13493937 -0.012822235 -0.19037843
0.018426834 -0.0046390295 -0.048885066 -0.23336056 0.028268535 -0.117819965 -0.047055595 -0.05861743
0.07833877 -0.083818324 0.08538075 -0.0056855828 -0.042183705 0.05396371 0.12135901 -0.027574744
0.12020688 -0.036923364 0.045417726 -0.09495963 -0.0936507 -0.0013744216 0.0056836307 -0.099796504
0.027862692 0.06496689 -0.017368281 0.031019107 0.072549745 -0.21059094 -0.009131521 0.08039944
-0.061093464 0.034155864 -0.0487501 -0.03470729 -0.05333502 -0.028487826 0.016111702 0.19840148
-0.005448014 -0.038326167 -0.076274246 0.10144277 0.059925698 0.09031189 -0.028874628 -0.1395868
0.13357992 -0.018249575 0.08753026 0.03704733 -0.034353685 0.13715976 -0.045764312 0.21323425
-0.028615318 0.0400903 0.09791941 0.030506652 0.2909914 0.07200011 0.11301703 0.094391994
-0.06803708 0.13810726 -0.19630796 0.03030349 0.070661016 0.06776984 0.034101944 -0.101367526
-0.07715265 -0.18522717 0.10367944 -0.12452208 -0.05089747 -0.059573762 0.053348817 0.119721204
0.09034637 -0.16097884 -0.12225395 -0.075127326 -0.069286354 -0.021720495 0.09911222 0.03698771
0.14623828 -0.11071776 0.14068264 0.05086466 0.12983146 0.0264726 0.01602091 -0.1213379
00000000: e114 c2be 4bd4 dd3d 9f54 a33d 5323 1bbc
00000010: 8d13 e03d 3879 9abd fcbf fdbd 6b16 5b3c
00000020: cd7c 243d 7b23 843d 95dc 4dbd 4b4d 80bd
00000030: edf0 d53d 6717 353d 9b3c bcbd 01eb dbbd
00000040: 8bc6 09be ff6b 62be 4ec9 4bbd 982c 1a3d
00000050: 7b16 a8bd 047e 69be bdad a73b cdd6 a53d
00000060: 0cf1 5cbd 4841 0abd 6883 003e ef05 44bd
00000070: 666d 03be 49f8 1b3d 8844 6ebb 6b8c ecbc
00000080: 5261 943d b50e dc3d a1db 903c 8cf7 263d
00000090: 1de9 f23d 9b71 80bd 18ad d4bd e587 91bc
000000a0: 7c90 a1be ab15 3cbd 56db e43d 1467 2dbd
000000b0: d68d 353e 4115 23be 6fe8 98bc 76f2 a73a
000000c0: fba8 e1bd cd6e 82be 0d79 a7bd 9d57 87bb
000000d0: 475b 4d3d 9768 10bd 2223 843c 2a72 683e
000000e0: 1321 22be 474d 1dbd 516c d53d fbc6 a93c
000000f0: 3482 59be c312 f6bc 0573 ad3d 9d10 a73d
00000100: abb8 1abe ae13 4e3e c450 fcbc f8b7 733e
00000110: 259c 773d f622 a93d 0fb1 ef3d bbed c43d
00000120: 202a 7bbd 3992 3c3e 0100 2bbd d1fb 69bc
00000130: 52d0 de3d b8e9 b1bc 637b 553e bec7 2ebe
00000140: 82ff 07be c8a3 893c 02c8 1a3e db48 d83d
00000150: b634 133e fed3 45bd 30aa d0bd ec03 b33d
00000160: 922f 1dbe 5ac2 ce3b ac5c 3dbc e841 ea3d
00000170: 90b6 d2bb 3155 bdbc 4a0e 62bd 3c90 923d
00000180: 682a 073d 6006 8b3d aa6c 62bd 0bd6 b8bd
00000190: 9358 b83d ad39 253e 7bfe 6f3d f5c8 603d
000001a0: bc04 a23c 0db1 af3d 6c04 30be d3ee 953d
000001b0: 428f 903d 99a9 393e 99e3 8dbc 0c0b a33d
000001c0: b1a1 85bc 1157 a33c c9bd 42bd b0a5 4dbc
000001d0: 2a82 81bd eb7f 80be 3078 d23d c10c c8bd
000001e0: ebcb 043e e5ee ecbd c350 b23d fd7e 243d
000001f0: 8c04 98be edf4 b93d a820 a7bd e5c7 cebd
00000200: c1cc 51bd 2797 d2bd ca05 7b3e 63ef 453c
00000210: f292 9f3d ba85 303d ebf3 e63c 7ba6 403e
00000220: b544 2bbe 0f23 34bc 3fe9 0b3e 5d60 07bc
00000230: f428 9c3d e4d0 9bbd da4e ad3d 5c19 70be
00000240: 48d6 6a3c 7601 a7bd 10b1 743c 050b c13d
00000250: 4c19 533d 524c 3c3e 59ee 2fbd 045d 993d
00000260: 5e1f 14be 6531 d43c 1eff f7bd 7f5b 463d
00000270: fd80 5dbd 8c2d 0abe 5a14 52bc 90f2 42be
00000280: dff3 963c 0003 98bb b53b 48bd 12f6 6ebe
00000290: 6a93 e73c 984b f1bd 5ebd 40bd d518 70bd
000002a0: 1470 a03d f1a8 abbd 1adc ae3d 204e babb
000002b0: d2c8 2cbd 0d09 5d3d 138b f83d 6ee4 e1bc
000002c0: 062f f63d f43c 17bd f007 3a3d 327a c2bd
000002d0: f0cb bfbd f025 b4ba c03d ba3b 1c62 ccbd
000002e0: 4d40 e43c 5c0d 853d ed47 8ebc c81b fe3c
000002f0: f694 943d 27a5 57be 609c 15bc 76a8 a43d
00000300: 243d 7abd 05e7 0b3d 2fae 47bd 3b29 0ebd
00000310: d275 5abd 4d5f e9bc b0fc 833c c229 4b3e
00000320: 4185 b2bb e6fb 1cbd ac35 9cbd 3ac1 cf3d
00000330: a674 753d 71f5 b83d 7c8a ecbc d8ef 0ebe
00000340: 2dc9 083e 2280 95bc 1143 b33d f1be 173d
00000350: 73b6 0cbd 9c73 0c3e 5c73 3bbd 145a 5a3e
00000360: ac6a eabc ba35 243d f989 c83d 16e9 f93c
00000370: d3fc 943e cb74 933d 7975 e73d 9750 c13d
00000380: 0657 8bbd fd6b 0d3e f404 49be 063f f83c
00000390: b9b6 903d eaca 8a3d 7bae 0b3d c799 cfbd
000003a0: 3502 9ebd 31ac 3dbe e355 d43d 6f05 ffbd
000003b0: de79 50bd 9e03 74bd 4a84 5a3d 6430 f53d
000003c0: 8507 b93d a3d7 24be 4760 fabd 5bdc 99bd
000003d0: 01e6 8dbd 2eef b1bc 59fb ca3d 6d80 173d
000003e0: 7dbf 153e febf e2bd 1c0f 103e 7657 503d
000003f0: 8af2 043e 11dd d83c 493e 833c 0180 f8bd

fc3.bias f4 [90]
0.020177478 0.09991735 0.048118014 0.039489385 0.073177025 0.068649985 -0.07832034 0.035360016
0.008416602 -0.04943202 -0.06106975 0.061482616 -0.0018527909 -0.09352951 0.13746132 0.04760433
0.10170094 -0.09587583 0.11233928 -0.12816194 -0.02218204 0.050716016 -0.02157025 -0.03174037
0.034044273 -0.0065908553 -0.09802316 -0.045509025 -0.060797438 -0.0849742 0.014125502 -0.055391196
-0.06835198 -0.03890355 0.112367444 -0.10461496 -0.0016024646 0.07846452 0.063733146 0.095748074
0.09651691 -0.011824399 -0.053507116 -0.055796564 0.08718277 0.0037502304 0.15273765 0.11063657
0.053494867 -0.05864783 0.050843585 0.045410957 0.0061165434 -0.022905465 0.082067624 0.048424367
-0.020349951 0.04074527 -0.01222315 -0.0041846987 0.08384832 0.043519996 -0.103407755 0.010971172
0.029768517 -0.012362694 0.024328524 0.08480964 0.075690776 -0.025336355 0.09117863 0.021880072
0.104154155 -0.007349431 -0.046183474 0.055204052 -0.08871094 0.07324729 -0.0019543848 0.07012047
0.039490093 0.14883117 -0.061300468 -0.06878 0.041964084 -0.074686676 0.12800397 0.020581163
0.0012213741 0.05052264
00000000: 3d4b a53c 78a1 cc3d 6517 453d 9fbf 213d
00000010: d6dd 953d 5d98 8c3d 6a66 a0bd aad5 103d
00000020: cae5 093c 3b79 4abd 4624 7abd 32d5 7b3d
00000030: 59d9 f2ba 668c bfbd a9c2 0c3e c2fc 423d
00000040: 9548 d03d 8c5a c4bd 2312 e63d e23c 03be
00000050: 1cb7 b5bc 99bb 4f3d 18b4 b0bc 3102 02bd
00000060: 0272 0b3d 1af8 d7bb 5ec0 c8bd ac67 3abd
00000070: bc06 79bd f406 aebd a66e 673c e1e1 62bd
00000080: 1ffc 8bbd 5459 1fbd e720 e63d 5e40 d6bd
00000090: ca09 d2ba 02b2 a03d 8686 823d 9117 c43d
000000a0: a8aa c53d 20bb 41bc 472a 5bbd f08a 64bd
000000b0: e18c b23d 6dc6 753b 4267 1c3e 6d95 e23d
000000c0: 6f1d 5b3d b538 70bd 5d41 503d d700 3a3d
000000d0: 496d c83b 3ea4 bbbc 1213 a83d a158 463d
000000e0: f1b4 a6bc 83e4 263d 9b43 48bc cc1f 89bb
000000f0: abb8 ab3d 0642 323d 72c7 d3bd 6ec0 333c
00000100: 1bdd f33c e68c 4abc 9d4c c73c adb0 ad3d
00000110: c403 9b3d 308e cfbc ddbb ba3d d63d b33c
00000120: c64e d53d 7fd3 f0bb e22a 3dbd a51d 623d
00000130: 15ae b5bd ad02 963d 2315 00bb 529b 8f3d
00000140: 5dc0 213d 3367 183e 3316 7bbd 87dc 8cbd
00000150: 88e2 2b3d 54f5 98bd 7913 033e d499 a83c
00000160: 8416 a03a d4f0 4e3d

fc4.weight f4 [1, 90]
-0.3741385 0.15326978 0.17385483 -0.062102977 0.096255116 0.11645204 -0.06076086 0.039778274
-0.14872915 -0.11977576 -0.09403479 -0.12456942 -0.13447192 0.001917468 -0.047459073 -0.11404491
0.23191395 0.08603834 -0.10547597 0.049291246 0.051027976 -0.15136589 0.1252872 0.14935449
0.16023482 0.12919484 0.058782063 0.05423269 -0.067051135 0.12691174 0.08362643 -0.06249212
-0.22251557 -0.014694762 -0.14167891 -0.0021730594 0.18815485 -0.12750362 -0.16369985 0.14404032
-0.0733178 -0.06413473 -0.001025774 -0.07157314 0.08144888 0.080085896 -0.20203316 -0.058494903
-0.083322935 -0.012172673 -0.0800076 0.08122081 -0.05420003 -0.14196797 -0.36146972 0.13708791
-0.08690259 0.10915978 0.20081069 -0.25795093 0.25543615 -0.08374281 0.08363269 -0.094996065
0.0712515 -0.28494927 -0.12613049 0.12503669 0.09190284 -0.06564004 -0.05556471 -0.12758885
0.14868477 0.123424284 0.07291294 0.051308297 -0.120714344 0.05008973 0.15771852 -0.09895459
0.07152071 0.243891 -0.012853764 -0.09040452 -0.15018876 0.05616969 -0.09896966 0.09210993
-0.111592114 0.10994963
00000000: 158f bfbe c1f2 1c3e 0007 323e b15f 7ebd
00000010: 6721 c53d 687e ee3d 61e0 78bd 8bee 223d
00000020: 744c 18be fe4c f5bd 5095 c0bd 411e ffbd
00000030: 02b3 09be 8d53 fb3a 7264 42bd 6190 e9bd
00000040: da7a 6d3e df34 b03d c903 d8bd 9ee5 493d
00000050: b602 513d a9ff 1abe 4a4b 003e 62f0 183e
00000060: 9914 243e a74b 043e 76c5 703d 1923 5e3d
00000070: 1b52 89bd 27f5 013e 5544 ab3d bdf7 7fbd
00000080: 1fdb 63be 4dc2 70bc 4714 11be e369 0ebb
00000090: aaab 403e 4f90 02be efa0 27be 4e7f 133e
000000a0: a527 96bd 1259 83bd 4473 86ba f094 92bd
000000b0: acce a63d 1304 a43d c8e1 4ebe 5a98 6fbd
000000c0: 37a5 aabd e46f 47bc 06db a3bd 1957 a63d
000000d0: da00 5ebd 0d60 11be 8f12 b9be c660 0c3e
000000e0: fcf9 b1bd 2a8f df3d 51a1 4d3e 2512 84be
000000f0: 87c8 823e 5a81 abbd 9e47 ab3d 4c8d c2bd
00000100: 4eec 913d dfe4 91be 5a28 01be 9e09 003e
00000110: 8e37 bc3d 496e 86bd d297 63bd a7a6 02be
00000120: d240 183e dfc5 fc3d 6153 953d a628 523d
00000130: 1539 f7bd e42a 4d3d f780 213e b4a8 cabd
00000140: 7379 923d 90be 793e 9898 52bc 0126 b9bd
00000150: 15cb 19be 3012 663d 9bb0 cabd 22a4 bc3d
00000160: 688a e4bd 462d e13d
