S.pt (torch, 70027 bytes, 7 tensors)

fc1.weight f4 [90, 3]
00000000: 6dd9 5ebf e4a1 1c3e 9098 9f3f 31a1 19be
00000010: b343 c0be ddc2 713f 742e e23e 1a32 01be
00000020: 548c dc3d f423 d1bd 1162 8abf 0d7f 81bf
00000030: 9bf6 4cbf 5e44 88bf 7aed 9f3f ae88 df3e
00000040: f86c ebbe 8063 02bf 19ae c63e a202 903e
00000050: b837 ee3e 1cea dbbe 3a51 89bf f9f7 57bf
00000060: d0c6 d5be 19ab 9d3f 6705 e13e c78f 6cbf
00000070: 9700 acbe 6fa8 0abf 0de7 183f 7a8f 6b3d
00000080: 2505 a6be aa2e 013e 22ca b23e 2c01 e23e
00000090: d4ca 1dbe 5254 9b3f 0558 133e 5af5 023e
000000a0: e4ca 4f3f 4f07 a8be 566f 84be 4863 1d3e
000000b0: 051f 993f ad10 00bf aa4e 32bf 8281 a03f
000000c0: 9e40 b4be 070d f6be a87c e93e f164 06bf
000000d0: 4dc9 9bbe bcce 7b3f 3542 8d3f 6b54 b43f
000000e0: ab92 123f 31ef 8a3e 47b0 86bd 406a 18bf
000000f0: b469 e0bd 238c 6d3f f6d5 65be 8efc 283f
00000100: e5d5 47bf eddb ad3f 64e1 913f b855 1ebf
00000110: e5a7 35bf a9ba b1be f5b2 10be dd7f 35bf
00000120: 2909 60be 4eb6 01bf 5847 1ebf 8ef3 a1bf
00000130: d6cc 3ebf a9ac 1b3f 7809 143f 34af 19be
00000140: 1ed2 ee3e 7166 463f 730d a2be 1b1d 593f
00000150: 8001 b7be 505b 2bbe 11e0 1e3f 5cef febe
00000160: 77bc 31bf 88ff 55bf 6388 92bd caab 283f
00000170: e1e0 413f 09b1 35bf 712b 6dbd d0a6 663f
00000180: 86f7 c0be 567e 833e 79ca 7a3f e596 96bf
00000190: 4d4c 963d 4913 5f3e 1a71 0abf af19 4cbf
000001a0: 263e 273e 9220 1dbf c34e 24bf 3029 0d3f
000001b0: a134 48be e827 88be 21f1 8fbf 0b83 b43c
000001c0: c5f2 80bf 43a0 c43c fb07 66bf 60b1 ecbd
000001d0: 27ec 3b3f 7426 253e c035 3cbd 603a 55bd
000001e0: 3ebc 14bf ff63 90bf 549c 53bf 6a92 8dbf
000001f0: 5336 32be 0f2a 0bbd df90 82bf 749c 26bf
00000200: 1800 c5be 6164 14bf f3cd 043f 1ebd 73bf
00000210: 49f9 58bf 4a03 a3be f899 55bf a140 6d3f
00000220: 2f84 3a3f 0da8 6ebf 2346 6cbf e0a6 4ebd
00000230: dfb2 e8be eb22 8f3e b370 c7bd 5b49 953e
00000240: 0350 b4be c48e 05bf 87a5 f33e 0d9c 263f
00000250: 9ad2 de3e f551 3bbf 75bf bfbd d336 663e
00000260: b6d5 6c3f 765a dfbe 6dcd f8be b034 5ebf
00000270: 1a4c 753d aae8 243f 88f5 d73e bd5e f8be
00000280: 8509 6abb eccf a73f 99d4 84be 73b4 f83d
00000290: 12bd 11bf b613 533d 8ece b3bf e543 373a
000002a0: e393 083e 9847 9e3f e248 babe a88b 613f
000002b0: 7eb0 8d3f cdff d63e 301a 793f c6b3 5f3f
000002c0: 61f0 6e3e 2d43 26bf 15e4 89bf 19cd 3cbf
000002d0: 63b5 843f c4e3 49be 1081 0dbf 129c 4a3f
000002e0: 1eaf 97bf a84f 8c3d 75a4 9fbf d4ba 79be
000002f0: 68f3 133f 6b0a 1d3f a3b4 2bbe 32a5 0dbf
00000300: ca0c 56bf dc86 ebbe d4c9 6bbf 1b7f 64bf
00000310: 8452 7bbe 0fb0 2e3f ede4 63bf d2a1 f7be
00000320: ca63 463f 78cc 44bf 12d3 d3be 6fc6 50bf
00000330: 13b9 89bf 8d74 79bf e3bf 41bf 1060 86be
00000340: 5d0f 0ebd 5fa3 89bf 98d4 43be d591 d83e
00000350: 5146 adbe 637d fa3e 76d3 5a3e b92e b23e
00000360: e623 f7be a769 68bd 1561 93be adc0 3ebf
00000370: 9a01 93bf a454 88bf bf36 8dbf e6d0 2ebf
00000380: d449 44bf 597b 093f face 18bf 3837 7a3e
00000390: ef8d 223f fc43 873f 5fa3 2a3f adf9 85bf
000003a0: 3544 bdbe c925 93bf c2cf 24be 6b9a 3dbf
000003b0: dd1e 3b3f 8df6 52bf c5ae 2cbf fdfc ae3f
000003c0: f067 8e3f 70e5 98be 4a78 143f 7844 a1bf
000003d0: 53cb 093d 37c3 c1be a66e 683f 7625 073f
000003e0: 6ed7 b13e af11 58bd 9933 8abf 3610 0d3e
000003f0: c517 07bf d215 5ebf de93 8bbf aa52 c23e
-0.87050515 0.15296131 1.2468433 -0.15002896 -0.3755165 0.9443796 0.44176066 -0.12616768
0.10768953 -0.10211936 -1.0811177 -1.0116898 -0.8006379 -1.0645864 1.2494347 0.43658966
-0.45981574 -0.50933075 0.388047 0.2812701 0.46526885 -0.4295205 -1.0727913 -0.8436275
-0.41753244 1.231784 0.43949434 -0.92406887 -0.335942 -0.5416326 0.59727556 0.057509877
-0.324258 0.12615457 0.3491984 0.4414152 -0.15409404 1.2135108 0.14389046 0.12788907
0.8116896 -0.32818076 -0.25866193 0.15369904 1.1962591 -0.50025445 -0.6965128 1.2539523
-0.3520555 -0.48056814 0.45602918 -0.52497774 -0.30427018 0.98362327 1.103583 1.4088262
0.5725505 0.27135614 -0.06576591 -0.59537125 -0.10957661 0.92791957 -0.22444901 0.6601037
-0.7806075 1.3582741 1.1396909 -0.61849546 -0.7095931 -0.34712723 -0.14130767 -0.7089823
-0.21878494 -0.506688 -0.6182761 -1.2652452 -0.74531305 0.60810333 0.5782695 -0.15008241
0.46644682 0.77500063 -0.31650886 0.84810036 -0.35743332 -0.16734052 0.6206065 -0.49791992
-0.694282 -0.83593035 -0.0715492 0.6588713 0.7573376 -0.7097326 -0.057902757 0.90098286
-0.37688845 0.25682324 0.979652 -1.1764799 0.07338772 0.217847 -0.5407883 -0.7972669
0.16332301 -0.61377823 -0.6418268 0.5514097 -0.19551326 -0.26592946 -1.1245462 0.022035142
-1.0074087 0.0240022 -0.8985593 -0.11557269 0.73407215 0.1612795 -0.045949697 -0.052057624
-0.58099735 -1.1280516 -0.8266041 -1.1060307 -0.17403536 -0.033975657 -1.0200461 -0.6508248
-0.38476634 -0.57965666 0.51876754 -0.95210445 -0.8475538 -0.31838447 -0.8343806 0.9267674
0.72857946 -0.93225175 -0.9229452 -0.050452113 -0.45448968 0.27956328 -0.097382925 0.29157528
-0.35217294 -0.5217097 0.47587225 0.65081865 0.4352005 -0.7317193 -0.093626894 0.22481851
0.92513597 -0.43623704 -0.48594227 -0.86799145 0.05988703 0.6441752 0.42179513 -0.4850978
-0.003571124 1.3110328 -0.2594345 0.12143793 -0.56929123 0.05153247 -1.404741 0.0006991013
0.13337664 1.2365599 -0.3638373 0.88103724 1.1069486 0.41992036 0.97305584 0.8738369
0.23333885 -0.6494625 -1.077273 -0.73750454 1.0367855 -0.19715792 -0.5527506 0.79144394
-1.1850317 0.06851131 -1.2472063 -0.24387676 0.57793283 0.6134402 -0.16768126 -0.55330193
-0.83613265 -0.46001327 -0.9210484 -0.8925645 -0.24543196 0.68237394 -0.8902119 -0.48365647
0.77496016 -0.76874495 -0.4137197 -0.81552786 -1.0759605 -0.9744347 -0.7568342 -0.26245165
-0.03468262 -1.0752982 -0.19124067 0.4229876 -0.3384271 0.48923787 0.21369728 0.34801272
-0.48269576 -0.056741383 -0.28785005 -0.7451275 -1.1484864 -1.065083 -1.1032332 -0.68287504
-0.7667515 0.5370384 -0.5969082 0.24435127 0.63497823 1.0567622 0.66655535 -1.046682
-0.369661 -1.1495906 -0.16094878 -0.7406375 0.7309397 -0.82407457 -0.6745418 1.3670956
1.1125469 -0.29862547 0.57996047 -1.259902 0.03364117 -0.3784425 0.90793836 0.52791536
0.34734672 -0.05275124 -1.0796996 0.13775715 -0.52770644 -0.86752045 -1.09045 0.37953693

fc1.bias f4 [90]
00000000: d7ae be3e 5b60 9f3d ef68 83be 5141 983e
00000010: 19b2 463f 1221 28bf 9eb9 88bf 5345 963e
00000020: 86b7 533e 3fec 2ebf 1835 19be ec26 873e
00000030: a352 02bf 4fdc e73d adf7 4e3f f985 983e
00000040: a532 14bf 29bc 193f f51a 5b3f 7957 06bf
00000050: bad0 353f 6564 023f 9bb3 863e d6ab f0bd
00000060: 5934 88bf 757e 04be 5215 65bf 02a4 08bf
00000070: 9a3d 03be 1442 193f 2b8e 303e 35bc 2f3f
00000080: c87b 053f 495d 9ebd 017b 25bf d6a8 f53e
00000090: 46f3 023e 0f90 8abf 23fd a13d 53c7 f5be
000000a0: d753 8e3d 0010 14bf f941 e7be c9ba 36bf
000000b0: 7c8b 073f cf9d 9a3e fabc 0d3e 3d6a a7be
000000c0: 11d4 c2be 8c4b 35bf ecf9 563e c9bb 203f
000000d0: 7b74 6fbf 117d 813f 90ff 073e 635a d3be
000000e0: efe2 653f d58a 723e 9b74 02be 7c1f 8c3d
000000f0: e2ce 8dbf 137f 083f a291 c5be 84c1 93bf
00000100: 05dd 83bf db1e 9ebe c1cb 993e f5d5 0bbe
00000110: 4213 0c3f e5c9 bebe 8b5e b5be d059 35be
00000120: b2d3 74be d54d e23e b894 813e 7970 9bbe
00000130: c9ea 993d 137f 31bf 94ff 02bf 8bdc 5c3f
00000140: a41f 8b3e e687 58bf c097 1abf 7ed9 8ebf
00000150: 2060 543f e007 55bf 9508 403f bd16 9c3e
00000160: e8f2 953e a694 a5be
0.37242767 0.0778205 -0.25665995 0.29737332 0.77615505 -0.6567546 -1.0681646 0.29349765
0.20675477 -0.6832923 -0.1496166 0.26396883 -0.50907344 0.113213174 0.80846673 0.29789713
-0.5788978 0.60052735 0.8558801 -0.5247722 0.71021616 0.5093444 0.26308903 -0.11751525
-1.0640975 -0.12938865 -0.8948566 -0.53375256 -0.12816468 0.5986645 0.17241733 0.68646556
0.52142 -0.077326365 -0.64640814 0.47980374 0.12788114 -1.0825213 0.0790961 -0.48003635
0.06949585 -0.57836914 -0.4516752 -0.7137876 0.5294721 0.30198523 0.1384162 -0.3269824
-0.3805242 -0.708184 0.20993775 0.6278654 -0.9353711 1.0116292 0.13281083 -0.41279897
0.897994 0.23685773 -0.12739794 0.06841943 -1.1078761 0.533189 -0.38587672 -1.1543431
-1.0301825 -0.30882916 0.30038264 -0.13655837 0.54716885 -0.37263408 -0.35423693 -0.17710042
-0.2390888 0.44200006 0.25308776 -0.30359247 0.07515485 -0.69334525 -0.5117123 0.8627402
0.27172577 -0.84582365 -0.603878 -1.1160123 0.82959175 -0.8321514 0.75013095 0.30486098
0.29286885 -0.32339972

fc2.weight f4 [90, 90]
00000000: 66c6 273f 1c9e 1b3f 4109 0abf 367b 1ebf
00000010: e23c 163f 8074 46ba cb8c 31bf 80e1 0cbf
00000020: c0f5 153f 9c32 6a3f f029 183f 50e9 31bf
00000030: c778 363f d4fb 1a3f 1aa8 373f 9b2e 343f
00000040: ef76 433f fbfe 2e3f cc4d 383f de7b c03e
00000050: cd79 ed3e bac9 143f 2640 073f 7a6d b1bd
00000060: 3de5 2b3f 9adb 313f 7ac7 31bf c29b e33e
00000070: 4bc6 403f faff 08bf c0d1 0b3f 43dd 3d3f
00000080: b71f 253f a39f 06bf 8245 2cbf 133f 4e3f
00000090: 8bf7 20bf 28c4 103f e776 e73e baa6 1dbd
000000a0: 359c 0dbf 17e6 113f 7e2a 1ebf 2b3e 29bf
000000b0: 20d9 02bf 10eb 2abf 131f 203f 36ce 233f
000000c0: c5df 293f 17fa 2c3e c407 433f 8c30 23bf
000000d0: adbd 23bf f34a 403f ecb8 dc3e c0a7 eb3e
000000e0: 585f c73e b6ef eb3e 47c8 2abf 2520 27bf
000000f0: 90e6 06bc 3b5c 553f 4940 053f edb7 ba3e
00000100: 3d61 00bf 34aa 273f 74c9 453f eb72 06bf
00000110: 42f0 10bf 9d06 24bf a14a 3b3f b469 e83e
00000120: 8fcf b23e b320 1abf 6fe8 febe 6889 08bf
00000130: e6ab 24bf 16fa 28bf 724b 333f 19cb 163f
00000140: 0b54 a1be 2969 20bf 82cf 1abf dda6 10bf
00000150: aaa5 33bf 70c1 2abf 5a05 54bf c15c 20bf
00000160: ea16 0bbf 7eb1 2f3f 3f57 3bbf 0916 fb3e
00000170: 47dc fabe f72a 0bbf fcab cabe 0634 053f
00000180: 61bc acbd 2810 0fbf 5953 e13e 8338 183f
00000190: 77d4 f83e 0d50 503f a0d7 db3e ef90 d13e
000001a0: 873c 943e fd92 693d 92ff 123f 7f73 3ebf
000001b0: 91a1 153f 5d85 ba3e eca3 053e c08f 1f3d
000001c0: 5364 0abf 83c8 283f 3cc5 ec3e 9ec5 9f3e
000001d0: 30f3 103f cae4 cd3e 4e48 fe3e 3adf 05bf
000001e0: f058 36bf 9adf 3dbf 0cb8 3cbf 6bf6 2cbf
000001f0: 093f 28bf 0eab 47bf 23fd 663f 70e1 53bf
00000200: efdd fb3e fe28 563d 1956 33bf 5aa9 013f
00000210: 1ebe 393f 3043 153f f272 433f 7d52 503f
00000220: c94f f83e 82b8 02bf 7566 113f b1aa 4a3f
00000230: 3d4b ef3e ad82 4d3f 5f3d f7ba 8a16 4ebe
00000240: 8c22 313f 384f 5bbf 2b10 193f bbb2 d23e
00000250: 973c 3d3f e934 8f3d 213f 063f 2c19 25bf
00000260: 57c8 c93e 3f82 6abf 603e 32bb 10e6 1b3f
00000270: 314b 0f3f f0e3 573f 3d93 173f 3032 423f
00000280: 0b3b 823d f63a b53e 7777 c73e 72f4 08bf
00000290: c8ad 2e3c 69da 2cbf 98ae 323f 27af fd3e
000002a0: c932 a23d 2cdf e63e 9b99 5c3f ca7d 123f
000002b0: 23c6 15bf d73b 33bf b0c1 b8be 87b7 2abf
000002c0: a70b 553f d9e6 503f 511f 4f3f cd44 5ebf
000002d0: da25 24bf 20f9 023f 21ff 1dbf 2efa 31bf
000002e0: a651 1cbf a634 313f 5cb0 02bf 2cf2 19bf
000002f0: b96a 333f 5968 0f3f c4d7 2cbf cacd 2cbf
00000300: 17b4 01bf 1fc0 fe3e 16f0 09bf b054 06bf
00000310: 54c0 33bf c927 11bf b176 0cbf 6db4 253f
00000320: 08af 013f 4da0 33bf 1ce2 18bf ba65 25bf
00000330: d326 b63d cd0a 1fbf ef73 34bf b682 01bf
00000340: b2a8 14bd ba46 15bf 32dc 4f3d bd21 1bbf
00000350: 4c4a 1dbf f72f 0bbf a6be 06bf f7f3 2cbf
00000360: f680 1cbf 9b03 023f a74a 243f e0be 96bc
00000370: 2270 0dbf 8152 133f 37f0 03bf 96ae 2dbf
00000380: 4600 14bf 35f6 21bf 0653 313f 0d2d 05bf
00000390: aad2 10bf c06e 26bf 3127 06bf a583 2dbf
000003a0: b0ba 30bf 9858 09bf f928 0fbf 2786 323f
000003b0: db07 18bf f85f 81bd e70c 29bf 4f7e 1ebf
000003c0: c0a7 78bb f146 28bf 5376 1b3f da18 1fbf
000003d0: 4da6 2ebf 87ce 33bf 1e36 2bbf 87a6 1fbf
000003e0: a904 0abf 0a21 34bf 8b6d 20bf 13d1 c43d
000003f0: b846 ff3e 4b69 00bf 3a1b 03bf b867 00bf
0.65537107 0.6078813 -0.5392037 -0.61906755 0.5868665 -0.00075704604 -0.6935546 -0.55031586
0.5857811 0.91483474 0.5943899 -0.6949663 0.7127804 0.6054051 0.7174088 0.70383614
0.76353353 0.6835782 0.7199371 0.37594503 0.4638199 0.5812031 0.5283226 -0.08663459
0.67146665 0.6947571 -0.69445 0.4445477 0.7530257 -0.5351559 0.5461693 0.74165744
0.6450152 -0.52587336 -0.6729356 0.80564994 -0.6287772 0.5654931 0.45207903 -0.03848908
-0.5531648 0.56991714 -0.6178359 -0.66110486 -0.51112556 -0.66764927 0.62547415 0.6398653
0.6635707 0.16892277 0.76183724 -0.6374595 -0.639613 0.75114363 0.43109834 0.4602642
0.3893993 0.46081322 -0.6671185 -0.65283424 -0.008233681 0.8334386 0.52051216 0.3646845
-0.50148374 0.65494084 0.7726052 -0.525191 -0.56616604 -0.6407259 0.7316075 0.45393145
0.3492398 -0.60206145 -0.49786708 -0.53334665 -0.64324796 -0.660066 0.70036995 0.5890365
-0.31509432 -0.6266046 -0.6047288 -0.56504613 -0.7017466 -0.6670141 -0.82820666 -0.6264153
-0.5433184 0.68630207 -0.7318 0.4904025 -0.48996183 -0.54362434 -0.3958434 0.52032506
-0.08434368 -0.5588403 0.44008902 0.5946123 0.48599598 0.8137215 0.42937946 0.40930888
0.2895243 0.057024945 0.5742122 -0.74394983 0.58449656 0.36429873 0.13050812 0.03895545
-0.5405933 0.65930957 0.46244228 0.31205457 0.56621075 0.40213615 0.4966454 -0.5229374
-0.7122946 -0.74169314 -0.73718333 -0.67563504 -0.65721184 -0.77995384 0.90230006 -0.82765865
0.4919276 0.052285187 -0.7005325 0.50649035 0.7255572 0.58305645 0.7634727 0.8137587
0.4849837 -0.51062787 0.5679696 0.79166704 0.4673709 0.8027752 -0.0018862895 -0.20125785
0.6919334 -0.85667753 0.59790295 0.41151986 0.7392058 0.06992514 0.5244008 -0.64491534
0.3941066 -0.9160499 -0.0027197823 0.6089792 0.5597411 0.8433218 0.5920904 0.7585783
0.06358918 0.35396546 0.38958332 -0.53497994 0.01066155 -0.6752077 0.6979766 0.49547693
0.07919843 0.45092142 0.86171883 0.5722319 -0.5850546 -0.70013183 -0.36085272 -0.6668629
0.83220905 0.81602246 0.8090716 -0.8682373 -0.64120257 0.51161385 -0.6171742 -0.6952237
-0.61062086 0.6922096 -0.51050353 -0.6013515 0.7008472 0.56018597 -0.6751673 -0.6750151
-0.5066542 0.49755952 -0.5388197 -0.5247297 -0.70215344 -0.5670133 -0.5486861 0.6472843
0.506577 -0.70166475 -0.59720016 -0.6460835 0.08894124 -0.62125856 -0.704894 -0.50590074
-0.036293693 -0.58311045 0.050747104 -0.60598356 -0.61441493 -0.54370064 -0.52634656 -0.6755976
-0.6113428 0.5078675 0.6417641 -0.018401563 -0.55249226 0.57547766 -0.51538414 -0.6784452
-0.5781292 -0.6326631 0.6926731 -0.5202187 -0.5657145 -0.6501274 -0.5240355 -0.67779
-0.6903486 -0.5365081 -0.55921894 0.6973595 -0.59386986 -0.06317133 -0.6603531 -0.6191148
-0.0037941784 -0.6573325 0.60727423 -0.62147295 -0.68222505 -0.7023701 -0.6687945 -0.62363476
-0.5391336 -0.70362914 -0.6266715 0.0961019 0.49858642 -0.50160664 -0.5121342 -0.5015826

fc2.bias f4 [90]
00000000: 7006 7ebd d1d2 433f 371a 1bbf c906 2e3f
00000010: b87c 193f 8a8f 2c3f ab2d 183f 3573 663f
00000020: af03 f83e 0e49 11bf 8981 84be 0270 2c3f
00000030: cf4f 9c3c 60f3 81bb c089 193f 2ff1 10bf
00000040: 2384 49be 4259 2abf b95f b73e 6b84 2cbf
00000050: e867 9dbe 643f 1a3f 7af8 2ebe 9c1a ffbe
00000060: 9491 bebe 0b9d 133f d2f0 683d d178 13bf
00000070: 5c3f 683f c581 25bf ba90 17bf 5b66 e6be
00000080: bd1a 083f b61b 2bbf 1f6c 31bf 2bfc 2abf
00000090: f794 33bf 7340 99be eb46 a5be ae09 50bf
000000a0: 4fbe 2c3f bfea 1fbf 2486 313f 587b 3c3f
000000b0: e222 823d 84cb 26bf 119a 443f b30c 953e
000000c0: 16a8 913e fd3c cfbe a7e5 ed3d f0f8 7f3e
000000d0: 58f1 33bf 2f22 15bf d888 883c 30b4 34bf
000000e0: faf0 09bf 900d df3d 2959 6fbf 5630 00bf
000000f0: 6c09 30bf 6b34 1fbf a007 17bf 4268 25bf
00000100: 25f2 223f c2e7 1cbf eee3 153f 3878 dc3e
00000110: b305 953e 32b8 323f e37b be3d 1fab 003f
00000120: 2184 8b3d 630c 31bf bcf9 013f a04d 72be
00000130: 00c7 17bf ea4d bb3d bca5 80be a22b ff3e
00000140: 1b77 15bd 2106 5d3f e7aa 26bf d7d2 0fbf
00000150: 5536 10bf 8352 1abf 6a54 1ebf 2402 5c3e
00000160: 3a17 3a3f 4687 21bf
-0.062017858 0.76493555 -0.60586876 0.67979103 0.5995593 0.67406523 0.59444684 0.9001954
0.4844031 -0.567521 -0.25880077 0.6735841 0.019081024 -0.00396578 0.59975815 -0.56618017
-0.19679312 -0.66542447 0.35815218 -0.67389554 -0.30743337 0.60252976 -0.17086974 -0.4982499
-0.37220442 0.57661504 0.05687029 -0.57606226 0.9072168 -0.6465114 -0.5920521 -0.44999966
0.531658 -0.6683916 -0.69305605 -0.6679103 -0.7014918 -0.29931983 -0.3228067 -0.8126477
0.6747789 -0.6246757 0.6934531 0.7362571 0.063543096 -0.6515429 0.76797587 0.2911125
0.28448552 -0.40476218 0.11616068 0.24997306 -0.70290136 -0.58255285 0.016666815 -0.70587444
-0.53883326 0.10891259 -0.9349542 -0.50073755 -0.68764377 -0.6218936 -0.5899601 -0.6461221
0.63650733 -0.61291134 0.5855092 0.4306047 0.2910591 0.6981231 0.09300973 0.5026111
0.06812311 -0.69159526 0.5077169 -0.23662424 -0.59288025 0.0914572 -0.25126445 0.49837977
-0.03649054 0.86337477 -0.65104526 -0.5618109 -0.56332904 -0.6028215 -0.61847556 0.21485192
0.7269169 -0.63097036

fc3.weight f4 [90, 90]
00000000: e320 153f 0aa5 20bf 87ba 0a3f 2595 9e3d
00000010: 42e9 2dbf e87b 02bf 5264 263f 8b7e 24bf
00000020: f651 293f 9f5b 0b3f 1b7e 2d3f 4df1 0abf
00000030: dcf0 1d3f b9db a43d bec0 09bf d161 0cbf
00000040: f705 34bf ff72 213f a844 20bf 56d8 003f
00000050: 37b4 0b3f 383a 083f 460d 063f 662a 173f
00000060: f8b6 273f b2f0 103f d0e5 98bd 349f 0dbf
00000070: 61a4 14bf 14d2 21bf 5a4d 18bf 391c 10bf
00000080: 8b6e 0a3f 0894 163f fb9c 28bf 1933 0b3f
00000090: 46dc 00bf d52f 2bbf 1105 febe 1ebd 1d3f
000000a0: 2c30 01bf bdd0 29bf 2951 333f f573 08bf
000000b0: 3a6c 1f3f 3dfb 22bf 0de1 1ebf e974 113f
000000c0: 7981 26bf d31c 33bf a61f 2abf 9ee1 1fbf
000000d0: e387 32bf 4453 1fbf d2a7 383d 20b3 14bf
000000e0: f8c3 0abf 1c0d 0ebf 569c 14bf 7e30 1a3f
000000f0: 1dbb 153f 5da9 013f 97cf 03bf 77ec 0abf
00000100: 3502 30bf ecad 11bf 6df3 313f cc36 333f
00000110: bcf1 2c3c 0318 32bf a276 5d3d 089f 0d3f
00000120: 0078 abbd d136 0ebf 1794 2f3f 6973 133f
00000130: 79f6 ffbe 1601 043f 4a38 1e3f 79eb 123f
00000140: a999 13bf 9451 09bf a8c9 05bd c70b 04bf
00000150: 231a 34bf 40af fe3e a4a3 053f de52 20bf
00000160: 81c0 27bf 7362 293f 794f 22bf e799 36bf
00000170: ccd5 043f 04d1 3f3f 3310 0a3f 9a56 34bf
00000180: f9b1 573d 4530 3dbf 91e8 f4be c857 093f
00000190: c45e f6be 3c31 6abe 1f8e 5d3f d0ef 893c
000001a0: 6f95 213f 6dae b1bd 23ef 4a3f 206c 173f
000001b0: afce c6be b4ce 233f 7001 c8be 398f 163f
000001c0: d2b0 2abf 4d55 16bf d0a1 183f bffd 0abf
000001d0: 0ea5 b7bd 260d 28bf ab71 12bf 96ed 2f3f
000001e0: c18d 02bf 0267 093f 9b25 0cbf bfa2 0d3f
000001f0: 5d80 2e3f ebdb 85bd 9708 1abf 5598 26bf
00000200: b57f 58bf 16ae 213f f2be eebe 7b49 1a3f
00000210: dc8f 153f 2038 d1be 26d1 f4be fff6 193f
00000220: 1003 b2be 3c38 4b3d 58b2 49bf dc86 c8be
00000230: 6912 dbbe 6e49 22bf 71f8 07bf 5745 0a3f
00000240: c08a f93b d237 24bf a6dd 31bf 362e dbbe
00000250: 3c55 d53e 8b7c 233f fbc3 26bf 665c 33bf
00000260: a4e2 203f 890e ffbe 138d 2b3f b8ca d6bd
00000270: 708d 1bbf 6aa8 1fbf 9ee7 24bf cefa 41bf
00000280: 60a4 4e3c d6d1 c9be 1c6d b83c 0302 2c3f
00000290: f378 323f 74b7 61be a2b3 0d3f 6c47 16bf
000002a0: 7549 363f 136d 073f 8f44 bebe 020e 9fbe
000002b0: f5fd 2cbf 590c 073f 246f 4abf b939 103f
000002c0: 02f1 023f 91c9 05bf 238c 1dbf 88f0 2a3f
000002d0: 4760 3c3f 1e0b 313f 8e33 27bf 872f c73e
000002e0: ede6 17bf 63f4 3e3f 41ae b63e 7f56 bd3e
000002f0: ba44 e53e 78a5 1dbf 2e16 bf3e 02b2 363f
00000300: cc16 13bf 8753 44bd 9b09 303f 44a0 83bd
00000310: dd99 28bf 1398 083f 4b6b 1c3f da55 00bf
00000320: 5404 ff3e 7084 5bbd cba5 2c3f f286 1b3f
00000330: 2366 0ebf 4ceb 003f d2ce 2f3d fe7d 2bbf
00000340: 4e07 1e3f 5f8f 003f 0c8a 193f f771 56bf
00000350: 7697 18bf 89b3 00bf 1ffb 293f ef48 09bf
00000360: 7d21 ad3d 4fbf 333f a18d 6f3f 19fb 2cbf
00000370: 1bec 013f 2a62 13bf 9054 28bf 05ac fa3e
00000380: c216 ca3e 9c72 ffbe 62bb 0e3f eaae bb3e
00000390: bb62 483f 33a7 253f a3a4 f73e a752 1f3f
000003a0: 3ecc 1cbf 1af9 0cbf 4927 a13d f2fb bf3e
000003b0: 2af3 1f3f 1b32 f03e 96c1 b43e b8c0 32bf
000003c0: 92d9 1d3f 4994 eb3e 7149 2ebf 8639 273d
000003d0: c01d 043f 1526 2fbf 1906 403f 8ee6 313f
000003e0: c5f3 3d3f 5664 1d3f f0a8 573c 8736 053f
000003f0: 5b27 cc3d 50d2 0abf 7a98 693d 1534 ec3e
0.58253306 -0.6275183 0.5419087 0.07743291 -0.6793405 -0.50970316 0.64996827 -0.6425559
0.6614069 0.5443668 0.67770547 -0.54274446 0.6169565 0.08049721 -0.53809726 -0.54836756
-0.703216 0.63066095 -0.6260476 0.503301 0.5457186 0.53213835 0.52364004 0.5904907
0.65513563 0.5661727 -0.07465708 -0.5532105 -0.5806332 -0.6321118 -0.5949303 -0.56293064
0.54074925 0.5881963 -0.65864533 0.54374844 -0.5033611 -0.6686986 -0.4961324 0.61616695
-0.5046413 -0.66334134 0.70045716 -0.53301936 0.62274516 -0.6366461 -0.6206215 0.56819016
-0.6504131 -0.6996586 -0.6645454 -0.6245364 -0.69738597 -0.6223643 0.04508192 -0.58085823
-0.54205275 -0.55488753 -0.5805105 0.60230243 0.5848864 0.5064905 -0.5148863 -0.54267067
-0.6875337 -0.5690601 0.69512063 0.7000549 0.010555681 -0.6956789 0.054068215 0.5532079
-0.083724976 -0.55552393 0.6858534 0.57597977 -0.4999273 0.51564157 0.6180464 0.5739055
-0.5765634 -0.53640103 -0.032663018 -0.5158047 -0.7035238 0.4974308 0.5220282 -0.62626445
-0.6552811 0.66165847 -0.63402516 -0.71328586 0.5188873 0.7492831 0.5393097 -0.70444643
0.052659962 -0.7390178 -0.47833684 0.5364957 -0.48119175 -0.22870344 0.86544985 0.016837984
0.6311864 -0.08675847 0.79271144 0.5914936 -0.38829562 0.6398728 -0.39063597 0.5881229
-0.66676056 -0.5872391 0.59621906 -0.54293436 -0.089670286 -0.6564506 -0.57204694 0.687219
-0.5099755 0.536728 -0.5474488 0.55326456 0.68164617 -0.06536087 -0.6016936 -0.6507619
-0.84569865 0.6315626 -0.46630055 0.6026837 0.58422637 -0.40863132 -0.47815818 0.6014251
-0.34767962 0.049614176 -0.78787756 -0.3916539 -0.42787483 -0.63393295 -0.53113467 0.54012054
0.0076154172 -0.64147675 -0.69478834 -0.42808694 0.4166659 0.6386191 -0.6514279 -0.70062864
0.62845826 -0.49815777 0.6701214 -0.10487884 -0.6076269 -0.62366354 -0.6441592 -0.7577332
0.012612432 -0.39417905 0.022512965 0.6719057 0.69715804 -0.22042638 0.5535222 -0.5870273
0.71205837 0.5290081 -0.3716168 -0.31065375 -0.6757501 0.52753216 -0.7907584 0.5633808
0.51149 -0.5226069 -0.61541957 0.6677327 0.7358441 0.6915759 -0.6531304 0.38903448
-0.5933674 0.74591655 0.3567982 0.36980054 0.44778997 -0.6158061 0.3732161 0.7136537
-0.5745666 -0.04793122 0.68764657 -0.064270526 -0.65859777 0.53357047 0.61101216 -0.50131
0.4980799 -0.0535931 0.6744048 0.60752785 -0.556246 0.50359035 0.04292185 -0.66989124
0.61729896 0.50218767 0.5997627 -0.83767647 -0.5960611 -0.5027395 0.66398805 -0.5362691
0.08453653 0.7021379 0.93575484 -0.67570645 0.50750893 -0.5757166 -0.6575403 0.48959365
0.39470488 -0.49892128 0.55754673 0.36656886 0.7827565 0.6470825 0.48367795 0.6223549
-0.6124915 -0.550676 0.07868821 0.37496907 0.62480414 0.46913227 0.35303944 -0.69825315
0.6166011 0.4601157 -0.6808081 0.040826343 0.51607895 -0.68417484 0.75009304 0.69492424
0.7420009 0.61481225 0.013162836 0.5203633 0.09968444 -0.5422716 0.05703018 0.46133485

fc3.bias f4 [90]
00000000: d5b8 2bbf fe96 433f 3b78 2e3f ecfa 1d3f
00000010: 086c 16bf e7de 28bf c1c3 1ebf ef84 943e
00000020: 82a8 01bf ce2a 1ebf 5ce7 02bf a46d 573f
00000030: e941 8ebd 2eb7 1d3f ed51 123f 82c6 23be
00000040: 9881 5a3f 9ec7 abbe cf3f 21bf 4d80 433f
00000050: 0893 1bbf 5947 0ebf 1d70 18bf 755e 24bf
00000060: 3ff2 143f 3b70 483f a3ab c7bd 1d1a fb3e
00000070: 1d0a 253f 7336 ec3e 44f3 333f 7267 4f3d
00000080: 2faf 303f f313 013f 9755 0fbf 403c 06bf
00000090: 3dfb 57bf 3c3b 18bf 2919 2d3f 83b8 1dbf
000000a0: 2290 2e3f 22d3 253f 3d0b 493e 31ed 1b3f
000000b0: dca7 00bf f76d 00bd e155 153f 7ffe 04bf
000000c0: 3fb9 d03e c05b 053f aace 2cbf b01e 25bf
000000d0: 2984 403f 7ab1 063e 53b9 473f 6606 1dbf
000000e0: 3e6b 17bf 6cc8 133f 5c98 173f 3228 27bf
000000f0: 2cd5 2dbf 4efa 17bf 5d67 12bf ebd3 0dbf
00000100: 90aa 1abf 7d11 ea3e ad6c 6a3e 0800 2dbf
00000110: 6712 273f 663f 3f3f 84b3 48bf bbe9 4f3f
00000120: 71a2 25bf 9beb bbbd e2cf 1e3f 7fd4 163f
00000130: 2511 023f fbc5 ec3e 3c6c b2be 41c8 e13e
00000140: 9606 2c3d bbc6 37bf 5520 6d3f 86af 07bf
00000150: 4abc 04bf 9383 2b3f 8a0f 23bf 1a31 543f
00000160: b27a 48bf 5fad 26bf
-0.67078906 0.7640227 0.6815221 0.61711 -0.5875859 -0.6596512 -0.62017447 0.2900767
-0.5064775 -0.61784065 -0.51134276 0.84151673 -0.06946165 0.61607635 0.5715626 -0.15993693
0.85353994 -0.33550733 -0.6298799 0.76367646 -0.60771227 -0.5557762 -0.5954607 -0.6420663
0.5818214 0.7829625 -0.09749534 0.4904336 0.64468557 0.4613529 0.7029307 0.050635763
0.6901731 0.50421065 -0.55989975 -0.52435684 -0.84367734 -0.59465384 0.67616516 -0.6160967
0.6818868 0.6477529 0.19633193 0.609088 -0.50256133 -0.03135487 0.58334166 -0.5195083
0.40766332 0.52093124 -0.67502844 -0.6449995 0.7520166 0.1315364 0.7801716 -0.6133789
-0.59148014 0.57727695 0.59216857 -0.6529571 -0.679034 -0.5936631 -0.5718897 -0.55401486
-0.6041651 0.45716467 0.22893019 -0.6757817 0.65262455 0.74706113 -0.7839892 0.8121602
-0.6470099 -0.091757976 0.62035954 0.58917993 0.5080741 0.46244797 -0.348482 0.44098094
0.04199847 -0.71787614 0.9262746 -0.530022 -0.51849806 0.6699764 -0.63695586 0.82887423
-0.7831222 -0.65108293

fc4.weight f4 [1, 90]
00000000: 44ae 13bf 1e8e 9d3e 7b54 653f 359d b33e
00000010: 89ff 00bf c8ed e63e ac03 0dbf 9300 533f
00000020: 7b61 043f a1b3 0ebf a7fb 03bf e346 913e
00000030: 6000 3e3f 08b7 453f 9317 623f 71d5 5bbf
00000040: b1ec b73e 8b0b 973e c553 103f 42a7 cdbe
00000050: 769b 09bf 241b 1e3f 39c6 113f 5418 2e3f
00000060: cfef 353f 3716 dd3e c7f5 5abf 7e15 393f
00000070: 34a1 02bf 0292 4a3f 74f7 433f e2b7 113d
00000080: c2ed 46bf 783e 4e3f 6ff5 10bf 40c4 0e3f
00000090: 219d 4c3f 347c 263f b503 b33e 7320 0a3f
000000a0: 780c f63e 5041 09bf 7713 373f 0cfc 0c3f
000000b0: b4ce 093f 922c 5bbf 4b32 febe 810b 033f
000000c0: 17ee 503f ed5a 243f 32af 113f 22af 003f
000000d0: d8ff 883e 02af 513f ccb2 3c3f 518c 243f
000000e0: 2c3b 01bf dd3e a83e 635e 46bf 8ed9 293f
000000f0: 91e3 00bf 2002 06bf 3180 12bf 358d 0bbf
00000100: e756 5abe 67b9 1c3f a9b3 0c3f d59a 0dbf
00000110: 9aad 0ebf 7eea f73e 71cb 4f3f 7410 cc3e
00000120: 322a 0a3f 1ecb 323f 4093 f8be eaf6 233f
00000130: 5da5 463f 20e4 033f add2 1b3f e091 5b3f
00000140: a040 8fbd 47e4 453f cd30 8d3e ba8b 1bbf
00000150: 22c7 19bf 596b c13e cce1 0c3f 0a7f 423f
00000160: 45c0 273f eba5 1d3f
-0.57687783 0.3077249 0.8958203 0.35080877 -0.50389916 0.45103288 -0.5508373 0.8242275
0.51711243 -0.5574284 -0.51555866 0.28374395 0.7421932 0.7723241 0.8831722 -0.8587256
0.3592277 0.29500994 0.5637782 -0.4016667 -0.5375284 0.61760163 0.5694309 0.6800587
0.71069044 0.4318101 -0.85531276 0.7229842 -0.51027226 0.7912904 0.7654946 0.035575755
-0.7770654 0.8056407 -0.566245 0.55768204 0.7992726 0.6503327 0.34963766 0.53955764
0.48056388 -0.53615284 0.71514076 0.55072093 0.5383103 -0.85614884 -0.49647745 0.5118943
0.81613296 0.6420124 0.5690795 0.5026723 0.26757693 0.81907666 0.7371032 0.64276606
-0.50480914 0.3286046 -0.7748777 0.6634759 -0.5034724 -0.5234699 -0.57226855 -0.5451234
-0.21322213 0.612204 0.5496164 -0.5531438 -0.55733645 0.4842109 0.811698 0.39856303
0.53970635 0.6984118 -0.48549843 0.64048636 0.77596074 0.51519966 0.6086834 0.8576946
-0.06994748 0.7730145 0.27576295 -0.6076008 -0.6006948 0.37777212 0.5503204 0.75975096
0.65527755 0.61581296
