VanillaModel.pt (torch, 70027 bytes, 7 tensors)

fc1.weight f4 [90, 3]
00000000: cfa2 dcbe 5e6b 3b3f 5ed0 2bbc 9c38 823a
00000010: ee45 4c3f 6e78 88be b341 033f 9b73 13bf
00000020: 36b6 613e 5efb 403f b0c0 f9be d009 7f3d
00000030: bd07 083e 89e1 afbd 6241 d43c 944a 643e
00000040: 6e35 0ebf ca76 a63e eb56 09bf 9410 85be
00000050: c2ae dcbd 7238 d33e d90a a73e 7378 7e3e
00000060: 22b4 17bd f9de eb3e 0aea 8ebe fbd4 013f
00000070: 57ab 283f 9402 e53d 02ad f13f b8e9 0c40
00000080: aacd 883f 2767 a6bd ffea fabd f89f ce3d
00000090: 0e72 be3e 350a 0dbe 2aa3 cd3e 3168 ca3e
000000a0: 15d9 033f cc6b 4cbe 0d3d 88bf 3468 14c0
000000b0: 8e08 ddbe 5042 943e efaa 903d 520a 05be
000000c0: bd69 1d3f 9e27 8b3f bf23 163d 6e49 f03e
000000d0: 886d a5bf 6f04 573e e2f6 e13e 17f2 243f
000000e0: 3d36 d23d 40fc 483e 32ce 42be 4085 c63d
000000f0: 275f 55be ce62 f33e a0fb c33d 1e10 4fbc
00000100: 4f3b 913f ee16 60be eb05 30bd 4e5a 933f
00000110: 5cb9 42be 8e77 303e c853 81bd 7c46 e73e
00000120: c173 d53c 6c52 ce3e 96b0 6bbd ad91 a43e
00000130: 3e18 fe3e e7d8 c33d eebc 8e3f 2447 8bbf
00000140: a6cf 073e 8985 4bbe 6042 6d3e 2a74 113d
00000150: 2dc2 ddbb ce00 853c d34b a9bd 2b72 403e
00000160: 0d14 793d 2423 0dbe cb19 a93e cf38 5a3e
00000170: 6bc7 e33e dacd eebd ecd0 9abd 9f10 ff3d
00000180: 3b86 953e de1f be3e 419c 2b3e 6b76 6dbf
00000190: c559 a53e a1ce 5e3f 6d71 b53e 34e3 3f3e
000001a0: 0c7e 503e 5659 45bf dc35 283f af97 b0bd
000001b0: 0f64 11bf 2e22 d23d ac1e 0dbd 154c 203f
000001c0: deba d23e 69c1 963c 488d bf3e 3bd8 323f
000001d0: d83e 4bbc 8a55 2ebf 0fce d4be 5415 f93d
000001e0: c37c f8be c87a 953e 7afe 2a3e 758a 33bd
000001f0: 2437 8a3e 1a64 a6be 3708 023f 1ca6 a23e
00000200: 83f8 153d a169 b63d 2e9d 423d f6b0 b7bd
00000210: a7fe 1abf 5f18 d5be 4638 ae3d ef9d 293d
00000220: 35db f13e 45a6 12be 2ce4 09bf ced6 53bc
00000230: f8ab 15be cc9d e43e 1f59 b8be 88c9 8c3e
00000240: 7408 33be 5fe4 e3be cdb0 143d c780 1b3f
00000250: 50b6 32bd a143 863d d5b3 9e3e 3ada 9b3e
00000260: 02b8 523e 5ec6 253f 056f 353e f17d a73e
00000270: 5b08 7a3e b332 8b3f cc99 34be 0525 0cbf
00000280: 2563 cb3d 3535 633d 4457 a13e 4270 613a
00000290: 34b5 73bd 8990 bcbe 8468 d7be 2f84 e73e
000002a0: 00fb ce3e 21a2 b53e 4223 cbbc 4d16 c73d
000002b0: f37c b83e fcbe fdbd 9361 a23e 0077 8f3e
000002c0: ed73 58bd 662f f2be 40e7 8e3d 42d9 093e
000002d0: 50b8 c93e 3864 26be 4aa7 b83e e2d8 183f
000002e0: 287e b73e 92fd bd3d fe3f bfbc a161 153f
000002f0: 2491 673e 72a5 9fbe a922 733e c278 1d3e
00000300: ffa8 83be 322f a73e f3bf e3bd 5582 d03c
00000310: 62f1 99be 05ca 6d3e a96d 133f ca23 e93e
00000320: 08d2 b53c fe60 99bd 7762 11bf 1df1 7a3e
00000330: 5891 493f 5494 74bf b9f1 88be 5cae dd3e
00000340: 6596 11be c7d9 353e 742e 453f 2cce 25be
00000350: 7779 26bf ea9e 193e 2e28 5bbd 1a54 f03d
00000360: cd66 983e 352b 363f 5e99 edbb f936 b63d
00000370: 631f 87be 6523 613e 36b4 d03e e30c 0e3f
00000380: 600b 0dbc 82d1 c03d 8d01 f0bf b655 803e
00000390: 0e62 783e 7c59 853d 282d dd3d 91e5 a7be
000003a0: 4e06 03be c0b2 063e 5c9f 543e dea0 b0be
000003b0: 5bf3 16bc d87a f33d df90 c23d 64dc 043e
000003c0: 5373 3fbf 9eb2 56be 8bf7 823e d1d1 f33e
000003d0: a14a 063f 03e1 48be 6983 953e a16b 15be
000003e0: 3525 873e 0c6a a1bd 9360 b73e 7363 393e
000003f0: 6cf8 e53d f4a8 033d c1b0 ebbd 235d b3be
-0.43092963 0.73210704 -0.01048669 0.0009935084 0.79794204 -0.2665438 0.51272124 -0.57598275
0.22042164 0.75383556 -0.4877982 0.062265217 0.13284202 -0.08587939 0.025910083 0.22294074
-0.5555028 0.32512504 -0.5364825 -0.2598921 -0.1077552 0.41254002 0.32625464 0.24850635
-0.037037022 0.46068552 -0.27912933 0.5071561 0.65886444 0.11182132 1.8880923 2.201765
1.0687764 -0.081251435 -0.12251853 0.10089105 0.37196392 -0.13773425 0.40163547 0.39532617
0.51503116 -0.19962996 -1.0643631 -2.31886 -0.4317059 0.28956842 0.07063853 -0.12992218
0.6148947 1.0871465 0.036655184 0.46931022 -1.2924051 0.20997785 0.4413367 0.644319
0.102642514 0.19627476 -0.1902397 0.09693384 -0.20837079 0.4753632 0.09569478 -0.01263812
1.1346225 -0.21883747 -0.042974394 1.1511934 -0.19016021 0.17233106 -0.06314808 0.45170963
0.026056172 0.40297258 -0.057541452 0.32142392 0.4962787 0.09562855 1.1151407 -1.0881085
0.13262805 -0.19875158 0.23169851 0.035511173 -0.0067675323 0.016235735 -0.082664154 0.18793552
0.060810138 -0.13782936 0.3302749 0.21310733 0.4448808 -0.11660357 -0.0755938 0.12454342
0.29203972 0.37133688 0.16758825 -0.92758816 0.3229505 0.8703404 0.354381 0.18739015
0.20360583 -0.7708944 0.6570718 -0.08622681 -0.567933 0.102604255 -0.03445308 0.6261609
0.41158193 0.018402772 0.37412477 0.6986119 -0.01240512 -0.6809927 -0.4156346 0.12162271
-0.48532686 0.29195237 0.16698638 -0.043833215 0.26995194 -0.32498246 0.50793785 0.31767356
0.036613952 0.08906866 0.04751318 -0.089692995 -0.6054482 -0.41620156 0.08506827 0.041410383
0.47237554 -0.1432124 -0.5386379 -0.012929631 -0.14616382 0.4465164 -0.36005494 0.27497506
-0.17483693 -0.4451017 0.036301423 0.60743374 -0.043630898 0.06555868 0.30996576 0.3043993
0.20578006 0.6475581 0.17718132 0.32713273 0.2441725 1.0874847 -0.17636794 -0.5474399
0.0993102 0.055470664 0.3151189 0.00085997966 -0.05949898 -0.36829022 -0.42071927 0.45218036
0.40425873 0.35475257 -0.024797086 0.097210504 0.3603283 -0.12389943 0.31715068 0.28020477
-0.05284493 -0.47301787 0.06977701 0.13461784 0.39398432 -0.16249168 0.3606513 0.59705937
0.35838437 0.0927688 -0.023345944 0.58352095 0.2261396 -0.31180912 0.2374369 0.15378097
-0.2571487 0.32653195 -0.11120596 0.025452772 -0.30066973 0.23221596 0.57589203 0.45535117
0.022194877 -0.07489203 -0.5679087 0.2450604 0.787374 -0.9553883 -0.2674692 0.43297088
-0.14217527 0.17758857 0.77024007 -0.1619193 -0.6502909 0.15002027 -0.053505115 0.11734791
0.2976593 0.7115968 -0.007250949 0.08897204 -0.26391134 0.21986158 0.4076249 0.55488414
-0.008608669 0.094149604 -1.8750473 0.25065392 0.24256155 0.065112084 0.107996285 -0.32792333
-0.12795374 0.13154125 0.20763916 -0.34497732 -0.009213294 0.11888665 0.09500288 0.12974697
-0.74785346 -0.20966575 0.25579485 0.47621015 0.52457625 -0.19617085 0.2920182 -0.14591838
0.26395574 -0.07881555 0.35815868 0.18104343 0.11229023 0.032143548 -0.115083225 -0.35031995

fc1.bias f4 [90]
00000000: 0fff 7dbf c66e 1ebe a43f 62be 2b5f 743e
00000010: 3ca0 c0bf 79ea afbf 51ec 4dbf 9402 aabf
00000020: 284b 1ebf 3adc 03c0 d046 2abf 1713 633f
00000030: eb46 853f d718 86bf e17e 63bf 9ba5 a6bf
00000040: f4a5 a7bf 9bcf 9ebf 8e3c 833f 3297 75bf
00000050: 5223 fa3e c33a 79bf c4a1 62bf 3871 203e
00000060: 2f78 103b d7bb 583f a6de 563d 81cc 8fbf
00000070: 0031 9dbf 73fb c5bf 4314 b8bf 7905 95bf
00000080: 4e61 763f bda9 45bf 71e3 4d3f 0c95 eb3c
00000090: a0f8 85bf 2429 7ebf 8c40 61bf cdd3 d4be
000000a0: 98b8 833e 9bc5 96bf ddc4 d23e 61b5 a1bf
000000b0: c4db 1abf 6a42 b0bd 30ce ebbf 2b6a 233f
000000c0: 318c 98bf cb03 f3be 10ab 743f 8a6c 05c0
000000d0: ef11 2dbf 3599 3a3f ef5c 61bf 3231 d23e
000000e0: b8f0 91bf 8aa5 96bf a98d b7bf c96e 96be
000000f0: 6234 ce3e 687e f2bf af82 21be 5097 443f
00000100: 9026 5fbf a8a0 9bbe f7d8 48bf f4e6 1abf
00000110: 1f82 f8be 4531 873e 23f7 74bf 646f d2bd
00000120: ad5e 8abf fadb 653f 2a66 73bf 9959 bfbf
00000130: ded8 fc3e d67a 683f 4764 78bf b033 eabf
00000140: b321 8abe 286b 5dbf 3003 1c3e 87b9 303f
00000150: 11ba a3bf de15 0a3f bc21 12bf 30e0 08be
00000160: 601f 1dbf f17c 24bf
-0.99217314 -0.15471944 -0.2209459 0.23864429 -1.50489 -1.374343 -0.80438715 -1.3282037
-0.6183343 -2.0603166 -0.665143 0.88701004 1.0412267 -1.047633 -0.88865477 -1.3019289
-1.309752 -1.2407106 1.0252855 -0.9593383 0.48855072 -0.9735529 -0.88528085 0.1566819
0.0022044291 0.8466162 0.052458428 -1.1234285 -1.2280579 -1.5467361 -1.4381183 -1.1642295
0.96242225 -0.77212125 0.80425173 0.028757595 -1.0466499 -0.99281526 -0.87989116 -0.4156784
0.2572677 -1.1779054 0.4116582 -1.2633477 -0.60491586 -0.086064175 -1.8422298 0.63833874
-1.1917783 -0.4746383 0.9557352 -2.0847497 -0.6760549 0.72890025 -0.8803243 0.41053158
-1.1401587 -1.1769269 -1.4340106 -0.29381397 0.4027434 -1.8944826 -0.15772508 0.76793385
-0.87168217 -0.30396008 -0.7845606 -0.60508657 -0.48536775 0.26404777 -0.956896 -0.10275152
-1.0810143 0.8978878 -0.95077765 -1.4949218 0.49384207 0.9081243 -0.9702801 -1.8297024
-0.26978835 -0.8649163 0.15235591 0.6903309 -1.2791158 0.53939617 -0.57082725 -0.1336677
-0.61376 -0.64253145

fc2.weight f4 [90, 90]
00000000: 51ab 25be be0a fcbe ae39 643e 4d4f b63e
00000010: c730 61bd 2a07 c5be a775 ff3d 8dde c93b
00000020: fec1 f4bd ddc6 a2be 019d a33f 5f88 9a3e
00000030: 5080 9f3e b383 f5be 86de 8dbf c1ce 943d
00000040: 1e8e dcbe c2dc 63be 9581 953e 0947 813d
00000050: 2482 d53d 9d54 05be e448 2abe 975d 403e
00000060: 82a4 ccbe ccf0 533e a59e 473e 043c 83bc
00000070: 828b fcbe ebd0 423e 718e 9a3d 2027 f8be
00000080: 3ee1 0e3e 1181 a0bf 4432 b13e 32a2 693d
00000090: 9a86 abbd 848f c33e f922 05bf 934c d4be
000000a0: 321c 073e e002 f9be 6d08 f1bd 17fc 923e
000000b0: b243 063e 034d a6be b0f8 2dbf be19 aa3d
000000c0: 0755 a0be 0910 fa3d 17d0 723e e353 93be
000000d0: 85fe 28bf cde5 1d3e dc54 c73e 4ed7 613e
000000e0: 28bb d6be 984d 89be a8f6 96bd a893 1b3b
000000f0: 8a3e 6f3e 7a7a 5bbe 712d 9dbe 9786 b03e
00000100: 4745 243e 13e6 503e e407 bdbe f874 3e3e
00000110: 7ceb 6abd 93a8 103e fc98 05bf fc7e 393e
00000120: 2934 87be bebb 483e 5264 683e 5d6a 073d
00000130: d56a a63d 4c11 703e 4595 91bc 2874 efbd
00000140: 8b27 c63d eff5 99bd 227f bb3d 6cff ac3d
00000150: e20c 52be ba2e 923e 71e4 a93d c941 dcbe
00000160: e0cd d9be 69ba 58bd 5238 943d d38f 243e
00000170: ee23 17bf 4b5f c8be 70eb 783d c569 a23e
00000180: 9390 a1be 4a88 3d3f 5954 82bd f461 77bd
00000190: 487a 83bf 0726 2cbf 3d16 61bf c421 b4bd
000001a0: b5b3 1d3f 6e86 003f 7103 30bf 2b21 ebbe
000001b0: c4fb 43bf c450 20bf 5ef8 37bf b1cc 31bf
000001c0: 5610 e23e 64f8 b1be c64b d1bd 9d60 48bf
000001d0: cad2 44be 1cbe 0dbf dac4 1a3e cfa4 223f
000001e0: 02e7 d4bd ed4a 283e b019 4dbf fa51 abbc
000001f0: b311 5fbf 73e3 50bf 2605 433f 15c6 0bbe
00000200: c6eb 6b3b 63ad a03c cded 58bf b8f2 f23d
00000210: 4e0d 82be c824 213f ea95 30bf 3180 38be
00000220: a8d2 213d 3ee3 4a3b af2d b63d d9e8 05bf
00000230: 9f48 56bf 91d3 243f 42ab 923e f8dd bfbe
00000240: 6120 45bc 526d 2dbf 1a3b 853e a1f8 5abd
00000250: b4e0 233f cc1b 60bf 59a4 27be 0f8b 9d3e
00000260: 0873 df3d ceff 10bf 9466 6c3d 3403 77bd
00000270: d73e a0bd 0d0f 06bf 51a7 503d f5c0 39bf
00000280: ff58 6cbf 006e 27bf 691e 5f3e 3ab9 4ebf
00000290: 4ceb 98bd 0677 8fbe c4c5 25bf a492 37bf
000002a0: 1178 03be f524 2e3f 8d83 4bbf 03a4 2a3f
000002b0: 4271 0dbf 2479 4dbf 5a6c 133f 5467 b2be
000002c0: 0618 0cbd d68d 8d3c 6936 243e 6a36 dcbe
000002d0: 1097 5bbb 89a4 103e 05d2 6ebf 3eb4 8bbf
000002e0: 1fae 55be 70bc 493e b4e4 83bf 83b4 0e3f
000002f0: 186a a5bc 3e73 35be 0421 62bf febf 11bf
00000300: 6a06 49bf 66c1 11bd 87e1 263f f303 233f
00000310: e3c1 f0be a8c0 e2be 9971 40bf 12f7 3dbf
00000320: 54b0 5cbf 6763 3abf 0a4d 59bf 1ea6 86bf
00000330: 7ba7 f7bd 9874 5ebf b514 42bf 51df 2cbf
00000340: 1cb0 333d 55e3 353f a5ea d8be bac4 fd3d
00000350: 6b5a 4abf 0cce 1ebe 9cdf 6fbf b508 f1be
00000360: 61c5 313f f44a bbbe db7b 68be 5dd0 d0be
00000370: b7c6 3abf 8a6c 1b3e 088d f03e ef32 283f
00000380: 480a 7dbf a471 9dbd 4a75 99be 2e86 933d
00000390: 77a0 e43d 4b0b 28bf 61a5 52bf c369 ed3e
000003a0: 28b7 e03e 588a e5be cab2 8cbe be43 53bf
000003b0: 53c7 9abd b8ec 11be 32bd 1c3f c3a6 64bf
000003c0: f167 ffbe 4d50 db3d e1bf 1ebd 3344 0dbf
000003d0: 46c3 e2bd 727b 29bf a2b2 b4be cb59 41bf
000003e0: a828 84bd d5d0 18bf c31a 30bf f2b4 85bf
000003f0: f75f 173e 6694 2fbf 1b6d 5ebe b289 53be
-0.16178633 -0.49226946 0.22287628 0.35607377 -0.05497816 -0.38482028 0.12473612 0.0061605633
-0.119510636 -0.31792346 1.2782289 0.30182168 0.31152582 -0.4795204 -1.1083534 0.07265998
-0.43077177 -0.22252181 0.29200426 0.06312377 0.10425213 -0.13020559 -0.16629368 0.18785702
-0.3996926 0.20697325 0.19494112 -0.016019829 -0.49325186 0.19025008 0.075467 -0.4846735
0.1395311 -1.2539388 0.34608662 0.057039447 -0.083752826 0.3819543 -0.5200649 -0.41464671
0.1319435 -0.48635006 -0.11769185 0.28707954 0.13111761 -0.3248063 -0.6795759 0.08305691
-0.3131487 0.1221009 0.23712192 -0.28774938 -0.66013366 0.15419693 0.3893193 0.22054788
-0.41939664 -0.26817012 -0.07371265 0.0023739133 0.233637 -0.2143344 -0.30698732 0.34477684
0.16042052 0.20400266 -0.36920083 0.18599308 -0.05735348 0.14126806 -0.5218656 0.18114847
-0.26406983 0.19602868 0.22694519 0.03306042 0.08125845 0.23444098 -0.017771373 -0.11692077
0.09675511 -0.07517611 0.09155108 0.08447155 -0.20512727 0.28551275 0.08295525 -0.4301894
-0.42539883 -0.05291215 0.07237305 0.1607049 -0.590392 -0.39135203 0.060771406 0.3172132
-0.31555614 0.74036086 -0.06363744 -0.06039615 -1.0271692 -0.67245525 -0.8792456 -0.08795503
0.61602336 0.50205123 -0.6875525 -0.45923743 -0.7655604 -0.6262324 -0.71863353 -0.6945296
0.44153088 -0.3475982 -0.10219531 -0.7827242 -0.19221035 -0.5536821 0.15114155 0.6353273
-0.10395624 0.16434832 -0.8011732 -0.020913113 -0.8713638 -0.8159706 0.7617973 -0.13649781
0.0035998686 0.019613927 -0.84737855 0.11862701 -0.25400776 0.6294675 -0.6897875 -0.18017651
0.039507538 0.00309582 0.08895432 -0.5230842 -0.8370456 0.64385325 0.28646284 -0.37474036
-0.0120316455 -0.67744935 0.26021653 -0.053459767 0.64014745 -0.87542415 -0.16371287 0.30770156
0.10910612 -0.56640327 0.057715014 -0.06030579 -0.07824486 -0.52366716 0.050940815 -0.72560054
-0.923233 -0.6540222 0.21788944 -0.80751383 -0.07466754 -0.28020495 -0.6475489 -0.7170813
-0.1283877 0.6802514 -0.79497606 0.6665651 -0.5525094 -0.8026297 0.57587206 -0.34844458
-0.034202598 0.017279547 0.16036381 -0.43010265 -0.0033506788 0.14125265 -0.93289214 -1.091438
-0.20867203 0.1970079 -1.030417 0.5574419 -0.020192191 -0.17719743 -0.8833163 -0.5693358
-0.7852541 -0.03558483 0.6518788 0.636779 -0.47022924 -0.4428761 -0.75173336 -0.74205124
-0.86206555 -0.72807926 -0.8488318 -1.0519445 -0.12092491 -0.8689666 -0.75812846 -0.67528254
0.043869123 0.71050006 -0.4236652 0.12391038 -0.79044217 -0.15508288 -0.93700576 -0.47076955
0.694418 -0.36580622 -0.22703497 -0.4078397 -0.72959465 0.15178123 0.46982598 0.6570272
-0.9884381 -0.07687691 -0.29972297 0.07203327 0.11163419 -0.6564223 -0.822836 0.46369752
0.43889737 -0.4483211 -0.27480155 -0.8252524 -0.07557549 -0.14250457 0.6122619 -0.8931696
-0.49883988 0.107086755 -0.03875721 -0.5518219 -0.11072402 -0.6620399 -0.35292536 -0.7552764
-0.06453067 -0.5969365 -0.68790835 -1.0445845 0.14782701 -0.68585813 -0.21721308 -0.20657995

fc2.bias f4 [90]
00000000: 95d8 993e b33c ccbe 0473 ebbe 4fb4 54bf
00000010: cd18 28bf 5d9f 4fbf 53e2 15bf 5cc5 19bf
00000020: 750e 14bf 948b b33e 5574 4fbf 0765 8a3e
00000030: 9bc8 30bf 2fb5 1bbf 0b62 02bf 2b7b 053e
00000040: 1f44 97bf a87b ea3e 4d87 2abf 6e0e cfbe
00000050: 345d 09bf 129e 93be 136f 0cbf b878 0c3f
00000060: a598 01bf acd1 4a3e a9a7 213f 6007 933c
00000070: 7ac1 29bf 297e 413f efc0 c83d 214c 06bf
00000080: 5dcb 0cbf fa3e 113d 604a 953e 9f2a c43e
00000090: 182a be3e bc9f 943e d77d 943d 7cef 85bf
000000a0: cda5 e13e 7334 e53e 7c68 bcbe faa0 0fbf
000000b0: 00b7 973e 9924 2cbf 4a69 cc3d b92d f83e
000000c0: f25d 31bd c176 a6be c388 1d3e def3 4abe
000000d0: 1180 d73d 440d 1b3c 969c ae3e c4ac c0bc
000000e0: 5396 09bf b743 47bf 4da5 68be 8c08 ec3e
000000f0: ccc6 9bbe 887e 483d e13e 10bf ee93 473e
00000100: 5fe6 aebe b3ab a33e 38ac 06bf 7045 ca3e
00000110: 2b46 293f 94ce 1fbe c12d 2dbf f535 07bf
00000120: 017a fe3e a823 27bf db4f 08be 2cff 313e
00000130: 3a23 eb3e 3fb0 14bf 6a66 30bf f727 80bd
00000140: c00a 3f3f f292 b33e 7871 29bf 2205 1e3d
00000150: 59c5 e53d 1210 2fbf 1e2c 0dbf 13ac 1c3d
00000160: a7ea afbe 700b 1ebf
0.3004805 -0.3989006 -0.45986187 -0.8308763 -0.65662843 -0.81102544 -0.5854847 -0.6006677
-0.5783456 0.35067427 -0.81036884 0.27030203 -0.690561 -0.6082334 -0.5093085 0.13035266
-1.1817664 0.45797467 -0.666127 -0.40440696 -0.5365784 -0.28831536 -0.54856986 0.548717
-0.5062354 0.19806546 0.63146454 0.017947853 -0.66310847 0.7558313 0.09802424 -0.52459913
-0.5499781 0.03546045 0.29158306 0.38313767 0.3714149 0.29028118 0.072505645 -1.046371
0.44071808 0.44766578 -0.36798465 -0.56105006 0.29631805 -0.67243344 0.0998102 0.48472384
-0.043302484 -0.32512477 0.15384202 -0.1981959 0.105224736 0.009463612 0.3410384 -0.023519881
-0.53745 -0.778377 -0.22719307 0.4610027 -0.30425107 0.048948795 -0.56345946 0.19490024
-0.34160134 0.31966934 -0.52606535 0.39506102 0.6612269 -0.15606147 -0.6764794 -0.52816707
0.49702457 -0.6528878 -0.13311712 0.17382497 0.45925313 -0.5808143 -0.6890627 -0.06257623
0.7462578 0.35073048 -0.66188765 0.038579114 0.11219282 -0.68383896 -0.5514544 0.03825004
-0.34358713 -0.617362

fc3.weight f4 [90, 90]
00000000: 8d7d 30bf 7361 ecbe 6b9a 18bf 51d6 00bf
00000010: a84a 3cbf 4016 423c 1789 02bf 3fd0 9ebd
00000020: ae28 18bf d07a 92bb 046d 07bf 28dd 06bf
00000030: 21b1 21bf 7fa9 22bf 6b11 19bf 52a7 57bf
00000040: ba05 22bf 50ed 08bf 8321 d5bd 402e 00bf
00000050: 577f 27bf f502 14bf b813 42bd b325 0ebf
00000060: 4a74 00bf 4888 4ebc bd47 e4be 0c56 01bd
00000070: 7967 febe 5acb 1e3d 4429 d7bd a86d 04bf
00000080: 25ad 13bf 55f6 d53d 8df6 0fbf 7ac7 e6be
00000090: 9cbb b23c a6d2 04bf 1ce4 11bf 26a7 2abf
000000a0: cdf1 fdbe 328a 613d 4edb cebd 79a6 d23d
000000b0: abff 19bf 2016 dfbb 6779 2abf 60fe 0ebf
000000c0: 132b 0cbf 9963 ccbe 5495 1bbf 0271 7a3d
000000d0: d29e 04bf 18bc 2ebf 74d5 1abf a672 29bf
000000e0: eb70 29bf 8ada 153f 2268 e0be 7e24 503d
000000f0: db06 1bbf e5bd 33bf 8b82 17bf 671f 24bf
00000100: 7bc9 f2be 58a6 0c3f 4d1e 1bbf e1fd 4fbf
00000110: 7cd9 33bf 2aca 14bf 74d4 18bf 334c 4cbd
00000120: b238 05bf 7147 2ebf ed88 1ebf 3e4c 7a3d
00000130: 4c57 17bf aef7 163f 060c 13bf c7f0 06bf
00000140: 7045 dbbe 00a9 6bbc 3cc9 1ebf 40b7 14bf
00000150: 6fac 4ebf 6787 013f 2cc4 27bf 525e a2bd
00000160: 0624 30bf 2047 a1bc fb28 27bf c4ac 2cbf
00000170: 5b97 22bf be31 d3be 13f2 30bf 8028 dabe
00000180: 9569 c9be 28e4 0abf e914 2abf 2006 33bf
00000190: 6fbb 86be c98f 20bf e59c 0bbf 3d64 0dbf
000001a0: 6839 223f 8b29 81be 3420 0fbf 6cbd 19bf
000001b0: d926 2d3f 6017 f0be 7838 2d3f 64d1 d6be
000001c0: 05be aebe cf1e 0abf 4709 173f 8f9b e1be
000001d0: 2f95 96be ac3d a23c e3bd d4be f04e 54bd
000001e0: d30b cdbe f4f9 1d3f ceac 35bf 18f5 cebe
000001f0: ab2b f6be d115 3abf 8336 8d3e 3111 cfbe
00000200: 6d5a d3be e598 183f 143f b9be bffb e1be
00000210: 661d 173d c723 47bd e267 41bf 7625 1bbf
00000220: 11f8 b2be 576f 0fbf a775 4cbf 31fc 0dbf
00000230: 39dc 06bf 27c7 e7be e547 cdbe 9c63 32bf
00000240: a08c 0fbf 5886 18bf 4f68 053f 45e1 063f
00000250: eb65 1abf 0030 dcbe d63b cbbe 5fe0 85be
00000260: 6807 253f d8f4 0ebf 6633 eabe 3317 38bf
00000270: 1a65 063f dad7 94be f225 dfbe acd7 29bf
00000280: 8a03 003f a2a9 26bf d454 03bf edd2 023f
00000290: 7361 e1be bf50 0abf 2661 16be 62cb ecbe
000002a0: b27c 03bf fb03 0dbf 3b36 5bbf f6fb 23bf
000002b0: 62b7 4d3f 92f7 2fbf 4602 9fbe 5b9f 323f
000002c0: 2975 103f 5098 b8be ecb2 bbbe 04ac 1c3f
000002d0: adab c83d a4ac 39be 57e9 9cbe 739b e4bd
000002e0: 8911 e4bd a79b c03e a74e 39be e76e 233f
000002f0: 5929 b13e c765 033e 22bf 99be e4bd 81bf
00000300: 346f 263f 68d9 883e fda7 34bf b0dc fa3e
00000310: 5540 163f aab9 8d3e 85e9 22bf ba9c 62bf
00000320: 2f67 06bf 0426 01bf 8d54 2abf 3e2a c3bd
00000330: b4d9 febe c721 bf3e 2845 10be 7d2f bc3d
00000340: b9e4 993e ace9 ddbd 85e5 8c3e 8a4b 1fbf
00000350: 3e2c f5bd 00a2 673f 7083 843c ea51 4ebe
00000360: f904 afbe a946 02bf 7bb8 16bf 451b 11bf
00000370: f418 4fbe ca2a 7e3e bdc6 883d 56f1 84bd
00000380: ba4a 2cbf c374 283f 08f0 343e 9fd6 78bf
00000390: 5166 46be 6025 2fbe 7df6 6a3e c362 803e
000003a0: 8e2c 623e 2616 e4be 9317 48bf 6cf5 bf3c
000003b0: b0f8 2ebf df0f 2abf 7c00 efbd 34f9 cc3e
000003c0: fa09 663e 309d 2bbf 2159 18bf ebef 1c3e
000003d0: bb87 fcbe cf16 43bf 8da3 2bbf d668 8e3d
000003e0: 45bf 533e f8af b4bd 14bf 07bf 7ddc 253f
000003f0: 56a8 28bf 39d3 1abf 24c1 b33e 4903 763e
-0.68941575 -0.46168098 -0.59610623 -0.5032702 -0.73551416 0.011846125 -0.5099043 -0.077545635
-0.5943707 -0.004470207 -0.5290072 -0.5268121 -0.631609 -0.6353988 -0.597922 -0.84239686
-0.6328999 -0.5348711 -0.104067825 -0.5007057 -0.6542868 -0.5781701 -0.047382087 -0.55526274
-0.50177443 -0.012605734 -0.44585982 -0.0315762 -0.49688318 0.03876815 -0.10505918 -0.5172982
-0.5768607 0.10447375 -0.5623558 -0.45074064 0.021817975 -0.51883924 -0.5698869 -0.666613
-0.49598542 0.055063434 -0.10100423 0.102856584 -0.60155743 -0.0068080574 -0.66591495 -0.55856895
-0.54753226 -0.39919737 -0.6077473 0.06114293 -0.5180484 -0.6825576 -0.60481954 -0.66190565
-0.66187924 0.5853659 -0.43829447 0.05081605 -0.60557336 -0.7021163 -0.5918357 -0.64110416
-0.47419342 0.5494132 -0.6059311 -0.81246763 -0.7025373 -0.5812098 -0.5969918 -0.049877357
-0.52039635 -0.6807776 -0.6192768 0.061107866 -0.5911758 0.5897168 -0.5744022 -0.5271115
-0.42826414 -0.014383554 -0.6202581 -0.5809212 -0.8073186 0.5059723 -0.6553371 -0.079281464
-0.6880497 -0.019687235 -0.65296906 -0.6745112 -0.635122 -0.41248888 -0.69119376 -0.42609024
-0.39338365 -0.5425439 -0.66438156 -0.6993122 -0.26314875 -0.627194 -0.5453628 -0.55231076
0.63368845 -0.25227007 -0.55908513 -0.6005466 0.676374 -0.46892834 0.6766429 -0.41956627
-0.34129348 -0.5395326 0.5899853 -0.44063994 -0.29410693 0.019804798 -0.41551122 -0.051833093
-0.40048084 0.61709523 -0.70966804 -0.40421367 -0.4808019 -0.7268954 0.27580652 -0.40442804
-0.41279927 0.596083 -0.36180937 -0.4413738 0.03689327 -0.048618104 -0.7554914 -0.60604036
-0.34954885 -0.56029266 -0.79867023 -0.5546294 -0.52679783 -0.4526913 -0.40093914 -0.6968324
-0.5607395 -0.5957999 0.5211229 0.52687484 -0.60311764 -0.4300537 -0.3969409 -0.26147744
0.64464426 -0.5584235 -0.4574234 -0.719104 0.5249802 -0.29070932 -0.43583637 -0.66344714
0.500054 -0.6510259 -0.5130131 0.511031 -0.4401966 -0.5402946 -0.14685497 -0.4624892
-0.51362145 -0.550842 -0.85629624 -0.64056337 0.80357945 -0.6873714 -0.31056422 0.6977441
0.5642877 -0.36053705 -0.36659944 0.61199975 0.097983696 -0.18132263 -0.30646774 -0.11162462
-0.11136157 0.37618753 -0.1809641 0.638411 0.34601858 0.12831794 -0.30028635 -1.0136075
0.6501343 0.26728368 -0.7056883 0.48996496 0.5869191 0.27680713 -0.6363757 -0.88520396
-0.52501196 -0.5044863 -0.66535264 -0.095295414 -0.4977547 0.37330458 -0.14088881 0.09188745
0.30057314 -0.10835585 0.2751886 -0.6222464 -0.11971329 0.9048157 0.016175956 -0.20148435
-0.3418348 -0.5088907 -0.58875245 -0.56682235 -0.20224363 0.2482101 0.06678531 -0.06491344
-0.67301524 0.65803164 0.1766969 -0.97202486 -0.19374968 -0.17104101 0.2294559 0.2507535
0.22087309 -0.44548148 -0.7816097 0.023432456 -0.68348217 -0.6643047 -0.11670014 0.40033877
0.22464743 -0.67036724 -0.59511 0.15325896 -0.49322304 -0.7620668 -0.67046434 0.069535896
0.20678432 -0.08822626 -0.5302594 0.64789563 -0.6588186 -0.6047855 0.35108292 0.2402469

fc3.bias f4 [90]
00000000: 2d9c 40bf 8145 3ebd f0e8 05bf 99bf cfbe
00000010: 41ab a7bc 2a6a 64bf 3a90 86be 2444 47bf
00000020: a34b 85bf c152 6bbf 9b58 7cbf bb45 1fbf
00000030: 4786 e9be e8da ea3d dd65 f9bd 89cf 1b3e
00000040: fe62 50bf f28b 453d d63d 1bbe 54a7 4dbe
00000050: 227e 3ebf 8d4c 8fbf ab1a f5be ffa0 fbbe
00000060: dd93 98bf 311b aa3c 4d7f 38be e5ce 7cbf
00000070: d40c 91bf 31c6 3bbf 0bad d9bd 2feb 42bf
00000080: dcab b73e 0e1a ae3d c557 e3bd c1b4 14bf
00000090: 5ba1 dfbe 3e75 b4bf 454b 01bf 4c65 0cbf
000000a0: 1eb9 11bd ecc1 a3bf 2580 653e 49ac 5cbf
000000b0: 1d48 f6be 3fed 9e3e a951 18bf ae36 d63e
000000c0: 7cb6 e6be f313 20bf d204 05bf fb43 27bf
000000d0: 278e 6dbe d515 a4be 2672 483e a6ed 0abe
000000e0: c37e e6be a601 66bf 1a82 03be bf85 1bbf
000000f0: a188 9dbe ed3d 84bf 1893 f5be ef3c f4be
00000100: 014a 0fbf 6a33 bfbe 3abc fbbe b182 82bf
00000110: 9d22 4ebe 0571 2e3e 0443 78bf dfad edbd
00000120: b906 78bf eb40 b1be 0d24 9e3e 7c39 2cbf
00000130: 60c1 40bf e77e 25bf 7858 49be 4601 23bd
00000140: 0c89 15bf b93c 493f e15a 50bf 14f2 2fbf
00000150: 7a7f 8cbe f6f3 e3be 2775 a9bf b371 f7bd
00000160: 5433 b6be 4538 8dbd
-0.75238305 -0.046453003 -0.5230856 -0.40575865 -0.020467402 -0.89224494 -0.2628191 -0.7783835
-1.0413707 -0.9192315 -0.985727 -0.62215775 -0.45610258 0.11467534 -0.12177632 0.15215887
-0.8140105 0.048229165 -0.15160307 -0.20083362 -0.74411213 -1.1195236 -0.4787191 -0.49146268
-1.1920124 0.020764919 -0.18017311 -0.98753196 -1.133204 -0.7334929 -0.106287085 -0.7614011
0.35873306 0.08501063 -0.11100725 -0.5808831 -0.43677792 -1.409828 -0.5050548 -0.54842067
-0.035576932 -1.2793555 0.22412165 -0.86200386 -0.48101893 0.3104038 -0.59499604 0.41838592
-0.450611 -0.6253044 -0.5196048 -0.65338105 -0.23198758 -0.32047907 0.19574794 -0.13567218
-0.45018587 -0.89846265 -0.12842599 -0.60750955 -0.30768302 -1.0331398 -0.47963786 -0.4770274
-0.55972296 -0.37343913 -0.49167043 -1.0196134 -0.20130391 0.17035301 -0.9697726 -0.11605429
-0.9688526 -0.3461984 0.3088688 -0.67275214 -0.75295067 -0.6464676 -0.19662654 -0.039796136
-0.5841224 0.7860828 -0.8138867 -0.68728757 -0.27441007 -0.44522065 -1.3238877 -0.12082233
-0.35586035 -0.06895498

fc4.weight f4 [1, 90]
00000000: 759f 9c3e 9c2c 0a3f fbe2 743e e1f7 0a3f
00000010: 8d96 b4bd 980b 743e fcf7 0b3f 26c5 a73e
00000020: 0f2a 073f 839e 4a3f b709 fb3d f61f 133f
00000030: 12b2 2c3f a79b 8c3f 7c5c 0a3f 2347 553d
00000040: 3a95 013e 3320 ebba 877e 0c3f 95cd 843e
00000050: 7c4d 913e 9842 dc3d 1f97 8d3e 44f5 203f
00000060: b0a5 1e3f 0ed6 0f3f bc92 0a3f bf0e d9be
00000070: aefd 4bbe b155 ea3e 9cbc 173f fb47 ad3e
00000080: c20d 513e 4a43 5bbd cdab 0d3f 3ec7 883e
00000090: 43c4 f53e fed3 d83e 167c a73e 20e6 5a3e
000000a0: 22dd a4bd e2ab 33bf 5faf 47bd 3c8a 8bbe
000000b0: 718b fbbc 9d2a 83bd aee1 c83d 9ff2 a8bf
000000c0: e146 273f 60f7 00bf 1f59 e13e 78fd 063f
000000d0: 8928 083f 5093 023f 03d8 d4bd 870c 2f3e
000000e0: 2b16 1b3f cdab 123f e8e2 8e3d 2155 e43e
000000f0: 9489 233f 7e23 c2be cdd8 06bf 87cf 153f
00000100: e990 263f 3764 453e 0f0c 153f 7232 e93e
00000110: 9062 773e 4ee1 b7bd f88f f03e f313 193f
00000120: 81b1 673e 3201 103f c102 67bd deed 18bf
00000130: 946a e33e 25f9 873e a67e 0a3f 2218 4f3d
00000140: cfc1 e93d aa16 8bbd c3d4 a83e 25a5 213f
00000150: 0844 c23e 8dd1 b33e 5845 a6bd a246 173f
00000160: 25c0 e03e db87 fd3c
0.30590406 0.5397432 0.23914711 0.54284483 -0.08817778 0.23832548 0.5467527 0.327676
0.5279855 0.7914812 0.12257712 0.57470644 0.67459214 1.0985001 0.5404737 0.052069794
0.12654582 -0.0017938673 0.54880565 0.25938097 0.28379428 0.10754889 0.2765436 0.62874246
0.6197157 0.56185997 0.5413015 -0.42394063 -0.1992099 0.45768502 0.5927217 0.3384398
0.20415404 -0.05353097 0.5534027 0.2671451 0.48001298 0.42349237 0.32711858 0.21376848
-0.0804999 -0.7018415 -0.04875123 -0.27253902 -0.03070614 -0.06404612 0.0980867 -1.3199042
0.6534253 -0.50377464 0.44013306 0.5273051 0.5318685 0.5100603 -0.103927635 0.17094623
0.605807 0.572934 0.06976873 0.44596198 0.638818 -0.37917703 -0.5267456 0.58519787
0.65064865 0.1927651 0.58221525 0.455463 0.24158692 -0.0897852 0.4698484 0.59796065
0.22626306 0.56251824 -0.05639911 -0.59737957 0.4441725 0.2655727 0.540995 0.050560124
0.11413919 -0.06791432 0.32974824 0.63142616 0.3794253 0.35120812 -0.08118695 0.5909215
0.43896595 0.03094857
