VanillaModel2.pt (torch, 10699 bytes, 7 tensors)

fc1.weight f4 [30, 3]
0	0x3ee666bc	0.45000255
1	0xbf1e229a	-0.6177155
2	0xbede3366	-0.4339859
3	0x3f892764	1.0715146
4	0x3ff2de3e	1.8974073
5	0x3e359670	0.17733169
6	0x3fb26eee	1.3940103
7	0x40015b88	2.0212116
8	0x3e928bba	0.28622228
9	0x3fda510c	1.7055984
10	0x3fd6ea2f	1.6790217
11	0xbd90a81b	-0.070633136
12	0x3f7cdfb4	0.98778844
13	0xbf73db7f	-0.952568
14	0xbeca7201	-0.39540103
15	0x3fa44335	1.283301
16	0x40000cc1	2.0007784
17	0x3ea509ba	0.32233983
18	0x3f1839d2	0.59463227
19	0x3fe84e56	1.8148906
20	0x3e8c22ff	0.2737045
21	0x3f67417c	0.90334296
22	0xbf003068	-0.5007386
23	0x3e5112ca	0.20417324
24	0x3d97f70c	0.07420167
25	0xbf97bdcb	-1.1854795
26	0xbf539203	-0.8264467
27	0x3d7a3560	0.06108606
28	0xbe90f3ea	-0.28311092
29	0x3cc1af00	0.023643017
30	0x3f099cbf	0.537548
31	0xbdc528b8	-0.09626907
32	0xbf12f79d	-0.5740908
33	0x3f035ec9	0.51316506
34	0x3fb89ec5	1.4423453
35	0xbd3a0071	-0.045410577
36	0x3dd729d5	0.10506026
37	0x3f7357ee	0.95056045
38	0xbe2b367e	-0.16720006
39	0x3e8c330a	0.2738269
40	0xbed78188	-0.42091012
41	0xbdc89760	-0.097944975
42	0x3ee125c2	0.4397412
43	0xbf91a316	-1.1377895
44	0xbee0dd3b	-0.43918785
45	0x3f3749fb	0.7159726
46	0xbebf0b3d	-0.37313262
47	0xbf58283f	-0.8443641
48	0x3f4ae407	0.7925419
49	0xbf528985	-0.8224109
50	0xbe9fbfb2	-0.3120094
51	0x3f32ebc1	0.6989098
52	0x3f9ea818	1.2395048
53	0x3e8ddc70	0.27707243
54	0x3f500c1c	0.8126848
55	0x3efd293b	0.4944552
56	0xbccdc9eb	-0.025120696
57	0x3e17c01d	0.14819379
58	0x3f4f7b66	0.81047666
59	0xbdef52b9	-0.116857
60	0x3dc39e27	0.095516495
61	0xbf1dadd2	-0.61593354
62	0xbf242da6	-0.64132154
63	0x3f21eb09	0.6324926
64	0xbee053fb	-0.43814072
65	0xbf0c7f83	-0.5488207
66	0x3ed4b28c	0.4154247
67	0x3f49f991	0.78896433
68	0xbe99ece7	-0.30063555
69	0x3f0ef7ab	0.5584666
70	0xbfbd3a72	-1.4783461
71	0xbeb74c16	-0.35800236
72	0x3f95ab37	1.1692876
73	0x3fc01fa3	1.5009655
74	0x3e69c79f	0.22830056
75	0x3f253ae7	0.64543
76	0x400c0352	2.1877027
77	0x3e81003d	0.25195494
78	0x3f2f7fe9	0.6855455
79	0x3fc1aac9	1.5130244
80	0x3e25701d	0.16156049
81	0x3f279154	0.6545613
82	0x3f9c05b8	1.2189245
83	0x3eb29bb2	0.3488441
84	0x3f1c81d8	0.61135626
85	0xbed28590	-0.41117525
86	0xbf25dc4e	-0.64789283
87	0x3f4cacd2	0.799512
88	0x4003d800	2.0600586
89	0x3e8e45a5	0.2778751

fc1.bias f4 [30]
0	0xbfdb773f	-1.7145766
1	0xbf64430c	-0.89164805
2	0xbf5ddd13	-0.8666546
3	0xbf34e1c7	-0.7065701
4	0xbfc960df	-1.5732688
5	0xbe6089c2	-0.2192755
6	0xbf670738	-0.9024539
7	0xbfa55f5f	-1.291973
8	0x3e81b5c7	0.25333998
9	0xbef47f96	-0.4775359
10	0xbea784e2	-0.3271857
11	0xbf906975	-1.1282183
12	0xbec831c6	-0.39100474
13	0xbf8380c2	-1.0273669
14	0xbfd03dde	-1.626888
15	0xbfb71cba	-1.4305642
16	0xbf5f744f	-0.8728685
17	0xbf2c2dba	-0.67257273
18	0xbf21f2e1	-0.6326123
19	0xbebfaeff	-0.374382
20	0xbfabc713	-1.3420128
21	0xbf2dda73	-0.6791145
22	0xbed543a8	-0.4165318
23	0xbfcd9fed	-1.606443
24	0xbf5aee4a	-0.8551985
25	0xbf485dd5	-0.78268176
26	0xbed33b1c	-0.41256034
27	0xbeb5e326	-0.35524863
28	0xbfcfff54	-1.6249795
29	0xbf876323	-1.0577129

fc2.weight f4 [30, 30]
0	0xbe741c35	-0.23838885
1	0xbf120a37	-0.57046837
2	0xbf12dc66	-0.5736755
3	0x3e3a9e1c	0.18224376
4	0xbe1756e5	-0.14779241
5	0x3eabea16	0.3357703
6	0xbf2894df	-0.6585216
7	0x3f24e560	0.644125
8	0xbec3b1f2	-0.382217
9	0xbcdad548	-0.026713029
10	0xbe0a7a35	-0.13523181
11	0xbf0e2a2e	-0.5553311
12	0x3e2f94cb	0.17146604
13	0xbe22eb8f	-0.15910171
14	0x3aca5503	0.0015436712
15	0x3e29e5a6	0.1659151
16	0xbdb90bf7	-0.09035485
17	0x3e94359c	0.2894715
18	0xbbc3e511	-0.0059782346
19	0x3ddd7c48	0.108147204
20	0xbe8e6b6b	-0.27816328
21	0xbea1637d	-0.31521216
22	0x3e8661a4	0.2624637
23	0x3f1ab73d	0.6043585
24	0xbf3256ff	-0.69663996
25	0xbf312907	-0.6920323
26	0xbf1bd0f1	-0.60865694
27	0x3e8d4418	0.27591014
28	0x3c0392f4	0.008030642
29	0xbf153318	-0.5828109
30	0xbda42a1d	-0.08015845
31	0xbf19dbab	-0.6010081
32	0xbee17d2c	-0.4404081
33	0xbf30601c	-0.6889665
34	0xbf29d7ac	-0.66344714
35	0xbf0f96a1	-0.56089216
36	0xbf00f300	-0.5037079
37	0x3dd8d070	0.10586631
38	0xbe358e7b	-0.17730133
39	0x3c3a3000	0.011363983
40	0x3e24dee0	0.16100645
41	0xbf330f71	-0.69945437
42	0xbd9b7c9b	-0.07592126
43	0x3c0179e0	0.007902592
44	0xbf243791	-0.6414729
45	0xbf0dc59e	-0.55379665
46	0xbf1fc845	-0.6241496
47	0xbf2de600	-0.6792908
48	0xbe191f48	-0.14953339
49	0x3dd2af3c	0.102873296
50	0xbf1cafb4	-0.612056
51	0xbef578f4	-0.47943842
52	0xbd90b8f5	-0.07066528
53	0xbf051bd3	-0.5199558
54	0xbf07353b	-0.528156
55	0xbef5d3ea	-0.4801324
56	0xbf26413d	-0.64943296
57	0xbece33f6	-0.40274018
58	0xbf166d66	-0.5876068
59	0xbf18aaae	-0.59635437
60	0xbe7a672f	-0.24453424
61	0x3e4df496	0.20112833
62	0x3ed4b629	0.41545227
63	0x3eb0ae1b	0.34507832
64	0x3f0599ac	0.5218761
65	0x3e07ed9a	0.13274232
66	0x3e2d0839	0.16897668
67	0xbdf85bc0	-0.12126875
68	0xbed3c90b	-0.4136432
69	0x3d9f947c	0.07791993
70	0xbf658743	-0.8965952
71	0xbd20d3fb	-0.03926466
72	0xbf2f3961	-0.6844693
73	0x3dce8771	0.10084427
74	0x3f34d0e3	0.70631236
75	0x3f0c3fc5	0.54784805
76	0x3f3b28ed	0.7310932
77	0xbd9103f9	-0.07080836
78	0xbefa1137	-0.4884126
79	0xbefb5b0d	-0.49092904
80	0x3e773530	0.24141383
81	0x3d429ace	0.047510915
82	0xbed5cc03	-0.4175721
83	0x3f0ac530	0.54207134
84	0x3d931806	0.071823165
85	0x3ee88fb3	0.45422134
86	0xbeb0e212	-0.34547478
87	0xbdab8ed0	-0.08376849
88	0x3ebb51e7	0.36585924
89	0x3f360569	0.71102005
90	0xbf1d483a	-0.61438334
91	0xbe980d79	-0.2969778
92	0xbf0e1e82	-0.555153
93	0xbd2e07cc	-0.042487904
94	0xbf2fd348	-0.68681765
95	0xbf4ad376	-0.79228914
96	0xbf04bd90	-0.5185175
97	0x3ebb0f77	0.36535236
98	0xbf377b14	-0.7167218
99	0xbe1dfb52	-0.15427902
100	0xbf187fc6	-0.59569967
101	0xbf1a10ef	-0.6018209
102	0xbda2f25d	-0.079563834
103	0x3ef5b12d	0.47986737
104	0xbe016d4d	-0.12639351
105	0xbe87f174	-0.26551402
106	0xbef8b3f3	-0.4857479
107	0xbeac8258	-0.33693194
108	0xbf37ff0f	-0.71873564
109	0xbe71c9a0	-0.2361207
110	0xbf2b9b41	-0.67033774
111	0xbf118e7d	-0.56858045
112	0xbf2e137f	-0.679985
113	0xbf22de6a	-0.63620627
114	0xbf377719	-0.71666104
115	0xbf2724d5	-0.65290576
116	0xbed89da9	-0.42307785
117	0xbdb038e5	-0.08604602
118	0xbeb82c7f	-0.35971448
119	0xbf33c59c	-0.702234
120	0xbce81def	-0.028334586
121	0xbf17ea7e	-0.5934218
122	0xbeb839ec	-0.3598169
123	0x3d7f5490	0.062336504
124	0xbe0ec926	-0.1394392
125	0xbe989b78	-0.29806113
126	0xbe995279	-0.29945734
127	0x3e79f964	0.24411541
128	0xbf014e3a	-0.5050999
129	0xbdff309a	-0.12460442
130	0x3dc1bec2	0.09460212
131	0xbf10dbae	-0.56585205
132	0x3dd90087	0.10595804
133	0xbdd8c4ec	-0.10584435
134	0xbeceb631	-0.40373376
135	0xbd990995	-0.07472531
136	0xbe9316a1	-0.28728202
137	0xbf197065	-0.59937125
138	0xbf067170	-0.5251684
139	0xbe7b2b87	-0.24528323
140	0xbeedd855	-0.4645411
141	0xbeb3d6c0	-0.3512478
142	0xbe044948	-0.1291858
143	0x3f0f9d6e	0.56099594
144	0xbf3496c7	-0.7054257
145	0xbeb6303f	-0.35583684
146	0xbeb49c4a	-0.3527549
147	0xbcc255e7	-0.023722602
148	0xbe8ed6d6	-0.27898282
149	0xbf47131c	-0.77763534
150	0xbf217ef6	-0.6308435
151	0xbf111e89	-0.5668722
152	0xbf06745d	-0.52521306
153	0x3e04de62	0.12975457
154	0xbebe72f0	-0.37197065
155	0x3f81c152	1.0137122
156	0xbeaf067f	-0.34184644
157	0x3eb07bd2	0.34469467
158	0xbf7c0da9	-0.98458344
159	0x3e216424	0.15760857
160	0xbe4bacb3	-0.19890098
161	0xbef8e496	-0.48611897
162	0xbf0c4aa0	-0.5480137
163	0x3f2ae097	0.66748947
164	0xbf36af9e	-0.7136172
165	0xbeb9dae3	-0.3629981
166	0xbf4da70a	-0.80333006
167	0xbe889fd9	-0.26684454
168	0xbf16ffeb	-0.5898425
169	0xbf2c52eb	-0.6731402
170	0xbf296584	-0.66170526
171	0xbf0d33a8	-0.55156946
172	0xbf034d52	-0.51289856
173	0xbf1a2ce7	-0.60224766
174	0xbf01495e	-0.50502574
175	0xbebf2e82	-0.3734017
176	0xbeb4ad4c	-0.35288465
177	0xbe1895d1	-0.149009
178	0xbf5b0e08	-0.85568285
179	0xbef1387a	-0.471134
180	0xbe35021c	-0.17676586
181	0xbf0849d8	-0.53237677
182	0xbf141d14	-0.5785687
183	0x3e11d8da	0.14242879
184	0x3d81a96c	0.06331143
185	0xbebb5783	-0.36590204
186	0xbec58419	-0.38577345
187	0x3eeea133	0.4660736
188	0xbf23e5f3	-0.6402275
189	0xbdc089f1	-0.0940131
190	0x3d3bee30	0.04588145
191	0x3ee23e23	0.44188032
192	0x3ddf8134	0.109133154
193	0xbeb8f119	-0.36121443
194	0xbdc8a739	-0.0979752
195	0xbdce56b4	-0.10075131
196	0xbf018d5b	-0.50606316
197	0x3ea9923e	0.33119386
198	0x3d9b232c	0.07575068
199	0x3cfa4ec0	0.030555129
200	0xbd38a990	-0.045083582
201	0xbd843bc9	-0.064567156
202	0xbf225b73	-0.6342079
203	0x3ddaddcc	0.10686836
204	0xbf130dd7	-0.5744299
205	0xbf24d0f1	-0.6438132
206	0xbf251641	-0.6448708
207	0xbd81b81c	-0.06333944
208	0x3cff7390	0.031183034
209	0xbed91eab	-0.4240621
210	0xbe49bc9b	-0.19700854
211	0xbf2479a7	-0.64248127
212	0xbf002a71	-0.5006476
213	0xbd5bd144	-0.053666368
214	0xbe9019bc	-0.28144634
215	0xbdb67958	-0.08909863
216	0xbf4d5c3b	-0.8021886
217	0x3f6df99e	0.9295901
218	0xbf81fc31	-1.0155088
219	0xbe2da1dd	-0.16956277
220	0x3e3c3dea	0.18382993
221	0xbec1f71a	-0.37883836
222	0xbf3d51df	-0.7395305
223	0xbf078045	-0.529301
224	0xbee77ea7	-0.45213816
225	0xbf0c9aae	-0.5492352
226	0xbeb9e5c9	-0.36308125
227	0xbec30e72	-0.38096958
228	0xbe8c771b	-0.2743462
229	0xbf0d8985	-0.55287963
230	0xbeb3e3e1	-0.35134795
231	0xbf33c74a	-0.70225966
232	0xbd1c9770	-0.03823036
233	0x3ec9affa	0.39392072
234	0xbecfaf00	-0.40563202
235	0xbead492f	-0.33844897
236	0xbef39835	-0.47577062
237	0xbeb1f517	-0.347573
238	0xbe76b18a	-0.24091163
239	0xbea2ca4d	-0.31794968
240	0xbde515e0	-0.11185813
241	0xbf285e34	-0.6576874
242	0xbf064f94	-0.52465177
243	0xbdc995b9	-0.098430105
244	0x3cf36248	0.02970995
245	0xbf33d6ed	-0.70249826
246	0xbf160265	-0.58597404
247	0xbee56436	-0.44803017
248	0xbf2c8ee8	-0.6740556
249	0xbe35bd73	-0.1774805
250	0xbf1ef206	-0.6208805
251	0xbee28789	-0.4424403
252	0x3d541568	0.051778227
253	0x3e26d796	0.16293177
254	0x3e097d5e	0.1342673
255	0xbf3b1532	-0.73079216

fc2.bias f4 [30]
0	0xbf11cd19	-0.5695358
1	0xbf1c0eed	-0.60960275
2	0xbf800ff6	-1.0004871
3	0xbf199b7d	-0.6000288
4	0xbedaa559	-0.42704275
5	0xbf2b8fb2	-0.67016137
6	0xbec82783	-0.39092645
7	0xbf21b027	-0.6315941
8	0xbf0d729d	-0.5525301
9	0xbeaef188	-0.3416865
10	0xbf368cdf	-0.713087
11	0xbee9f35f	-0.4569349
12	0xbf53fade	-0.8280467
13	0xbe63d418	-0.22248876
14	0xbd5e5e68	-0.05428925
15	0xbeefdfc8	-0.4685042
16	0xbf06e0fc	-0.5268705
17	0xbf79f353	-0.9763691
18	0xbf205ff6	-0.62646425
19	0xbec8752a	-0.3915189
20	0xbef64df0	-0.48106337
21	0xbe9a0b37	-0.3008668
22	0xbf002fcd	-0.5007294
23	0xbf2ffab9	-0.6874195
24	0xbf63ea75	-0.8902963
25	0xbf2618d5	-0.6488164
26	0xbedf1a60	-0.4357481
27	0xbef6b065	-0.48181453
28	0xbef06dcd	-0.4695877
29	0xbd8eaec6	-0.06966929

fc3.weight f4 [30, 30]
0	0xbed11999	-0.40839842
1	0xbdab44d3	-0.083627366
2	0xbf2c9921	-0.67421156
3	0xbefe08f4	-0.49616206
4	0xbf2077dc	-0.6268289
5	0xbf26b201	-0.6511536
6	0x3de85160	0.11343646
7	0x3e2c1ec4	0.16808611
8	0x3db92138	0.09039539
9	0xbf2e17d7	-0.68005127
10	0xbdebd876	-0.11515896
11	0xbc9d4f90	-0.019202977
12	0xbeb7eff5	-0.3592526
13	0xbf295171	-0.66139895
14	0xbe1ef5eb	-0.15523498
15	0xbd827ba6	-0.0637124
16	0xbe2c9ebb	-0.16857426
17	0xbeaf2ae2	-0.34212404
18	0xbdbac7e5	-0.09120158
19	0xbf179efc	-0.59226966
20	0x3ddd4e78	0.10805982
21	0xbf155a9a	-0.5834137
22	0xbf097bc9	-0.53704506
23	0x3d95f630	0.07322347
24	0xbe2c9a46	-0.16855726
25	0xbedbe6e3	-0.4294959
26	0x3e0f7f68	0.14013445
27	0x3e196082	0.14978221
28	0xbec4d14f	-0.3844094
29	0x3e089cba	0.13341036
30	0xbe0a0f1f	-0.1348233
31	0x3ee91ab2	0.4552818
32	0x3e8b5bbe	0.2721843
33	0x3dc1f3bc	0.09470317
34	0x3e07a31e	0.13245818
35	0x3bb37920	0.0054770857
36	0xbc6b8150	-0.014374092
37	0xbd41862c	-0.047247097
38	0xbe0a3f54	-0.1350072
39	0x3c46f460	0.0121432245
40	0xbd1eb8b0	-0.03875035
41	0x3e39da32	0.18149641
42	0x3df2ad5f	0.11849474
43	0xba6dc500	-0.0009070188
44	0xbd8ba750	-0.06819022
45	0x3d865a14	0.0656015
46	0x3da89874	0.08232203
47	0x3e679e51	0.22618987
48	0xbda63ad3	-0.081166886
49	0xbdf68443	-0.12036946
50	0xbe2ed10c	-0.17071933
51	0x3de607f4	0.11231986
52	0xbe394dd0	-0.1809609
53	0xbf09435a	-0.53618395
54	0x3d0b1618	0.033956617
55	0xbcf2f828	-0.029659346
56	0x3beb5e00	0.0071828365
57	0x3d1bc804	0.038032547
58	0xbd49934c	-0.04921274
59	0xbd863c60	-0.06554484
60	0xbe7ca24f	-0.24671291
61	0xbe258236	-0.16162953
62	0xbf278a17	-0.65445083
63	0x3d86d6f5	0.065839685
64	0xbeae40bc	-0.34033763
65	0x3dcf5acd	0.10124741
66	0x3e19100a	0.14947525
67	0xbe1e433f	-0.1545534
68	0x3f1b4cd7	0.60664123
69	0xbe5bc7ef	-0.21462987
70	0x3efdb8bf	0.49555013
71	0x3f046956	0.5172323
72	0xbed8156c	-0.42203844
73	0xbe3ca7eb	-0.1842343
74	0xbd1f072c	-0.0388252
75	0x3f1c0120	0.60939217
76	0x3f476cc3	0.7790033
77	0xbeca8c16	-0.39560002
78	0x3f42d590	0.7610712
79	0xbec8e63e	-0.3923816
80	0x3abacb8c	0.0014251336
81	0xbe3d2370	-0.1847055
82	0xbeaf5213	-0.34242305
83	0x3b2a450a	0.0025981092
84	0x3ee5ed96	0.44907826
85	0xbf3d1d3e	-0.73872745
86	0x3f12ebc9	0.5739103
87	0x3f41720f	0.75564665
88	0xbec8fd58	-0.39255786
89	0x3d8dacc0	0.06917715
90	0xbeb72097	-0.35767052
91	0x3f246dab	0.6422984
92	0xbe23c432	-0.15992811
93	0x3e20c35f	0.15699528
94	0xbe4cff87	-0.20019351
95	0x3e53776a	0.20651022
96	0x3f139598	0.57650137
97	0xbd8223d0	-0.06354487
98	0x3f3fe0d1	0.7495242
99	0xbe537f93	-0.20654134
100	0x3f22ca9c	0.6359041
101	0x3ed9bb88	0.42525887
102	0x3e68abcc	0.22721785
103	0xbde0812f	-0.1096214
104	0x3e0b4632	0.13600996
105	0x3edc241e	0.42996305
106	0x3ef7d9ac	0.48408258
107	0x3f1557f9	0.5833736
108	0x3f175dce	0.5912751
109	0xbe9ef22c	-0.31044137
110	0xb961e21a	-0.00021541902
111	0xbe807d4d	-0.25095597
112	0xbe040cbd	-0.12895484
113	0xbe13756f	-0.14400266
114	0x3eec6edb	0.46178326
115	0xbf29e5ba	-0.6636616
116	0x3f0b9045	0.5451701
117	0x3f3e75eb	0.7439868
118	0xbe8e924c	-0.2784599
119	0xbdfd01de	-0.12353872
120	0xbf562ba4	-0.8366034
121	0x3e051862	0.12997583
122	0xbdeb8795	-0.115004696
123	0xbf087c47	-0.5331463
124	0xbf15fc36	-0.5858797
125	0xbe976418	-0.29568553
126	0xbdaee387	-0.08539491
127	0xbf19a681	-0.6001969
128	0xbdb0e2d6	-0.086370155
129	0xbf385402	-0.72003186
130	0x3dc93e08	0.09826285
131	0xbf3c5eaa	-0.73581946
132	0xbeeb119f	-0.4591188
133	0xbf76e852	-0.9644824
134	0x3d197320	0.037463307
135	0xbd2bf324	-0.041979924
136	0xbf00c984	-0.5030749
137	0xbeeb1518	-0.4591453
138	0xbe0dbaf0	-0.13840842
139	0xbf1e9750	-0.61949635
140	0xbe21b5f1	-0.15792061
141	0xbf486023	-0.78271693
142	0xbf08ac60	-0.53388023
143	0xbf1fc1f0	-0.624053
144	0xbeb76780	-0.35821152
145	0x3e63c003	0.22241215
146	0xbf3bbcef	-0.73335165
147	0xbedb09f2	-0.42781025
148	0xbf1f40ca	-0.62208235
149	0xbd8840c1	-0.06652976
150	0xbf3ca41c	-0.7368791
151	0xbca72ea0	-0.020407975
152	0xbefa0472	-0.48831517
153	0xbf35453f	-0.70808786
154	0xbf172894	-0.5904629
155	0xbef7cf2a	-0.4840024
156	0x3e3ac85e	0.18240497
157	0x3f64b004	0.8933108
158	0x3d942070	0.072327495
159	0xbf24c146	-0.6435741
160	0x3ed2b437	0.41153118
161	0x3f2c0842	0.672001
162	0xbf114c5f	-0.5675716
163	0xbefce0fa	-0.49390393
164	0xbc7ebfb0	-0.015548632
165	0x3efdc225	0.49562183
166	0x3ede4a0f	0.43415877
167	0xbec5c87a	-0.38629514
168	0x3e313b82	0.17307857
169	0xbef890c9	-0.48547962
170	0x3ee3cc36	0.44491738
171	0xbf2f5320	-0.68486214
172	0xbf13b96a	-0.57704794
173	0x3f24bdd3	0.6435215
174	0x3d09a054	0.033600166
175	0xbf3814c4	-0.71906686
176	0x3f2005f7	0.625091
177	0x3f18509b	0.59497994
178	0xbee0ac2a	-0.4388135
179	0x3db69b74	0.08916369
180	0xbe30d55c	-0.1726889
181	0xbdbb6fa2	-0.09152152
182	0xbdbf036e	-0.09326826
183	0xbe0663b1	-0.13123967
184	0xbd21d3ac	-0.039508507
185	0xbe16c45c	-0.14723343
186	0xbce06ab8	-0.027394637
187	0x3dc46670	0.09589851
188	0xbe13d8f6	-0.14438233
189	0xbd22d8a0	-0.03975737
190	0x3d824d0c	0.06362352
191	0xbcfa14d0	-0.030527502
192	0xbe40f7b6	-0.18844494
193	0xbe2f0a60	-0.17093801
194	0xbd72f814	-0.059318617
195	0xbd0ef2b8	-0.034899443
196	0xbd5d5250	-0.054033577
197	0xbcb681a7	-0.02227862
198	0xbd98858b	-0.07447346
199	0xbe0b3fe0	-0.13598585
200	0x3a18a600	0.0005823076
201	0xbe1d3c9c	-0.15355152
202	0x3b901260	0.0043967217
203	0xbf14a609	-0.5806585
204	0xbddb4c46	-0.107079074
205	0xbe142b3c	-0.14469618
206	0xbdc7fccd	-0.09765015
207	0x3a844a00	0.0010092854
208	0x3c0d5800	0.008626938
209	0xbd07d610	-0.03316313
210	0xbf4d2318	-0.80131674
211	0xbf219d03	-0.63130206
212	0xbf79f55e	-0.97640026
213	0xbed9e4ae	-0.4255728
214	0xbf0bf491	-0.54670054
215	0xbf6804ba	-0.9063221
216	0x3e2ad2dc	0.16681999
217	0xbee40a3a	-0.44539052
218	0xbf113568	-0.56722116
219	0xbd83bea5	-0.06432847
220	0x3e0c9b00	0.13731003
221	0xbf32147b	-0.695625
222	0xbed8789f	-0.42279527
223	0xbed7769f	-0.42082688
224	0xbc9afea8	-0.018920258
225	0xbf0f7c98	-0.5604949
226	0xbf0025b8	-0.50057554
227	0xbf37e282	-0.7183
228	0xbf07af14	-0.53001523
229	0xbef009d4	-0.46882498
230	0xbf40dccd	-0.75336915
231	0xbf12f440	-0.57403946
232	0xbf485b57	-0.78264374
233	0xbf166bc8	-0.5875821
234	0xbe3341fd	-0.17505641
235	0xbf2dc753	-0.6788227
236	0xbee6f9d1	-0.4511247
237	0xbf096dfe	-0.5368346
238	0xbf335a42	-0.700596
239	0x3e3751dc	0.1790232
240	0xbecb2626	-0.39677542
241	0x3d1161f8	0.03549382
242	0x3e090eee	0.13384601
243	0xbea45532	-0.3209625
244	0xbf359d66	-0.70943296
245	0xbefe1d50	-0.4963174
246	0xbedf7be0	-0.43649197
247	0xbf7b7eb4	-0.9824021
248	0xbe160c58	-0.14653146
249	0xbf3cad52	-0.73701966
250	0xbf0a6020	-0.54052925
251	0x3e1f4890	0.15555024
252	0xbe772e74	-0.24138814
253	0xbee2de9f	-0.4431047
254	0xbd7c7890	-0.061638415
255	0x3cfd90e0	0.03095287

fc3.bias f4 [30]
0	0xbf26d341	-0.651661
1	0xbee0ff29	-0.43944672
2	0xbe8a90fd	-0.27063742
3	0xbe7641d0	-0.24048543
4	0xbf5f85ec	-0.87313724
5	0xbd90dd20	-0.07073426
6	0xbea1597a	-0.31513578
7	0xbf6a48b6	-0.915172
8	0xbd85ba21	-0.06529642
9	0xbf0f84d6	-0.56062067
10	0xbe113495	-0.14180215
11	0xbf1af854	-0.6053517
12	0xbe8aa5c8	-0.27079606
13	0xbf3a66f9	-0.72813374
14	0xbe9cd70b	-0.30632815
15	0xbf50aafa	-0.8151089
16	0xbf69720b	-0.9118964
17	0xbf1bbf72	-0.60839
18	0xbf1974c5	-0.599438
19	0xbf06b7e0	-0.5262432
20	0xbf360db8	-0.71114683
21	0xbe801df1	-0.25022843
22	0xbe1de5f4	-0.15419751
23	0xbf1e9c07	-0.6195683
24	0xbe2b14eb	-0.16707198
25	0xbf2ca362	-0.674368
26	0xbe63c75a	-0.22244015
27	0xbf879376	-1.0591877
28	0xbe70ed06	-0.23527917
29	0xbf365a4c	-0.7123153

fc4.weight f4 [1, 30]
0	0x3f017e46	0.505833
1	0x3dc42492	0.09577288
2	0x3eee7240	0.4657154
3	0x3e073838	0.1320504
4	0xbef1fbc7	-0.47262403
5	0x3f0b30eb	0.5437152
6	0xbe8682de	-0.2627172
7	0x3eb7fbc4	0.3593427
8	0xbc461312	-0.012089508
9	0xbf211ee1	-0.6293774
10	0xbb96cbe0	-0.0046019405
11	0xbecb3d95	-0.3969542
12	0x3e9fa72c	0.3118223
13	0x3e96394c	0.2934059
14	0x3e9bc4ef	0.30423686
15	0x3ea75052	0.32678467
16	0xbec43a3e	-0.38325685
17	0xbf054fce	-0.520749
18	0x3e2d40e8	0.16919291
19	0x3ee22c1b	0.44174275
20	0xbebf2ae5	-0.37337413
21	0xbe8160d1	-0.25269178
22	0x3db2574c	0.08708057
23	0x3e8f20eb	0.27954802
24	0x3ec43a23	0.38325605
25	0x3f1d8207	0.6152653
26	0x3f2ec9c3	0.68276614
27	0x3ddb2c39	0.10701794
28	0x3c9f14ea	0.019419152
29	0x3e90e98f	0.2830319
