VanillaModel.pt (torch, 10699 bytes, 7 tensors)

fc1.weight f4 [30, 3]
1.1955476 0.13273787 0.024810702 0.8642977 0.049581427 -0.06468847 -0.129303 0.3342568
-0.42374998 0.62099636 0.12760825 0.028874103 1.1637663 0.07505939 0.058979575 0.5613949
-0.23650798 -0.24475718 0.9467689 -0.75400317 -0.17050414 1.5149764 -1.2281077 -0.16178149
1.0582883 -1.1296641 -0.44734365 0.7903003 0.5200394 -0.08977134 0.94897866 0.046797894
0.2125821 0.31741795 0.37786168 -0.30450463 -0.11842172 -1.1070682 -0.64363444 0.48603007
0.23774473 -0.23606274 0.9543364 0.25788286 -0.20534445 0.5529297 -1.2885952 -0.9475938
0.5554899 -0.088137075 -0.45968747 0.2433347 0.113765515 -0.3747333 0.06961963 -1.8619138
-1.0874571 1.5472548 2.5153317 -0.18713345 0.8235778 -0.009492826 -0.048976015 -0.09494876
0.98351616 -0.26997215 0.15274306 0.25903624 -0.03383393 1.2057403 -0.6261077 -0.29905885
1.645585 0.15734406 0.425965 1.5219854 -1.3710394 -0.4253648 0.92667 -0.61171335
-0.3064129 0.20517208 0.44918033 -0.36853027 -0.061056398 0.42450756 -0.091263816 0.63450724
-0.2193088 -0.4813854
00000000: b407 993f 70ec 073e d03f cb3c 9d42 5d3f
00000010: e515 4b3d 637b 84bd 0168 04be b523 ab3e
00000020: c2f5 d8be 9ef9 1e3f bdab 023e 6289 ec3c
00000030: 4bf6 943f bdb8 993d 9194 713d 93b7 0f3f
00000040: 262f 72be a0a1 7abe 725f 723f 5a06 41bf
00000050: a398 2ebe bfea c13f a232 9dbf 0caa 25be
00000060: fe75 873f d598 90bf 3a0a e5be 1f51 4a3f
00000070: 4d21 053f 09da b7bd 44f0 723f 26af 3f3d
00000080: 1faf 593e 9b84 a23e 1677 c13e 08e8 9bbe
00000090: 1687 f2bd 69b4 8dbf 3ac5 24bf efd8 f83e
000000a0: 5b73 733e 6eba 71be 644f 743f 3909 843e
000000b0: d145 52be cd8c 0d3f b0f0 a4bf 8295 72bf
000000c0: 9634 0e3f 3681 b4bd 285c ebbe bb2c 793e
000000d0: e5fd e83d 0bdd bfbe bd94 8e3d 3153 eebf
000000e0: cb31 8bbf 720c c63f 32fb 2040 e99f 3fbe
000000f0: ffd5 523f cc87 1bbc 139b 48bd 7f74 c2bd
00000100: b7c7 7b3f ca39 8abe ad68 1c3e 66a0 843e
00000110: 7295 0abd b355 9a3f 9848 20bf 3e1e 99be
00000120: 87a2 d23f cd1e 213e 1618 da3e 6bd0 c23f
00000130: 387e afbf 6ac9 d9be 3f3a 6d3f 3f99 1cbf
00000140: 27e2 9cbe a118 523e f7fa e53e 00b0 bcbe
00000150: 4616 7abd 0e59 d93e 86e8 babd 116f 223f
00000160: 7c92 60be 2678 f6be

fc1.bias f4 [30]
-0.071878836 -0.22151698 -0.49584562 -1.0269096 -1.6865814 0.49340853 0.16604601 0.24892847
0.53404427 0.31932142 0.3418541 -0.11003355 0.15816477 0.4812172 -0.75726575 -0.42195988
-0.35120076 0.22531949 -0.3344232 -2.1420093 -0.5573301 -0.89163244 -0.96499085 0.5277156
0.7989365 -0.02133413 0.38123885 0.26057076 -1.0512502 -0.25875443
00000000: 3635 93bd 59d5 62be 7adf fdbe c671 83bf
00000010: e6e1 d7bf 0ba0 fc3e f707 2a3e 1be7 7e3e
00000020: 20b7 083f 197e a33e 8007 af3e 4559 e1bd
00000030: f2f5 213e 1a62 f63e 2bdc 41bf 200b d8be
00000040: 96d0 b3be 27ba 663e 8539 abbe ae16 09c0
00000050: 2fad 0ebf 0642 64bf a409 77bf 5f18 073f
00000060: 1a87 4c3f eac4 aebc bd31 c33e 8869 853e
00000070: 5e8f 86bf 767b 84be

fc2.weight f4 [30, 30]
-0.5790546 -0.2596853 -0.6914305 -0.5268604 -0.6872853 -0.66591394 -0.7896494 -0.2599653
-0.5378024 -0.8327976 -0.30514452 -0.44341514 -0.25375074 -0.9044822 -0.19888633 -0.38941306
-0.44040942 -0.52281576 -0.13961987 -0.5688134 -0.4983518 -0.6552898 -0.73624694 -0.47838646
-0.7148545 -0.53399056 -0.9667933 -0.6601263 -0.56580126 -0.5450269 -0.7111312 -0.6811132
-0.9417151 -0.15612563 -0.76551634 -1.511887 -1.6150796 -1.6804925 -0.7569085 -1.122044
-0.4102231 -0.86184883 -0.6022814 -1.7577815 -0.5907059 -0.8542492 0.034431305 0.04710268
-1.0346609 0.03888145 -0.228093 -0.6122557 -0.008729249 -1.4509641 0.037504755 -1.1177008
-1.4808137 0.08343047 -0.29017437 -0.17025898 0.18606006 0.15139847 -0.986933 0.0147922635
-0.42705414 -0.1481981 -0.20410965 0.10007316 -0.10582842 0.08728703 0.18204384 -0.9899479
-0.12757052 -0.09374855 0.04713005 -0.005052434 -0.2763722 -0.356025 0.11208168 0.60919803
-0.09928313 -0.2815179 0.7040766 -0.12529482 -0.032312084 -0.037331972 -0.25018966 -0.137355
-0.5450597 -0.14053008 0.1397667 -0.17995073 -0.17737421 -0.18237062 0.018836468 -0.025229737
-0.02488412 -0.02909799 -0.11657216 0.123467356 -0.11683324 -0.1161023 -0.93814903 -0.029570341
0.106312186 -0.0307495 -0.03985104 -0.1632251 -0.14831176 -0.058075562 0.07127023 -0.022357255
-0.09810734 -0.013019249 -0.006824076 0.055944413 -0.08006784 -0.10050833 -0.14530128 -0.124588445
-0.1962404 -0.25784186 -0.60303545 0.6530436 0.5085473 -0.3256195 -0.08596229 -0.33742818
-0.4504441 -0.24837317 -0.33941773 -0.59116715 -0.47196588 -0.16176805 -0.46726766 -0.43490377
0.45423177 0.15685923 -0.63924354 0.96781975 -0.55577946 0.4815937 0.47313455 -0.1643294
0.4121151 -0.6373307 -0.36496013 0.25661692 0.28963798 0.19549008 -0.8264385 -0.6191602
-0.83505094 -0.01706855 -0.7356717 -1.3334491 -1.5813885 -1.7142255 -0.99903464 -1.0108345
-0.47265536 -1.0172863 -0.8856106 -1.5937078 -0.5107211 -0.9103659 -0.04020705 -0.14924024
-0.9713777 0.08227624 -0.1454963 -0.6307316 0.12034309 -1.4780166 -0.043318655 -1.180563
-1.6029367 0.0015603997 -0.29594624 -0.0019823909 0.08843467 0.1691232 -0.97639513 0.50413007
-0.11575503 0.0913018 0.02417047 0.057963517 -0.10419889 -0.041633494 0.16274823 -0.95140815
-0.2134235 -0.022084547 0.120988235 -0.02144777 0.14184938 0.24528454 -0.30044776 -0.13905303
0.6896692 -1.0359426 0.20852117 -0.038064502 -0.104884624 -0.24867672 -0.28322625 0.5398276
-0.4805247 0.13907985 -0.14750692 -0.37619147 -0.32412398 -0.1464667 0.070586294 0.028206013
-0.49145934 -0.7315753 -0.6629635 -0.37315738 -0.46692517 -0.5557696 -0.5952575 -0.15224095
-0.48160654 -0.7269875 -0.25790986 -0.016347077 -0.7433119 0.021247953 0.5291632 0.17976424
-0.039336637 -0.21951334 -0.52966696 -0.50557923 -0.19189905 -0.53709275 0.11800158 -0.4438845
-0.13047905 -0.18209355 -0.6228661 0.75427747 -0.15468526 0.022483924 -0.12711436 0.04277024
-0.25198323 0.069569945 0.10425561 -0.69966817 -0.25456312 -0.06727454 -0.49517208 -0.36762998
00000000: ec3c 14bf 79f5 84be 9701 31bf 53e0 06bf
00000010: eef1 2fbf 5679 2abf 7726 4abf 2c1a 85be
00000020: 6bad 09bf 3932 55bf e73b 9cbe 4f07 e3be
00000030: 9eeb 81be 258c 67bf dca8 4bbe 2661 c7be
00000040: 587d e1be 41d7 05bf 83f8 0ebe c19d 11bf
00000050: f827 ffbe 13c1 27bf ae7a 3cbf 12ef f4be
00000060: b400 37bf 9bb3 08bf c47f 77bf 0afe 28bf
00000070: 5ad8 10bf e286 0bbf b20c 36bf 6f5d 2ebf
00000080: 3e14 71bf 66df 1fbe e1f8 43bf 8385 c1bf
00000090: eeba cebf 611a d7bf c1c4 41bf 239f 8fbf
000000a0: c308 d2be 20a2 5cbf 1d2f 1abf fcfe e0bf
000000b0: 8038 17bf 13b0 5abf d707 0d3d bdee 403d
000000c0: c56f 84bf 2842 1f3d 3691 69be cabc 1cbf
000000d0: 2005 0fbc 31b9 b9bf 969e 193d d210 8fbf
000000e0: 4e8b bdbf 98dd aa3d bc91 94be 5f58 2ebe
000000f0: 8786 3e3e 3308 1b3e a4a7 7cbf 405b 723c
00000100: d7a6 dabe 3ec1 17be 1f02 51be 28f3 cc3d
00000110: 92bc d8bd 8bc3 b23d b369 3a3e 3a6d 7dbf
00000120: d9a1 02be 3dff bfbd 700b 413d e38e a5bb
00000130: a880 8dbe e948 b6be 148b e53d 67f4 1b3f
00000140: f454 cbbd 1d23 90be 5d3e 343f 494d 00be
00000150: ad59 04bd 69e9 18bd dc18 80be caa6 0cbe
00000160: 0889 0bbf 1ee7 0fbe 001f 0f3e 0145 38be
00000170: 96a1 35be 5dbf 3abe f04e 9a3c 98ae cebc
00000180: c8d9 cbbc e85e eebc 62bd eebd 74dc fc3d
00000190: 4446 efbd 0bc7 edbd 892a 70bf 803d f2bc
000001a0: 34ba d93d 60e6 fbbc d83a 23bd 7b24 27be
000001b0: 0adf 17be a4e0 6dbd 20f6 913d 9026 b7bc
000001c0: 80ec c8bd b04e 55bc 809c dfbb f825 653d
000001d0: 9cfa a3bd 50d7 cdbd dcc9 14be 3a28 ffbd
000001e0: 3ef3 48be d903 84be 8860 1abf de2d 273f
000001f0: 2830 023f 99b7 a6be ff0c b0bd 63c3 acbe
00000200: 9ca0 e6be 8955 7ebe 29c8 adbe bb56 17bf
00000210: 83a5 f1be 86a6 25be b53d efbe b5ab debe
00000220: 1191 e83e b59f 203e 77a5 23bf 09c3 773f
00000230: 9047 0ebf 7393 f63e b13e f23e f745 28be
00000240: c000 d33e 1b28 23bf 0edc babe 4b63 833e
00000250: 6e4b 943e 8d2e 483e 7991 53bf 4881 1ebf
00000260: e6c5 55bf 58d3 8bbc fb54 3cbf 76ae aabf
00000270: f06a cabf be6b dbbf bcc0 7fbf 0663 81bf
00000280: e2ff f1be 7036 82bf 60b7 62bf 9efe cbbf
00000290: 9ebe 02bf bd0d 69bf 26b0 24bd 6fd2 18be
000002a0: 35ac 78bf 7280 a83d fbfc 14be a077 21bf
000002b0: 7076 f63d a62f bdbf e76e 31bd b01c 97bf
000002c0: 082d cdbf 5386 cc3a 4486 97be 00eb 01bb
000002d0: 3c1d b53d a22e 2d3e 08f5 79bf ab0e 013f
000002e0: f910 edbd 70fc ba3d 2601 c63c 276b 6d3d
000002f0: 3a66 d5bd e287 2abd 79a7 263e 7c8f 73bf
00000300: b18b 5abe a7ea b4bc aec8 f73d 3cb3 afbc
00000310: f740 113e df2b 7b3e 4ad4 99be eb63 0ebe
00000320: 298e 303f c499 84bf 9386 553e 86e9 1bbd
00000330: c0cd d6bd 1ca5 7ebe 0803 91be 2432 0a3f
00000340: 5507 f6be f36a 0e3e 0e0c 17be 2b9c c0be
00000350: 94f3 a5be 5efb 15be 8c8f 903d 4c10 e73c
00000360: 8fa0 fbbe 8548 3bbf fab7 29bf 7c0e bfbe
00000370: d110 efbe eb46 0ebf cc62 18bf 0de5 1bbe
00000380: 2295 f6be da1b 3abf c30c 84be 4eea 85bc
00000390: b049 3ebf 3010 ae3c 3d77 073f 1e14 383e
000003a0: 741f 21bd 1bc8 60be 4198 07bf a46d 01bf
000003b0: 2f81 44be e97e 09bf d0aa f13d d444 e3be
000003c0: 4d9c 05be bb76 3abe 2774 1fbf 5418 413f
000003d0: d065 1ebe 3530 b83c 442a 02be d92f 2f3d
000003e0: f203 81be b07a 8e3d f783 d53d 741d 33bf
000003f0: 1956 82be 3cc7 89bd 3287 fdbe ff39 bcbe

fc2.bias f4 [30]
-0.90063 -1.2561709 -0.05294574 -1.0601083 0.09328571 -1.0603137 -0.05641704 -0.2882007
-0.14066677 -0.539334 -0.26375422 -0.54852015 -0.6304366 -1.5715874 -0.77052146 -0.24981007
-1.1688713 -0.16056202 -0.65169054 -0.4547688 -0.7340855 -0.6924345 -0.29930583 0.038417123
-0.71645176 -0.66361374 -0.17842078 -0.5290823 -0.7024289 0.061859295
00000000: b08f 66bf 35ca a0bf a2dd 58bd a1b1 87bf
00000010: 940c bf3d 5cb8 87bf 8e15 67bd 0b8f 93be
00000020: f30a 10be cb11 0abf cb0a 87be d16b 0cbf
00000030: 4b64 21bf c729 c9bf e540 45bf 36ce 7fbe
00000040: 939d 95bf 5f6a 24be 31d5 26bf 75d7 e8be
00000050: 07ed 3bbf 6343 31bf 9d3e 99be 465b 1d3d
00000060: 6269 37bf 97e2 29bf f0b3 36be f071 07bf
00000070: 61d2 33bf 2c60 7d3d

fc3.weight f4 [30, 30]
-0.35624343 0.012916902 -0.53134763 0.11640769 -0.8010974 -0.07270905 -0.6799493 0.41880822
-0.39439386 -0.93766665 -0.24502873 -0.55465424 -0.46633497 -0.21830013 -0.15339582 -0.3596416
0.20091426 -0.6690899 -0.6014916 0.118742265 -0.78387207 0.2576191 -0.8072879 -0.67683697
0.5729332 -0.41764718 0.2123059 -0.08902351 -0.020160513 -0.5596764 -0.6547303 -0.0049984637
-0.28337923 0.02252689 -0.35442647 0.3883507 -0.63551944 0.18097802 -0.061370537 -0.682086
-0.63516605 -0.7050015 -0.55061316 -0.51815724 0.61250645 0.04602741 0.7669815 -0.43459862
-0.18539815 0.29745755 -0.77048385 0.26743904 -0.0032835072 -0.37618673 0.7550264 -0.5632981
-0.112891585 -0.08704933 0.53677726 -0.005099158 -0.07307848 -0.3570781 -0.44180337 0.06468569
-0.48252282 -0.3952849 -0.70302176 0.1555762 -0.44083333 -0.59737676 -0.5358752 0.0646473
0.15658572 0.15294388 -0.008740798 -0.6861867 -0.1700081 -0.38134673 -0.76821005 -0.41955498
-0.47373852 -0.47372383 -0.66305816 -0.49730283 -0.4280879 0.1665135 -0.7645698 -0.5447808
-0.69286263 0.629171 -0.36537692 -0.5185121 -0.5521045 0.04719715 -0.6430499 -0.21149726
-0.7129791 -0.47659054 -0.6625204 -0.7425437 -0.4643469 0.17403966 0.07039347 -0.10893837
0.13007358 -0.70153266 -0.16722387 -0.65292335 -0.7173983 -0.1430433 0.76011586 0.08230233
-0.5876863 -0.50526005 0.052460477 -0.09658458 -0.7023689 -0.08468177 -0.42786163 -0.66794115
-0.116154924 -0.0069985986 -0.053218868 0.93545073 0.2806187 -0.11536681 0.05445749 0.09856844
-0.17156005 0.13759327 -0.15245214 0.13965404 0.05060576 0.68361884 -0.054173976 0.04690603
-0.038441658 -0.16435246 0.041579887 0.070305675 -0.05641529 0.05364223 -0.9486073 0.28418055
-0.016551599 -0.03332451 0.9449584 0.16230056 -0.050738603 -0.34949037 -0.64910597 -1.2038958
-1.1335515 0.108946025 -0.7020172 -1.0065677 -1.2416533 -0.5190149 -0.04428685 -0.98423785
-0.826664 -0.45977533 -0.608679 0.51474446 0.41888478 -0.09589413 0.54036623 -1.052956
-0.06551972 0.39927992 -1.2329618 0.42685014 0.086201325 -1.3893479 0.46753147 -0.37162802
0.31607208 0.32262063 0.0422747 -0.9683023 0.49742106 0.083429515 -0.08404222 0.046274155
-1.6220452 -0.036655948 -0.92714685 0.112620205 -0.68347543 -0.06397009 -0.119249776 -0.056800723
-0.49540377 -0.10036245 -0.42463443 -0.6308055 -0.6949983 -0.109841205 -0.51238555 -0.601569
0.10515118 -0.46274135 -0.4522518 -0.26856583 -0.45143253 -0.42752343 -0.5992845 -0.5962595
-0.46113113 -0.45202252 -0.5118232 -0.62554044 -0.48400533 -0.074533075 -0.6835082 -0.67566216
-0.60363173 -0.104004025 0.00681372 -0.47330022 -0.40405196 0.09881759 0.055594534 0.037883297
0.04480058 0.3550217 -0.0013797432 -0.35666415 -0.115639955 -0.10608865 -0.44953448 0.03772524
0.06171213 -0.6661936 -0.059964724 -0.0057365447 -0.6961196 0.07691863 0.054913476 -0.009848431
0.47051495 0.4669321 -0.42518613 0.025516316 -0.5571628 0.5934103 -0.22747163 0.6032568
-0.5232676 0.74634224 -0.32694688 -0.6331851 0.37761304 0.13368744 -0.5643831 -0.6810454
00000000: 8a65 b6be 6aa1 533c 6606 08bf 2867 ee3d
00000010: b814 4dbf 7be8 94bd 2811 2ebf 086e d63e
00000020: feed c9be ec0a 70bf d0e8 7abe d2fd 0dbf
00000030: 75c3 eebe 128a 5fbe cb13 1dbe f222 b8be
00000040: 78bc 4d3e 7a49 2bbf 5afb 19bf 252f f33d
00000050: d7ab 48bf a7e6 833e 6baa 4ebf 3045 2dbf
00000060: c0ab 123f dad5 d5be b866 593e f551 b6bd
00000070: a927 a5bc f446 0fbf 689c 27bf 27ca a3bb
00000080: 1517 91be 508a b83c 6377 b5be e7d5 c63e
00000090: 67b1 22bf 4d52 393e ac5f 7bbd 309d 2ebf
000000a0: 3e9a 22bf fa7a 34bf fcf4 0cbf f4a5 04bf
000000b0: 39cd 1c3f 3d87 3c3d e658 443f b683 debe
000000c0: 03d9 3dbe 5b4c 983e 6e3e 45bf c5ed 883e
000000d0: 1c30 57bb 8c9b c0be 6949 413f 4e34 10bf
000000e0: b433 e7bd eb46 b2bd 3c6a 093f d616 a7bb
000000f0: 2caa 95bd f1d2 b6be 0d34 e2be ee79 843d
00000100: 3b0d f7be c862 cabe 3cf9 33bf 5e4f 1f3e
00000110: e8b4 e1be afed 18bf 1e2f 09bf ce65 843d
00000120: 0258 203e 529d 1c3e 9035 0fbc eea9 2fbf
00000130: 9a16 2ebe e13f c3be 6aa9 44bf e9cf d6be
00000140: db8d f2be ee8b f2be 2ebe 29bf 7a9e febe
00000150: 562e dbbe 8482 2a3e d9ba 43bf c176 0bbf
00000160: 725f 31bf 5a11 213f af12 bbbe 36bd 04bf
00000170: b856 0dbf cc51 413d eb9e 24bf bd92 58be
00000180: cc85 36bf ad03 f4be f09a 29bf 5817 3ebf
00000190: e0be edbe 7437 323e 742a 903d 151b dfbd
000001a0: 0232 053e a597 33bf bc3c 2bbe fc25 27bf
000001b0: 6aa7 37bf f179 12be f496 423f 208e a83d
000001c0: 9c72 16bf b958 01bf cce0 563d 23ce c5bd
000001d0: 73ce 33bf a36d adbd ae10 dbbe 31fe 2abf
000001e0: a2e2 edbd 8054 e5bb 07fc 59bd b379 6f3f
000001f0: 41ad 8f3e 6f45 ecbd d10e 5f3d 40de c93d
00000200: 70ad 2fbe 40e5 0c3e 6a1c 1cbe 7801 0f3e
00000210: fc47 4f3d a501 2f3f 88e5 5dbd 8a20 403d
00000220: 0075 1dbd 034c 28be ac4f 2a3d 6cfc 8f3d
00000230: b813 67bd f4b7 5b3d eed7 72bf 1d80 913e
00000240: 3897 87bc 487f 08bd cbe8 713f 1e32 263e
00000250: 48d3 4fbd 67f0 b2be cf2b 26bf 4219 9abf
00000260: 3718 91bf 181f df3d 66b7 33bf 36d7 80bf
00000270: 7fee 9ebf 29de 04bf 2166 35bd 03f7 7bbf
00000280: 40a0 53bf ac67 ebbe 63d2 1bbf 4bc6 033f
00000290: 1178 d63e 2464 c4bd 7155 0a3f 43c7 86bf
000002a0: 342f 86bd 6b6e cc3e b1d1 9dbf 1a8c da3e
000002b0: 528a b03d 27d6 b1bf 4960 ef3e 0746 bebe
000002c0: 33d4 a13e 882e a53e 3c28 2d3d a9e2 77bf
000002d0: f9ad fe3e 18dd aa3d 541e acbd f889 3d3d
000002e0: 2d9f cfbf 8c24 16bd 7f59 6dbf 6ca5 e63d
000002f0: 3ff8 2ebf c002 83bd 3a39 f4bd e0a7 68bd
00000300: 90a5 fdbe d48a cdbd af69 d9be 787c 21bf
00000310: 69eb 31bf 6df4 e0bd b32b 03bf 6d00 1abf
00000320: 8059 d73d 6fec ecbe 8c8d e7be 7681 89be
00000330: 2a22 e7be 5ae4 dabe b66a 19bf 76a4 18bf
00000340: 6119 ecbe 7f6f e7be d806 03bf 6b23 20bf
00000350: 8ccf f7be cca4 98bd 65fa 2ebf 32f8 2cbf
00000360: 9c87 1abf 1000 d5bd a045 df3b 6854 f2be
00000370: e6df cebe e060 ca3d 18b7 633d 842b 1b3d
00000380: d080 373d 67c5 b53e 80d8 b4ba af9c b6be
00000390: a4d4 ecbd 0245 d9bd 6229 e6be c885 1a3d
000003a0: dcc5 7c3d aa8b 2abf 929d 75bd a0f9 bbbb
000003b0: e534 32bf 8487 9d3d f4ec 603d 505b 21bc
000003c0: 56e7 f03e b911 ef3e ffb1 d9be 9807 d13c
000003d0: 39a2 0ebf bde9 173f 53ee 68be 0a6f 1a3f
000003e0: def4 05bf 4910 3f3f 9565 a7be 6b18 22bf
000003f0: 7f56 c13e 5ce5 083e 697b 10bf fe58 2ebf

fc3.bias f4 [30]
-0.1280694 -1.2809664 -0.7843105 -0.57116765 -0.6938945 -0.0649228 -1.1180432 -0.40404668
-0.50231 -0.45292673 -1.5014772 -0.24289729 -0.3009104 -0.18259679 -0.67360455 -0.3388336
-0.16916262 -1.188403 -0.6004312 -0.28188542 -0.52200294 -0.02595225 -0.22472678 -0.43109223
-0.9216989 -0.6196912 -0.08990911 -0.05785355 7.4057717 -0.6398989
00000000: a024 03be b5f6 a3bf 93c8 48bf 0b38 12bf
00000010: 12a3 31bf 3ff6 84bd 0a1c 8fbf 35df cebe
00000020: 6397 00bf 03e6 e7be 6830 c0bf 11ba 78be
00000030: ee10 9abe a7fa 3abe 5971 2cbf 997b adbe
00000040: f738 2dbe 971d 98bf dcb5 19bf 4953 90be
00000050: fca1 05bf d099 d4bc c71e 66be 1fb8 dcbe
00000060: 76f4 6bbf 15a4 1ebf 4422 b8bd d8f7 6cbd
00000070: 15fc ec40 6ad0 23bf

fc4.weight f4 [1, 30]
0.49146673 0.64511067 0.6371324 0.22785358 0.22083177 0.03890961 0.5394344 -0.48721015
0.4868602 0.27033022 0.3848945 0.19906366 -0.030303523 0.044167347 0.18664525 0.6432888
0.32314318 0.5429685 -0.36245188 -0.07418997 0.62982404 -0.117431834 0.035077386 0.09628637
-0.69107944 0.31058264 -0.02876537 0.4172504 -6.5712175 0.38026124
00000000: 87a1 fb3e f925 253f 1c1b 233f 7352 693e
00000010: b921 623e af5f 1f3d 5f18 0a3f 9c73 f9be
00000020: bd45 f93e b968 8a3e e410 c53e 58d7 4b3e
00000030: 183f f8bc d2e8 343d ef1f 3f3e 93ae 243f
00000040: 0673 a53e fcff 0a3f 4b93 b9be e9f0 97bd
00000050: 263c 213f 1a80 f0bd 4ead 0f3d ca31 c53d
00000060: 95ea 30bf b004 9f3e 5aa5 ebbc d8a1 d53e
00000070: 6a47 d2c0 9ab1 c23e
