VanillaModel.pt (torch, 10699 bytes, 7 tensors)

fc1.weight f4 [30, 3]
0.44028437 0.23713687 0.38932127 -0.25642687 0.2779622 -0.2941582 -0.3627485 -0.5360536
0.31971908 -0.07053101 0.3901568 0.19636917 -0.27272937 -0.10659143 0.27687377 -0.26168087
0.04629755 0.5062059 -0.57437986 0.43703824 0.44390857 0.060558617 -0.08183986 0.09702945
0.38812393 0.35711482 -0.5575519 0.3960778 0.60948145 0.48019528 -0.034598053 -0.54598725
0.399216 -0.10257733 0.45962402 0.042612433 -0.4927023 0.28280264 0.12738234 -0.38491315
0.42245716 -0.13379198 0.0597021 0.30195123 -0.27112532 -0.31699017 0.13887 -0.41006234
0.44156373 -0.3824695 -0.43035817 -0.23641604 -0.5463034 0.0470047 0.50076187 0.30128962
-0.23500395 0.5078225 0.2767289 -0.027046978 -0.03350544 -0.42302895 0.44510782 0.07572633
-0.077617764 0.13883746 -0.3360447 -0.50594354 0.41128218 0.18749279 -0.505865 0.37487
0.05343002 0.44584918 -0.33419472 -0.5220879 -0.07521713 0.27906567 -0.13013247 0.4684971
-0.21088907 0.47755075 -0.43718302 -0.3437674 -0.2116121 0.35596648 -0.20993984 0.44765866
-0.25643367 -0.05336058
00000000: f46c e13e 02d4 723e 1e55 c73e 624a 83be
00000010: 1051 8e3e e79b 96be 2cba b9be cf3a 09bf
00000020: 38b2 a33e 9072 90bd a2c2 c73e 0015 493e
00000030: 2fa3 8bbe 9c4c dabd 66c2 8d3e 09fb 85be
00000040: 80a2 3d3d b696 013f 8f0a 13bf 7ac3 df3e
00000050: fc47 e33e 500c 783d a89b a7bd 60b7 c63d
00000060: 2eb8 c63e c1d7 b63e b9bb 0ebf b6ca ca3e
00000070: fa06 1c3f 28dc f53e b0b6 0dbd d2c5 0bbf
00000080: 0a66 cc3e 1014 d2bd d753 eb3e 608a 2e3d
00000090: 7a43 fcbe 82cb 903e 8470 023e 5613 c5be
000000a0: 4e4c d83e c400 09be 308a 743d 5a99 9a3e
000000b0: f0d0 8abe 894c a2be f033 0e3e b1f3 d1be
000000c0: a414 e23e 0bd3 c3be e857 dcbe 0c17 72be
000000d0: 8ada 0bbf 0088 403d ee31 003f a242 9a3e
000000e0: e0a4 70be a800 023f 69af 8d3e a091 ddbc
000000f0: 003d 09bd 4097 d8be 2ce5 e33e 6816 9b3d
00000100: 10f6 9ebd 682b 0e3e 0d0e acbe 8485 01bf
00000110: 9493 d23e 1cfe 3f3e 5e80 01bf f6ee bf3e
00000120: 70d9 5a3d 5846 e43e 921b abbe 8da7 05bf
00000130: 700b 9abd b2e1 8e3e 7241 05be dade ef3e
00000140: 4ef3 57be 8881 f43e 74d6 dfbe 4802 b0be
00000150: d8b0 58be 3d41 b63e 78fa 56be 8433 e53e
00000160: 464b 83be a090 5abd

fc1.bias f4 [30]
0.21438572 -0.40099162 0.41748595 0.5069158 0.46305233 0.4886045 0.58237183 -0.048169136
-0.39238724 0.33797377 0.12264085 -0.08642026 -0.10201944 -0.43341064 0.09913205 0.25671005
0.34689283 0.28660947 -0.45580083 0.43039456 0.101774275 -0.07656872 -0.38103008 0.04044223
0.57831764 0.05322665 -0.28393996 -0.2141357 0.10813602 -0.45542407
00000000: ee87 5b3e c64e cdbe b8c0 d53e 3cc5 013f
00000010: 3215 ed3e 5e2a fa3e 5216 153f 004d 45bd
00000020: fbe6 c8be e60a ad3e 202b fb3d 1bfd b0bd
00000030: 91ef d0bd 00e8 ddbe bf05 cb3d 806f 833e
00000040: f09b b13e 7abe 923e ba5e e9be ad5c dc3e
00000050: 086f d03d 10d0 9cbd 6016 c3be c0a6 253d
00000060: a00c 143f 3004 5a3d 9460 91be 6446 5bbe
00000070: 6b76 dd3d 582d e9be

fc2.weight f4 [30, 30]
0.16878054 -0.13132827 0.15162674 -0.07263027 0.10689178 0.0047828704 0.06035945 0.12861028
0.057451263 0.12590489 0.13275212 -0.16724765 -0.16645133 -0.10426537 0.10578218 0.14355484
0.122749835 -0.045356706 0.08924237 0.1276632 0.07554039 0.11414328 -0.043918535 0.10467997
-0.16619441 -0.14895377 -0.0388546 -0.062423028 0.07338965 -0.039473146 -0.11050035 0.16285622
-0.025363632 -0.16000316 -0.023975424 -0.18915741 0.034483835 -0.02213785 0.03842576 0.021130852
0.03254208 0.004767932 0.03190031 -0.25955683 -0.06222473 -0.2745942 -0.035576075 0.09155136
0.065585166 -0.11943096 -0.11009226 0.13777444 0.12790182 -0.15095451 -0.26675034 -0.12220977
-0.27654034 0.012902111 0.03253144 -0.051562607 0.030532785 -0.060235776 -0.110902414 -0.15187871
0.02204705 -0.10768898 -0.18229452 -0.064725846 -0.16506967 -0.08081977 0.06673695 -0.10326249
-0.2716641 -0.14237222 -0.14535847 -0.14669418 -0.07834792 -0.110321574 0.092651844 0.05973907
-0.038835898 -0.010353342 -0.01609464 0.093391955 -0.21021977 -0.082400106 0.049132906 -0.08429945
-0.249525 -0.17114164 -0.17831717 0.08639485 0.06769371 -0.062445223 -0.06817463 0.089995444
0.079971194 -0.13383354 0.084811985 0.13810176 -0.17116612 -0.13488333 0.18207723 0.09255877
-0.12780517 0.018745258 -0.068264864 0.037381515 -0.06457967 0.073667854 0.14748076 0.16127598
0.15616918 0.11815804 -0.14335687 -0.14721465 0.1030691 -0.0007696003 0.13396299 -0.1364494
0.17620626 0.00988245 -0.016890831 0.2683938 0.012994073 0.25160578 0.079801254 0.026677951
0.058713064 0.19852766 0.06859133 0.19951543 0.17071413 0.21413454 0.22831827 -0.023774832
0.040537536 -0.12305844 0.13715234 -0.036032826 -0.0023827106 -0.15307687 0.12425035 -0.14463711
0.06808145 0.16965765 0.018661276 -0.049026996 -0.048295677 0.059928834 0.088422686 0.014545023
0.07863392 0.2547344 0.026911981 0.25330615 0.044879325 -0.16375932 -0.0069649294 0.07582713
-0.04516816 0.095105626 0.077187166 -0.03425671 0.15424743 0.113746695 0.092371196 -0.1583367
0.015966505 0.2452205 0.16055977 -0.17800169 -0.013090864 -0.06946599 0.23212072 0.101683795
0.28108945 -0.0017642379 0.21933882 -0.14140484 -0.05006814 -0.18195857 0.1767993 -0.08819091
0.0063666105 -0.018149361 -0.0018956512 0.063420326 -0.0029631108 0.05819811 -0.107075304 -0.09609614
-0.08084153 -0.1319228 0.17748404 -0.020466894 -0.15386151 -0.058695808 -0.08105145 0.13656315
-0.17003605 0.12297538 -0.1364751 -0.15488201 0.07066858 0.15467876 -0.009095773 0.03367667
0.019796103 0.09819332 -0.002646193 -0.026134863 -0.12558998 0.040392652 0.0034761429 0.028235838
0.14685741 -0.12897733 -0.12745437 0.006693408 0.15143263 0.16530955 -0.023455128 -0.11372644
0.14480537 0.17389694 0.16495144 0.02769892 0.08945072 -0.14803559 -0.16133088 0.00277555
0.15316764 0.078703195 -0.112933904 -0.04377885 -0.15208744 0.02625367 -0.001972109 -0.13500622
0.0018315539 -0.14440924 -0.046334118 0.12718001 0.16758043 0.20667246 0.096382335 0.114406705
0.16036302 0.2644251 0.11741951 0.0815645 0.16437827 0.0141419545 0.018895954 0.07987004
00000000: ced4 2c3e eb7a 06be 0a44 1b3e 2ebf 94bd
00000010: 14ea da3d a0b9 9c3b 783b 773d 6ab2 033e
00000020: 0452 6b3d 36ed 003e 2cf0 073e f842 2bbe
00000030: 3872 2abe 1589 d5bd 54a4 d83d 0a00 133e
00000040: 4464 fb3d f4c7 39bd b4c4 b63d 24ba 023e
00000050: ecb4 9a3d f4c3 e93d ece3 33bd 7462 d63d
00000060: de2e 2abe 5687 18be 0026 1fbd 4aaf 7fbd
00000070: 504d 963d 98ae 21bd 024e e2bd c8c3 263e
00000080: 64c7 cfbc ded7 23be 1c68 c4bc 7bb2 41be
00000090: ec3e 0d3d 705a b5bc 5464 1d3d 9c1a ad3c
000000a0: d84a 053d 503c 9c3b e6a9 023d a2e4 84be
000000b0: 5cdf 7ebd 9c97 8cbe 38b8 11bd 487f bb3d
000000c0: 8451 863d 3898 f4bd 0d78 e1bd be14 0d3e
000000d0: b2f8 023e d293 1abe 8093 88be 1e49 fabd
000000e0: b296 8dbe 6063 533c b03f 053d 5033 53bd
000000f0: e41f fa3c cab9 76bd ce20 e3bd 1886 1bbe
00000100: 049c b43c 0a8c dcbd 6aab 3abe fc8e 84bd
00000110: 0608 29be d684 a5bd 62ad 883d 497b d3bd
00000120: 8f17 8bbe 06ca 11be dad8 14be 0037 16be
00000130: e074 a0bd 47f0 e1bd 40c0 bd3d f4b0 743d
00000140: 6412 1fbd 10a1 29bc e8d8 83bc 4844 bf3d
00000150: da43 57be 63c1 a8bd 963f 493d 31a5 acbd
00000160: 7b83 7fbe c13f 2fbe c798 36be c8ef b03d
00000170: 00a3 8a3d 90c6 7fbd 249f 8bbd 884f b83d
00000180: f0c7 a33d a90b 09be e8b1 ad3d 8c6a 0d3e
00000190: 2c46 2fbe db1e 0abe 7472 3a3e 748f bd3d
000001a0: 5cdf 02be a88f 993c 73ce 8bbd 5c1d 193d
000001b0: 5942 84bd 2cdf 963d 3205 173e 8825 253e
000001c0: d0ea 1f3e d8fc f13d 25cc 12be 70bf 16be
000001d0: e415 d33d 00bf 49ba 982d 093e 64b9 0bbe
000001e0: 6a6f 343e 00ea 213c a45e 8abc ea6a 893e
000001f0: 18e5 543c 79d2 803e d76e a33d b88b da3c
00000200: 1c7d 703d d64a 4b3e 9c79 8c3d c64d 4c3e
00000210: afcf 2e3e 1646 5b3e 44cc 693e 70c3 c2bc
00000220: b00a 263d 1006 fcbd aa71 0c3e 2897 13bd
00000230: 4027 1cbb 2fc0 1cbe f876 fe3d c01b 14be
00000240: 4a6e 8b3d bcba 2d3e 88df 983c 88d0 48bd
00000250: b0d1 45bd f077 753d f416 b53d 404e 6e3c
00000260: d20a a13d 8c6c 823e 8476 dc3c 58b1 813e
00000270: 62d3 373d 86b0 27be 103a e4bb 414b 9b3d
00000280: 4002 39bd bdc6 c23d 4e14 9e3d c450 0cbd
00000290: 0af3 1d3e 07f4 e83d 1c2d bd3d 0423 22be
000002a0: 30cc 823c 151b 7b3e c869 243e 1346 36be
000002b0: 107b 56bc 2f44 8ebd 0eb1 6d3e 983f d03d
000002c0: f5ea 8f3e 003e e7ba 5b9a 603e 6ecc 10be
000002d0: 4014 4dbd 5953 3abe e00a 353e 709d b4bd
000002e0: 009f d03b f8ad 94bc 8077 f8ba 84e2 813d
000002f0: c030 42bb 2461 6e3d 4c4a dbbd 0ece c4bd
00000300: 3e90 a5bd c516 07be 60be 353e 30aa a7bc
00000310: df8d 1dbe 046b 70bd 4dfe a5bd 36d7 0b3e
00000320: ee1d 2ebe 84da fb3d 21c0 0bbe 6499 1ebe
00000330: b0ba 903d 1c64 1e3e 7006 15bc 8cf0 093d
00000340: 702b a23c 9419 c93d c06b 2dbb c818 d6bc
00000350: a99a 00be c472 253d 00d0 633b d84e e73c
00000360: ca61 163e a212 04be 6683 02be 6054 db3b
00000370: 2811 1b3e e846 293e f824 c0bc 68e9 e8bd
00000380: dc47 143e 0a12 323e 08e9 283e d8e8 e23c
00000390: f031 b73d a496 17be ec33 25be 00e6 353b
000003a0: fad7 1c3e 242f a13d e449 e7bd 7451 33bd
000003b0: cfbc 1bbe f011 d73c 803e 01bb 123f 0abe
000003c0: c010 f03a 04e0 13be d8c8 3dbd 7a3b 023e
000003d0: 349a 2b3e f2a1 533e 1a64 c53d 104e ea3d
000003e0: 3436 243e ba62 873e a479 f03d 4a0b a73d
000003f0: c752 283e a8b3 673c b0cb 9a3c e792 a33d

fc2.bias f4 [30]
-0.15339318 0.066992305 0.0139605105 -0.15815324 0.11338223 0.0069559664 -0.09085487 -0.010830104
0.24098107 -0.061427623 -0.17663059 -0.14492677 -0.12435937 -0.20098136 -0.12802693 -0.018381037
-0.14453691 -0.15012282 -0.04019858 -0.16451329 -0.23189346 -0.18093611 -0.17334948 0.08612338
-0.17285262 -0.11637044 -0.03095045 0.25928152 -0.016584769 -0.14906591
00000000: 1a13 1dbe 4333 893d a0ba 643c ecf2 21be
00000010: f134 e83d e0ee e33b 1e12 babd c070 31bc
00000020: bec3 763e 889b 7bbd a6de 34be af67 14be
00000030: 20b0 febd 0fce 4dbe 7e19 03be d493 96bc
00000040: 7c01 14be ccb9 19be 44a7 24bd 2c76 28be
00000050: 7b75 6dbe 5147 39be 8782 31be 7461 b03d
00000060: 4700 31be a053 eebd cc8b fdbc 8cc0 843e
00000070: c8dc 87bc bca4 18be

fc3.weight f4 [30, 30]
-0.03713511 0.14429969 0.030458167 -0.100630306 -0.028793946 -0.045588374 0.14879057 -0.0054260045
-0.18073688 0.068127215 -0.087010294 -0.08798071 0.1322676 -0.060558915 0.015838623 -0.12513539
-0.08401125 -0.15711287 0.09641549 0.054204285 0.11088514 0.13145474 0.06968808 -0.11404435
-0.11661803 0.105235845 0.113749504 -0.03204447 0.00017416477 -0.13224521 0.057532355 0.057250515
-0.1613252 -0.14213866 -0.23488164 -0.000116847456 0.026500955 -0.05963958 0.003691718 0.0072088093
-0.14383635 -0.1525259 0.13422793 -0.14165649 -0.012694627 -0.16880912 0.112009555 0.011994168
-0.13781345 -0.06927231 0.07050012 -0.1158369 -0.10601933 0.03560628 0.0069175363 0.080079764
-0.24399772 -0.15488312 -0.17349447 -0.08014206 0.13916266 -0.020916224 0.10708031 0.16191444
-0.10151971 -0.07288485 0.058021456 -0.010189891 -0.16667175 0.0663559 0.17827433 -0.14908709
0.14741251 0.02457571 0.12680516 -0.13495864 0.04324779 0.06063938 0.13342115 -0.0938597
0.062068433 0.14588049 -0.11442778 -0.098079436 -0.12257025 0.1502192 -0.022554398 0.019041777
-0.07998509 0.096864045 -0.00818564 0.13872531 -0.059861794 0.17784208 -0.020476624 0.084555656
-0.022705197 0.13352448 -0.024118707 0.103328764 0.15054807 -0.14072064 0.13667285 -0.17495671
-0.011265218 -0.019869193 -0.09766144 -0.12972975 -0.18006608 -0.055872187 -0.15675291 -0.042892545
-0.16270614 -0.07495892 0.030147374 -0.08394811 0.00416182 -0.14318211 0.08080369 -0.17915861
-0.08200308 0.048005283 -0.08549731 0.1069552 0.050076157 0.10167056 0.02491568 -0.15774126
-0.002421528 -0.06511005 -0.1646565 -0.02957663 0.027099922 0.08189204 -0.08978212 0.1284107
0.11649975 -0.008781835 -0.10576556 -0.05556041 0.086767554 0.12173849 -0.16580074 0.0394969
0.08476487 0.031435356 0.008338824 -0.14231476 0.1750646 0.009232014 0.020335734 0.036010623
0.07665506 0.12290725 0.10716453 -0.09826924 -0.07831083 -0.04308395 -0.1436764 0.1745924
-0.11285926 0.120856136 -0.113266036 -0.11917767 -0.11105939 -0.027207509 0.07782042 -0.16859366
0.11720553 0.07782209 -0.0100566745 0.12926087 -0.04242246 -0.08679335 -0.11305357 0.15666947
0.041216373 0.17093614 0.105767936 -0.1278674 -0.16147579 -0.0063474476 -0.17889169 0.119069844
0.08201498 0.068157256 0.11006975 -0.051578 0.12987778 0.14332083 -0.007223457 0.12926313
0.15906706 -0.038402915 0.040379837 -0.17133415 0.07406163 0.07000378 0.06277293 -0.019787267
0.1200273 -0.1758897 0.017745718 0.1056771 0.15326652 0.024076 0.05269365 -0.13876767
-0.07210946 0.12333462 -0.0003400445 -0.08840965 -0.13932715 -0.050207153 -0.14432463 0.017288372
-0.10426106 0.08044562 0.15052071 -0.17547858 0.04862909 -0.11352875 -0.13124548 -0.06855259
-0.120399445 -0.102536395 -0.087313496 -0.16306293 -0.03736323 0.15330857 0.07266989 0.14543277
-0.015048832 -0.15933286 0.15245497 -0.10262835 0.1382826 -0.11710201 -0.010791704 -0.0065175444
-0.12657885 0.032250807 0.01869841 -0.14370772 -0.03453031 -0.10594821 -0.014280796 -0.09209523
-0.13049917 -0.12784778 0.018670619 0.058837056 0.10771498 0.1598193 0.14310995 0.07429546
00000000: fc1a 18bd 4cc3 133e 6883 f93c 4317 cebd
00000010: 48e1 ebbc e0ba 3abd 8e5c 183e a0cc b1bb
00000020: 1713 39be 4886 8b3d 7432 b2bd 3b2f b4bd
00000030: 2871 073e a00c 78bd 00c0 813c 7e23 00be
00000040: 170e acbd 32e2 20be 7c75 c53d 5005 5e3d
00000050: c017 e33d 129c 063e a0b8 8e3d 1690 e9bd
00000060: 6fd5 eebd e485 d73d 80f5 e83d 1041 03bd
00000070: 00a0 3639 4a6b 07be 0ca7 6b3d 847f 6a3d
00000080: 6f32 25be cc8c 11be d084 70be 000c f5b8
00000090: 8818 d93c a248 74bd c0f0 713b e037 ec3b
000000a0: d649 13be c02f 1cbe 0c73 093e 660e 11be
000000b0: 20fd 4fbc 4cdc 2cbe 4465 e53d 3083 443c
000000c0: f81e 0dbe a4de 8dbd 5e62 903d e63b edbd
000000d0: aa20 d9bd e4d7 113d 80ac e23b dc00 a43d
000000e0: 8ada 79be ae99 1ebe 89a8 31be 8521 a4bd
000000f0: a880 0e3e 8058 abbc ec4c db3d e6cc 253e
00000100: 91e9 cfbd a744 95bd e8a7 6d3d 80f3 26bc
00000110: 00ac 2abe 9ae5 873d 8c8d 363e 49aa 18be
00000120: 4ef3 163e 0053 c93c 36d9 013e 9932 0abe
00000130: 9824 313d 0061 783d 8e9f 083e 8439 c0bd
00000140: 783b 7e3d b261 153e 1d59 eabd dfdd c8bd
00000150: 1c06 fbbd 10d3 193e 00c4 b8bc 80fd 9b3c
00000160: 39cf a3bd a860 c63d 101d 06bc 020e 0e3e
00000170: a431 75bd 3c1c 363e 98be a7bc 842b ad3d
00000180: 4000 babc a4ba 083e 9894 c5bc 089e d33d
00000190: 4629 1a3e 1219 10be f8f3 0b3e da27 33be
000001a0: c091 38bc b8c4 a2bc b902 c8bd e0d7 04be
000001b0: 3e63 38be 3cda 64bd d683 20be 18b0 2fbd
000001c0: 709c 26be 1084 99bd a0f7 f63c fdec abbd
000001d0: e05f 883b 559e 12be 687c a53d 5b75 37be
000001e0: 3bf1 a7bd 30a1 443d 3719 afbd 540b db3d
000001f0: a81c 4d3d a838 d03d f81b cc3c ed86 21be
00000200: 80b2 1ebb 6b58 85bd b79b 28be b04a f2bc
00000210: a800 de3c 04b7 a73d b0df b7bd 187e 033e
00000220: 6c97 ee3d b0e1 0fbc 9d9b d8bd 5093 63bd
00000230: 30b3 b13d 0852 f93d abc7 29be 80c7 213d
00000240: 3499 ad3d 5cc2 003d 909f 083c f6ba 11be
00000250: 2244 333e e041 173c 2097 a63c e07f 133d
00000260: 54fd 9c3d ccb6 fb3d 1479 db3d 6241 c9bd
00000270: 6e61 a0bd cc78 30bd e81f 13be 5ac8 323e
00000280: c122 e7bd 6c83 f73d 06f8 e7bd 6c13 f4bd
00000290: 1b73 e3bd 48e2 debc 5060 9f3d d1a3 2cbe
000002a0: 7409 f03d 3061 9f3d c0c4 24bc f65c 043e
000002b0: 2cc3 2dbd b6c0 b1bd a188 e7bd f66d 203e
000002c0: 80d2 283d e209 2f3e dc9c d83d acef 02be
000002d0: e959 25be 40fe cfbb 622f 37be e4da f33d
000002e0: 78f7 a73d 0896 8b3d 406c e13d 7443 53bd
000002f0: aefe 043e b2c2 123e c0b2 ecbb 8e5d 043e
00000300: 7ae2 223e 604c 1dbd 5465 253d 3872 2fbe
00000310: a0ad 973d 245e 8f3d 188f 803d e818 a2bc
00000320: e0d0 f53d 6e1c 34be 785f 913c 3c6d d83d
00000330: e6f1 1c3e 083b c53c 4cd5 573d 1d19 0ebe
00000340: 20ae 93bd dc96 fc3d 0048 b2b9 1e10 b5bd
00000350: c7ab 0ebe 04a6 4dbd d6c9 13be 58a0 8d3c
00000360: d386 d5bd acc0 a43d 1a22 1a3e a8b0 33be
00000370: 4c2f 473d c381 e8bd 3765 06be 4d65 8cbd
00000380: fc93 f6bd 9afe d1bd 6bd1 b2bd f8f9 26be
00000390: 300a 19bd ecfc 1c3e f4d3 943d 54ec 143e
000003a0: 608f 76bc 2728 23be 281d 1c3e d02e d2bd
000003b0: f499 0d3e 2ed3 efbd b0cf 30bc 2091 d5bb
000003c0: e39d 01be 6c19 043d 682d 993c 1e28 13be
000003d0: a86f 0dbd 60fb d8bd 00fa 69bc 6d9c bcbd
000003e0: 93a1 05be 87ea 02be 20f3 983c 20ff 703d
000003f0: ac99 dc3d aca7 233e 6a8b 123e 3828 983d

fc3.bias f4 [30]
-0.090504006 0.04477907 -0.114365034 -0.14371292 -0.15742888 -0.111757725 -0.03378655 -0.0046166033
-0.08239512 -0.17605045 -0.04699228 -0.11158733 0.015554413 0.028993465 -0.048826978 -0.027562112
0.03986214 0.040545143 -0.13676056 0.08329097 -0.07515713 0.04448393 0.034066327 -0.04177758
0.14148162 -0.09227729 0.2717769 -0.16308078 0.1844549 0.049273178
00000000: 2a5a b9bd 426a 373d 3738 eabd 7b29 13be
00000010: 0935 21be 3ce1 e4bd c463 0abd e046 97bb
00000020: c6be a8bd 9246 34be fa7a 40bd e687 e4bd
00000030: f0d7 7e3c b483 ed3c ccfe 47bd f0c9 e1bc
00000040: 7c46 233d aa12 263d f60a 0cbe 7594 aa3d
00000050: fbeb 99bd c834 363d 2289 0b3d f81e 2bbd
00000060: 8fe0 103e e0fb bcbd 5826 8b3e a6fe 26be
00000070: bfe1 3c3e acd2 493d

fc4.weight f4 [1, 30]
0.17949584 -0.0035898313 0.10722798 0.16994885 -0.14705698 -0.09584491 -0.09525072 -0.08924497
0.05934201 0.15200096 -0.063312896 -0.07953657 0.07477698 -0.24692899 0.03500621 -0.077940546
-0.075885266 -0.22655898 -0.08364205 -0.12882264 -0.1705368 -0.048178807 -0.19630036 0.0953787
-0.15194376 0.12419972 -0.14642546 -0.014276445 -0.1673002 -0.04823429
00000000: c2cd 373e 6043 6bbb 589a db3d 1207 2e3e
00000010: 1b96 16be 564a c4bd cf12 c3bd 11c6 b6bd
00000020: 9c10 733d 24a6 1b3e 31aa 81bd 12e4 a2bd
00000030: ac24 993d f4da 7cbe ac62 0f3d 4b9f 9fbd
00000040: bc69 9bbd 14ff 67be 864c abbd 15ea 03be
00000050: 33a1 2ebe 2457 45bd f602 49be e855 c33d
00000060: 2597 1bbe 6c5c fe3d 8ef0 15be c0e7 69bc
00000070: be50 2bbe 5291 45bd
