VanillaModel.pt (torch, 70027 bytes, 7 tensors)

fc1.weight f4 [90, 3]
-0.094649315 -0.20174563 0.512625 -0.5312176 0.092592955 0.4516368 0.28118342 -0.35601312
-0.27765128 -0.2986801 0.058045506 0.40896946 -0.06269628 -0.13056007 -0.3838377 0.54173577
-0.52688676 0.16198009 0.34725767 0.47396266 0.39718044 0.36385614 -0.41926098 -0.097548336
0.19585878 -0.11936818 -0.09686345 -0.49613154 -0.068948865 0.48529541 -0.5684418 0.16662711
-0.06216061 -0.29602265 -0.20004478 0.3588723 0.17989999 0.5196797 0.42624426 0.5358058
0.544526 0.038048208 -0.07468802 0.06040877 0.19651031 -0.51357055 -0.448888 0.12432623
0.5071207 -0.015307397 -0.2586028 0.31747955 0.22263093 0.09049392 -0.23552987 -0.07675428
-0.10628098 -0.23955917 0.4718151 0.116429806 0.12750298 -0.0026902705 -0.28162107 -0.15020853
-0.68871146 0.5484184 0.33435267 -0.048035495 0.29863083 -0.15484005 0.4985783 -0.42346233
-0.009096503 -0.09260478 0.55199885 -0.41121063 -0.44523638 0.036841035 0.4802382 -0.35181946
0.11367571 -0.39845258 0.10315395 0.24486423 -0.011695325 -0.32764792 0.4711038 -0.25798377
-0.31456563 -0.11542776 0.42492747 -0.33509177 -0.016644776 0.2196812 0.5189198 0.45191503
-0.19360852 0.03754294 0.2111792 0.04104072 -0.29763007 -0.0555619 0.5185808 0.5169809
-0.49686027 -0.5471769 -0.35050124 0.46191788 0.27253342 -0.44648975 -0.3842417 -0.09518644
-0.029826999 0.4650842 0.4460094 -0.7198516 -0.45263553 0.08719641 -0.03333181 -0.1056678
0.45166278 0.08362047 0.12164688 -0.24995369 -0.034838855 0.11406666 0.06224531 0.47949302
0.43546104 -0.16108695 -0.25134167 -0.18043303 -0.57080406 -0.25026032 -0.145958 0.057083786
-0.5270984 0.43317342 -0.13839814 0.512627 -0.5464355 -0.42822582 0.49285877 -0.20802173
0.29411495 -0.21710148 0.06637746 0.09046358 0.36286438 0.014019549 0.10744125 0.49762297
0.46832037 -0.019205749 -0.2545474 0.18320072 0.37484568 0.0031499267 -0.1765722 -0.09877631
0.20227294 -0.14204085 0.43948102 -0.33135507 0.33630532 0.18774056 0.15101302 0.2035932
-0.36341435 0.26339757 -0.4509758 0.39995438 0.5173675 -0.16109183 0.37370187 -0.53903496
-0.25994942 -0.14992702 0.4570011 -0.25073624 -0.31312573 -0.5202946 -0.55689037 0.43940032
0.17980337 -0.2781385 -0.19398719 -0.73118985 0.10973102 -0.16969487 0.24990666 -0.530109
-0.10033989 -0.46109337 -0.12583348 0.5459057 -0.62794644 -0.2218616 0.009644806 -0.10240467
-0.24521065 0.3146931 0.16727528 -0.009225428 -0.09044519 -0.01846832 0.0695743 0.27278244
0.30713612 0.024551868 -0.09996712 -0.6601461 0.27331388 0.53076184 -0.57924813 0.22243959
0.5641068 -0.30608448 -0.30044016 0.26897532 0.47453678 -0.48044008 -0.4865385 -0.18067655
-0.39880186 0.50975657 -0.6636482 -0.42503512 0.5201725 0.5613525 0.337103 -0.21676308
-0.16088349 0.20584983 0.38872367 0.3055247 -0.31355947 -0.32219887 -0.17183916 -0.2567421
0.3944577 -0.7021346 -0.3404825 -0.48299074 0.31790805 0.18389547 -0.47494954 -0.501442
0.25460273 -0.42783713 -0.38386792 -0.22857222 -0.33344394 0.15161932 0.44401622 -0.26954892
00000000: 80d7 c1bd 6896 4ebe 643b 033f e0fd 07bf
00000010: 60a1 bd3d f03c e73e 46f7 8f3e 5a47 b6be
00000020: 4f28 8ebe 99ec 98be 20c1 6d3d 7264 d13e
00000030: e866 80bd 8ab1 05be 6086 c4be 32af 0a3f
00000040: 0de2 06bf 1cde 253e c2cb b13e 3cab f23e
00000050: 3c5b cb3e 5a4b ba3e 60a9 d6be 6cc7 c7bd
00000060: 348f 483e 4e77 f4bd 5860 c6bd f404 febe
00000070: 1035 8dbd a478 f83e 6785 11bf 4ca0 2a3e
00000080: 209c 7ebd 4890 97be 8ad8 4cbe 1cbe b73e
00000090: b437 383e bb09 053f b03c da3e 922a 093f
000000a0: 0e66 0b3f 70d8 1b3d 08f6 98bd 306f 773d
000000b0: 003a 493e 5c79 03bf a6d4 e5be c09e fe3d
000000c0: aad2 013f e0cb 7abc 9667 84be ae8c a23e
000000d0: 5df9 633e e054 b93d be2e 71be 5931 9dbd
000000e0: d8a9 d9bd 004f 75be c091 f13e c072 ee3d
000000f0: 2490 023e 404f 30bb a330 90be 44d0 19be
00000100: 654f 30bf 2665 0c3f 4630 ab3e dec0 44bd
00000110: 24e6 983e 648e 1ebe a845 ff3e 0ed0 d8be
00000120: 8009 15bc 93a7 bdbd cc4f 0d3f 338a d2be
00000130: 06f6 e3be a0e6 163d c8e1 f53e ae21 b4be
00000140: d0ce e83d fa01 ccbe 6142 d33d b0bd 7a3e
00000150: c09d 3fbc 78c1 a7be 8434 f13e 7316 84be
00000160: bf0e a1be 6465 ecbd 1890 d93e 2691 abbe
00000170: a05a 88bc 1cf4 603e eed7 043f 6861 e73e
00000180: 5041 46be a0c6 193d 5c3f 583e 501a 283d
00000190: f862 98be e094 63bd b6c1 043f dc58 043f
000001a0: 7864 febe c913 0cbf e674 b3be 8080 ec3e
000001b0: 8089 8b3e 4e9a e4be 54bb c4be 1cf1 c2bd
000001c0: c057 f4bc 841f ee3e 585b e43e 3248 38bf
000001d0: d8bf e7be 0894 b23d f086 08bd 5c68 d8bd
000001e0: 5840 e73e 3541 ab3d 0022 f93d dcf3 7fbe
000001f0: 30b3 0ebd c89b e93d f0f4 7e3d 1c80 f53e
00000200: c0f4 de3e faf3 24be dbaf 80be 70c3 38be
00000210: 3720 12bf 1f22 80be 0476 15be b0d0 693d
00000220: ecef 06bf e8c8 dd3e 3eb8 0dbe 863b 033f
00000230: 32e3 0bbf 6a40 dbbe fc57 fc3e a603 55be
00000240: 3c96 963e da4f 5ebe e8f0 873d f844 b93d
00000250: 5cc9 b93e 40b2 653c 280a dc3d 70c8 fe3e
00000260: b0c7 ef3e 6055 9dbc 0954 82be f898 3b3e
00000270: c6eb bf3e 006f 4e3b 58cf 34be 3c4b cabd
00000280: a320 4f3e 2873 11be a803 e13e 5fa7 a9be
00000290: 3630 ac3e 103f 403e 28a3 1a3e bc7a 503e
000002a0: 7211 babe 0cdc 863e 4de6 e6be d2c6 cc3e
000002b0: 3272 043f 42f5 24be da55 bf3e 32fe 09bf
000002c0: 1718 85be 7886 19be 0cfc e93e 8060 80be
000002d0: 0452 a0be 0732 05bf 5e90 0ebf 14f9 e03e
000002e0: 601e 383e 2b68 8ebe 94a4 46be 422f 3bbf
000002f0: a8ba e03d 7ec4 2dbe 88e7 7f3e 39b5 07bf
00000300: 007f cdbd 6e14 ecbe 7eda 00be 7ac0 0b3f
00000310: 19c1 20bf b02f 63be 4005 1e3c 8ab9 d1bd
00000320: 8018 7bbe 741f a13e 364a 2b3e 4026 17bc
00000330: 543b b9bd e04a 97bc f87c 8e3d 24aa 8b3e
00000340: f240 9d3e 0021 c93c 90bb ccbd 56ff 28bf
00000350: ccef 8b3e 02e0 073f 9b49 14bf 34c7 633e
00000360: 4e69 103f 1bb7 9cbe 4bd3 99be 22b7 893e
00000370: 7cf6 f23e 3efc f5be 931b f9be 4603 39be
00000380: c22f ccbe 687f 023f d9e4 29bf 349e d9be
00000390: 062a 053f ccb4 0f3f c498 ac3e 24f7 5dbe
000003a0: a4be 24be 4cca 523e ca06 c73e bc6d 9c3e
000003b0: de8a a0be 40f7 a4be 9bf6 2fbe b373 83be
000003c0: 5cf6 c93e 18bf 33bf b953 aebe 904a f7be
000003d0: d8c4 a23e 184f 3c3e 962c f3be 815e 00bf
000003e0: 4a5b 823e 780d dbbe 568a c4be d60e 6abe
000003f0: 2ab9 aabe 1842 1b3e 1856 e33e 5102 8abe

fc1.bias f4 [90]
0.27741104 -0.54454005 0.10804967 -0.4818208 0.7015458 0.6851458 0.22935063 0.0751131
-0.3035047 -0.36923766 0.22429264 -0.103701554 0.28452867 -0.3249011 0.02381879 0.047678128
0.68208855 0.5681074 0.6962558 -0.4703243 -0.14289369 0.32466367 -0.04883013 -0.39870456
-0.2703518 -0.5623475 -0.21282566 -0.10092885 0.14723122 -0.3821185 0.23907995 0.06517142
-0.49367166 -0.54104626 -0.11137062 -0.5660372 -0.015406445 -0.5330463 -0.29163685 -0.23265156
-0.2410093 -0.19144168 -0.024703324 0.076665945 -0.3420903 0.07472638 0.2150718 -0.12217176
-0.34223536 0.08301628 -0.14810163 -0.3927823 -0.51585937 0.69154525 -0.33630973 -0.07015771
-0.5375781 0.48162532 0.60575396 -0.042368114 -0.16966459 -0.167025 0.21549255 -0.31846634
-0.54194564 0.30840304 0.70053935 0.10715512 -0.34868163 -0.16852477 0.4793537 0.619635
0.67785335 0.17255366 -0.32507262 -0.32755077 0.49752486 0.18280846 0.08489835 -0.19985197
0.49760932 -0.3429489 -0.004867442 0.3941223 0.1541089 -0.26217276 -0.53489095 0.33663365
-0.4318068 0.65274954
00000000: d208 8e3e fa66 0bbf 2549 dd3d 37b1 f6be
00000010: 8198 333f b765 2f3f e4da 6a3e e6d4 993d
00000020: f864 9bbe b80c bdbe f8ac 653e 7b61 d4bd
00000030: bead 913e 7059 a6be a01f c33c 244a 433d
00000040: 5b9d 2e3f 7d6f 113f d23d 323f 59ce f0be
00000050: b952 12be 513a a63e 1a02 48bd 0123 ccbe
00000060: 8d6b 8abe 01f6 0fbf f8ee 59be c9b3 cebd
00000070: c8c3 163e 09a5 c3be 60d1 743e 9878 853d
00000080: 88c2 fcbe 0282 0abf 4816 e4bd d0e7 10bf
00000090: 506b 7cbc b975 08bf 6d51 95be 363c 6ebe
000000a0: 24cb 76be 4a09 44be a05e cabc 0903 9d3d
000000b0: 7626 afbe 250a 993d c83b 5c3e 3035 fabd
000000c0: 7939 afbe 7004 aa3d f4a7 17be c31a c9be
000000d0: 5c0f 04bf 1c09 313f ca30 acbe d8ae 8fbd
000000e0: b89e 09bf 9897 f63e b112 1b3f 308a 2dbd
000000f0: 8ebc 2dbe 9a08 2bbe 14aa 5c3e 050e a3be
00000100: f3bc 0abf 01e7 9d3e 8c56 333f 2574 db3d
00000110: 6686 b2be c291 2cbe d96d f53e 66a0 1e3f
00000120: cc87 2d3f e8b1 303e eb6f a6be bcb4 a7be
00000130: 94bb fe3e 2432 3b3e 30df ad3d ffa5 4cbe
00000140: a6c6 fe3e 0097 afbe 107f 9fbb 66ca c93e
00000150: b9ce 1d3e 823b 86be 9dee 08bf 3f5b ac3e
00000160: c815 ddbe 981a 273f

fc2.weight f4 [90, 90]
-0.024974845 -0.09788984 0.07963697 0.023074828 -0.008237928 -0.096017905 -0.03943947 -0.028479211
0.09929583 0.039730527 -0.052319236 -0.10486535 0.091616936 -0.04932503 -0.058581006 -0.060124863
0.052790932 0.03184145 -0.09969925 -0.09279509 -0.095738016 -0.008949287 0.025069796 -0.10459841
0.025505997 -0.069512405 0.10072217 -0.09767409 -0.012229539 -0.032990187 0.018874288 0.036132522
-0.006917365 0.025188826 0.1045664 0.04015241 0.089765556 0.030334525 0.033497594 0.0020824745
-0.00048527867 0.051536687 0.092139535 0.08887527 -0.0893185 0.008913763 0.013803981 0.0042234287
0.01961448 0.0028946623 -0.038653508 -0.04185634 -0.031022936 0.09175923 0.006708607 0.048882686
-0.091472484 -0.08107034 -0.08202851 0.10349988 0.00554733 -0.0395395 0.035540096 -0.099045806
-0.0149010345 -0.022842169 0.05813112 0.06794026 0.042350166 -0.037841 -0.051684804 -0.0891
0.00954102 -0.08942522 -0.027761191 -0.030225247 0.015393347 -0.010690287 0.071378775 -0.057752397
-0.07110843 0.0094233155 -0.0008077249 -0.040452056 -0.016425408 -0.007574387 0.003423944 0.041132756
0.046113037 0.06464895 -0.028245308 0.039771833 -0.011988983 0.0025923178 0.039433874 -0.0012911707
0.050644748 0.07813098 -0.06901514 -0.047363527 0.033789165 -0.04139764 0.08407565 -0.07232283
0.048901238 0.08138522 -0.053876963 0.10372671 0.0826746 -0.0995072 0.09671108 -0.09791916
0.019633837 0.040500887 -0.028296098 0.084018104 -0.08780004 0.049871944 -0.01859837 0.04956772
-0.049519673 -0.049191732 -0.09287477 -0.027870484 0.0059030205 -0.005868502 0.09546041 -0.041249476
0.0027889311 -0.1026975 0.09394645 -0.011596404 0.024833731 0.07136818 0.052064516 0.08896739
0.011678256 0.043173574 0.065216504 0.03231021 0.03619618 -0.09792262 -0.021717794 -0.10287571
-0.06411046 -0.09889474 -0.07347508 0.015233286 -0.038818695 0.08520689 -0.07427484 -0.06591065
-0.03701693 0.08350443 -0.026687026 0.021414004 -0.03615263 0.069502585 -0.0005804375 0.035044663
0.00032430887 0.09178702 0.012302205 0.0756292 0.015655696 -0.08551117 0.046662413 -0.0067335665
-0.0007760897 -0.03430163 0.08996753 0.049410053 -0.10189157 -0.08470631 0.063239776 0.029253833
0.059096806 -0.063488975 -0.093233086 -0.046971712 0.012062922 -0.095299 -0.007902794 -0.102875926
-0.0939744 0.09382563 -0.10274675 -0.027478367 -0.09864962 0.04287166 0.080398254 -0.0331968
-0.04182469 -0.044234022 0.08251012 0.09177937 -0.09284606 0.05376687 -0.017229624 -0.093739875
-0.06698259 -0.05099908 -0.028358102 -0.060954932 -0.0108811855 -0.03277187 -0.074516326 0.012952261
0.00022776425 0.10295721 -0.0142833665 0.08781735 -0.08648439 0.07782418 0.06808626 0.0766821
-0.010638475 -0.0032416806 0.048782922 -0.0038593486 0.012099735 -0.041840598 -0.09463505 0.079734646
-0.100836076 -4.5880675e-05 0.042576216 0.099906094 0.012151495 -0.011857204 0.009250648 -0.05866074
-0.053929236 -0.015011489 0.079495765 0.08166108 -0.06735246 -0.05241534 0.043145694 -0.09939898
-0.10372372 -0.06697266 0.027317889 -0.052691735 0.0034527928 -0.04187814 -0.006509289 -0.100174904
-0.042845532 -0.016301967 0.013146877 0.073892914 0.06497408 0.041565917 -0.011638962 0.07430253
00000000: 0c98 ccbc 787a c8bd b518 a33d 6c07 bd3c
00000010: 60f8 06bc 09a5 c4bd 488b 21bd 3c4d e9bc
00000020: 9d5b cb3d 7abc 223d b24c 56bd a5c3 d6bd
00000030: a9a1 bb3d 0b09 4abd a3f2 6fbd 7d45 76bd
00000040: 4e3b 583d 2e6c 023d 1f2f ccbd 5a0b bebd
00000050: 4b12 c4bd 08a0 12bc 2c5f cd3c b137 d6bd
00000060: f4f1 d03c 855c 8ebd 6d47 ce3d 5a09 c8bd
00000070: 685e 48bc b820 07bd 409e 9a3c b2ff 133d
00000080: 10ab e2bb cc58 ce3c e926 d63d da76 243d
00000090: 01d7 b73d 1c80 f83c c634 093d 207a 083b
000000a0: 006d feb9 2218 533d a7b3 bc3d 3d04 b63d
000000b0: 9eec b6bd 080b 123c 182a 623c b064 8a3b
000000c0: 8cae a03c 60b4 3d3b 2453 1ebd 8e71 2bbd
000000d0: d023 febc 43ec bb3d e0d3 db3b 3639 483d
000000e0: ed55 bbbd 3508 a6bd 90fe a7bd bff7 d33d
000000f0: 60c6 b53b 2cf4 21bd 7e92 113d 87d8 cabd
00000100: 7823 74bc 801f bbbc e61a 6e3d 4324 8b3d
00000110: 5e77 2d3d 2aff 1abd 72b3 53bd 107a b6bd
00000120: f051 1c3c 9224 b7bd 706b e3bc f09a f7bc
00000130: 6034 7c3c 5026 2fbc 092f 923d c78d 6cbd
00000140: 4ca1 91bd 4064 1a3c 80bd 53ba 0eb1 25bd
00000150: 948e 86bc 9032 f8bb 4064 603b d27a 283d
00000160: 06e1 3c3d ab66 843d b462 e7bc cae7 223d
00000170: 706d 44bc e0e3 293b 6a85 213d 803c a9ba
00000180: de70 4f3d 2303 a03d cf57 8dbd 4200 42bd
00000190: 8266 0a3d 9290 29bd db2f ac3d fe1d 94bd
000001a0: aa4c 483d 4bad a63d 17ae 5cbd ab6e d43d
000001b0: 4d51 a93d 6eca cbbd 7510 c63d d789 c8bd
000001c0: 24d7 a03c 42e4 253d 38cd e7bc af11 ac3d
000001d0: 82d0 b3bd 8646 4c3d 9c5b 98bc 8607 4b3d
000001e0: 24d5 4abd 457d 49bd 2135 bebd a450 e4bc
000001f0: 206e c13b 904c c0bb bf80 c33d 36f5 28bd
00000200: 80c6 363b 1153 d2bd ff66 c03d d8fe 3dbc
00000210: 1c70 cb3c 7b29 923d 9a41 553d 8934 b63d
00000220: 2856 3f3c c6d6 303d 3b90 853d b657 043d
00000230: 7242 143d a88b c8bd 84e9 b1bc 80b0 d2bd
00000240: 584c 83bd 5389 cabd 1a7a 96bd 0895 793c
00000250: 5a00 1fbd f380 ae3d 681d 98bd 2afc 86bd
00000260: 109f 17bd 5f04 ab3d c09e dabc 6c6c af3c
00000270: c814 14bd 5f57 8e3d 8028 18ba fe8a 0f3d
00000280: 0008 aa39 d5fa bb3d 308f 493c 7be3 9a3d
00000290: 6040 803c 7b20 afbd 1621 3f3d 40a5 dcbb
000002a0: 8072 4bba de7f 0cbd e540 b83d 3262 4a3d
000002b0: 87ac d0bd 807a adbd db83 813d bca5 ef3c
000002c0: 7e0f 723d 8206 82bd fdf0 bebd 6965 40bd
000002d0: 90a3 453c 1f2c c3bd b87a 01bc 9db0 d2bd
000002e0: a675 c0bd a727 c03d e36c d2bd 501a e1bc
000002f0: d008 cabd 329a 2f3d d7a7 a43d 5ef9 07bd
00000300: 5e50 2bbd bc2e 35bd 11fb a83d d3f6 bb3d
00000310: 1326 bebd a63a 5c3d 2425 8dbc b1fa bfbd
00000320: 2b2e 89bd 69e4 50bd 404f e8bc e1ab 79bd
00000330: 0047 32bc cc3b 06bd 049c 98bd b835 543c
00000340: 00d4 6e39 3bdb d23d c804 6abc 95d9 b33d
00000350: ba1e b1bd 4962 9f3d cf70 8b3d 810b 9d3d
00000360: 004d 2ebc 6072 54bb 9ad0 473d 20ed 7cbb
00000370: f83d 463c 0c61 2bbd 05d0 c1bd eb4b a33d
00000380: 2583 cebd 0070 40b8 6664 2e3d 919b cc3d
00000390: 1017 473c b844 42bc 0890 173c 3e46 70bd
000003a0: e7e4 5cbd c0f2 75bc adce a23d ed3d a73d
000003b0: 16f0 89bd 78b1 56bd 8ab9 303d b191 cbbd
000003c0: 1a6d d4bd f628 89bd c4c9 df3c 4ad3 57bd
000003d0: 4048 623b 6a88 2bbd e04b d5bb 8028 cdbd
000003e0: cc7e 2fbd b48b 85bc 0066 573c 2b55 973d
000003f0: 2111 853d 0641 2a3d 58b1 3ebc ed2b 983d

fc2.bias f4 [90]
-0.073162824 0.023810111 -0.08939093 -0.040369727 0.090298526 0.13480441 0.06591028 -0.13701013
0.2033999 0.15519059 -0.09248508 0.11692509 0.16790083 0.012094706 -0.20774442 0.010009147
0.15257792 -0.038260296 -0.042311005 0.09116005 0.1262977 -0.10361617 -0.05297243 0.20960498
0.109005354 -0.064760104 0.16262645 0.21121964 0.01917445 -0.11122851 -0.0029149428 0.26002356
-0.070444435 -0.22090441 -0.07187168 -0.000927642 0.2072064 0.04780259 0.20339918 0.0100739
-0.13165522 -0.25299564 0.06494046 0.029270075 0.27084565 0.18696854 0.0615632 -0.2113651
0.20809439 -0.18111707 0.14356366 -0.043085437 0.08543863 -0.18871664 -0.24922517 0.0491677
0.005297929 0.039430045 -0.12599802 0.20780955 -0.11720141 -0.11131892 0.09172542 0.20255648
-0.076180324 -0.04219961 -0.18543816 0.25872725 -0.039361283 -0.23622346 -0.011157945 0.050940864
-0.09592666 0.029331796 0.12937322 -0.07512283 -0.083727755 0.20220661 0.08006363 -0.021679468
-0.10227225 0.06124135 -0.12565073 -0.019367255 0.071707256 0.22986014 0.07569168 0.074139304
-0.008513041 0.060638733
00000000: 64d6 95bd 6c0d c33c 9812 b7bd ba5a 25bd
00000010: 6fee b83d 2b0a 0a3e f8fb 863d 624c 0cbe
00000020: 1048 503e 48ea 1e3e d168 bdbd 6c76 ef3d
00000030: 32ee 2b3e e028 463c f4ba 54be 68fd 233c
00000040: 633d 1c3e d4b6 1cbd 4e4e 2dbd 1fb2 ba3d
00000050: 2f54 013e b734 d4bd 9ef9 58bd b0a2 563e
00000060: 333e df3d f2a0 84bd 8c87 263e f649 583e
00000070: bc13 9d3c c6cb e3bd a008 3fbb cf21 853e
00000080: 2c45 90bd c434 62be 7631 93bd 002d 73ba
00000090: ea2d 543e a6cc 433d e047 503e 000d 253c
000000a0: a0d0 06be a588 81be 81ff 843d ccc7 ef3c
000000b0: 48ac 8a3e ae74 3f3e b229 7c3d 1870 58be
000000c0: b216 553e c176 39be 5a02 133e 5b7a 30bd
000000d0: 73fa ae3d ef3e 41be e234 7fbe 1264 493d
000000e0: 409a ad3b 6681 213d a005 01be 07cc 543e
000000f0: 4b07 f0bd 2dfb e3bd 89da bb3d f76a 4f3e
00000100: 6e04 9cbd 80d9 2cbd 80e3 3dbe e677 843e
00000110: 4c39 21bd 90e4 71be d0cf 36bc 5ea7 503d
00000120: 3275 c4bd 3c49 f03c 6a7a 043e 00da 99bd
00000130: 7579 abbd 400f 4f3e 67f8 a33d 2499 b1bc
00000140: 1d74 d1bd 36d8 7a3d 96aa 00be 14a8 9ebc
00000150: 41db 923d 7560 6b3e 3d04 9b3d 59d6 973d
00000160: 487a 0bbc 5260 783d

fc3.weight f4 [90, 90]
-0.04060421 -0.05507369 -0.06815848 -0.0885373 -0.24274737 -0.18353117 -0.16618553 -0.18566561
-0.25381315 -0.18674102 -0.2125153 -0.20530407 -0.08216504 0.02473522 -0.20189507 0.03775949
-0.14491844 0.052217193 -0.10296834 0.09055465 -0.1421549 0.058038928 -0.099589325 -0.23342225
-0.1417268 -0.078042895 -0.1559133 -0.15477043 0.002607964 -0.267064 -0.047934264 -0.13839343
0.03919176 -0.24431992 -0.14034966 -0.012475073 -0.1865496 -0.058431737 -0.103678286 -0.10128631
-0.1491437 -0.09815729 -0.0702579 -0.031963117 -0.17522867 -0.2241131 -0.03558126 -0.122853585
-0.25029296 -0.24077982 -0.08216342 -0.004868865 0.045938738 -0.1946482 -0.1440781 0.0020768791
0.05839426 -0.013965793 -0.10390191 -0.122762464 -0.18625396 -0.26727366 -0.081982896 -0.15292308
-0.10029977 0.09708152 -0.15113659 -0.095625564 0.099534355 -0.1138403 0.07784555 0.03747479
-0.15873143 -0.09706389 -0.06337139 -0.10500459 -0.096172296 -0.21062692 -0.062056735 0.073434494
-0.12441517 -0.09105042 -0.08164782 0.0831944 0.08469247 -0.072826095 -0.009140722 -0.013484545
0.050321616 0.05353371 -0.05918238 0.023426987 0.035309322 -0.044677217 -0.007197 -0.057331152
-0.07898078 -0.030593067 -0.04714232 0.062401332 0.036851518 -0.033824548 0.05869382 -0.007102169
-0.06302827 -0.061411094 0.06578495 0.035210826 0.043752007 0.047460355 -0.028113708 -0.05164639
0.04484097 -0.0033529103 0.017747909 -0.104931824 0.07436719 -0.017439269 -0.08088449 0.09773595
0.038772188 0.03775295 0.07569655 0.04634414 -0.018194355 0.08846212 0.061544023 0.066459514
-0.028113417 -0.0021051392 -0.06699154 0.053189434 -0.096415274 -0.10427728 -0.059365425 0.067131974
-0.046587124 -0.048574287 0.026433967 0.0400716 0.020239986 0.04152798 0.08776843 -0.029510446
-0.03286858 0.064931504 -0.020681672 -0.019333556 0.0527476 -0.00685519 0.10055325 0.028889067
-0.076464824 0.01584293 0.0066557676 0.005636409 -0.0015692487 0.010741226 -0.10355615 0.048764266
0.08704489 -0.019469231 -0.028199509 0.076755546 -0.09152229 0.028825812 0.03784763 0.0026160255
0.056672104 -0.07391341 -0.026288785 0.08137544 -0.024287723 -0.06148351 -0.015918106 -0.064513065
0.009554692 0.057383813 0.04326188 -0.04281947 0.036617674 0.005291477 -0.09074482 -0.07030344
0.07475846 -0.078325704 0.07594163 -0.06881629 0.09438024 0.04677955 0.094422825 -0.07919867
0.029985242 0.025401242 -0.04960287 0.07653106 0.0034670085 -0.06508927 -0.077806786 -0.05718975
0.073038064 -0.097662956 -0.06181057 0.07935325 0.07965655 -0.007302895 -0.020793408 -0.003812626
0.016489774 -0.03061387 0.03528326 -0.104382135 -0.04374774 0.098129235 0.058494292 -0.023507059
-0.08092899 0.010541208 0.04148286 0.028862752 0.040042944 -0.0736772 -0.038386635 0.005133204
-0.017588414 0.043978296 -0.088776916 -0.01469963 -0.02099093 0.03340093 0.09837826 0.052775674
-0.052856423 0.06786869 0.092374586 -0.08031638 0.09255258 -0.035708643 -0.0022996217 0.06996017
-0.085117586 0.0037658215 -0.09698912 0.059081458 -0.10128884 -0.10434467 -0.08770624 -0.06602979
0.09620734 0.040980987 0.09334261 0.0066859946 -0.077025145 -0.024857327 0.0500089 0.053570516
00000000: 9a50 26bd f394 61bd ac96 8bbd 0b53 b5bd
00000010: c492 78be 98ef 3bbe 8a2c 2abe 201f 3ebe
00000020: ccf3 81be 0a39 3fbe 9c9d 59be 3b3b 52be
00000030: 2546 a8bd 84a1 ca3c 95bd 4ebe b2a9 1a3d
00000040: 8065 14be b2e1 553d 11e1 d2bd b774 b93d
00000050: 0e91 11be 3aba 6d3d 7df5 cbbd 3e06 6fbe
00000060: d520 11be f4d4 9fbd bca7 1fbe 247c 1ebe
00000070: 60ea 2a3b 9dbc 88be b856 44bd 02b7 0dbe
00000080: 8a87 203d 002f 7abe d2b7 0fbe 4064 4cbc
00000090: dc06 3fbe 1e56 6fbd 4855 d4bd 326f cfbd
000000a0: 20b9 18be b006 c9bd 60e3 8fbd c2eb 02bd
000000b0: 256f 33be e87d 65be a8bd 11bd a99a fbbd
000000c0: 6626 80be fc8e 76be 4c45 a8bd 008b 9fbb
000000d0: 422a 3c3d dc51 47be 3689 13be 401c 083b
000000e0: d22e 6f3d c8d0 64bc 86ca d4bd e36a fbbd
000000f0: 5cb9 3ebe 18d8 88be a6e6 a7bd de97 1cbe
00000100: f769 cdbd add2 c63d 8dc3 1abe 56d7 c3bd
00000110: abd8 cb3d 1a25 e9bd 7d6d 9f3d 2a7f 193d
00000120: 7e8a 22be 6fc9 c6bd dcc8 81bd a50c d7bd
00000130: fbf5 c4bd 95ae 57be 342f 7ebd d364 963d
00000140: 61cd febd a578 babd f936 a7bd d361 aa3d
00000150: 3f73 ad3d d925 95bd f8c2 15bc 48ee 5cbc
00000160: 0a1e 4e3d 2a46 5b3d 3969 72bd f4e9 bf3c
00000170: 82a0 103d 75ff 36bd d0d4 ebbb 12d4 6abd
00000180: adc0 a1bd 509e fabc 4e18 41bd 8a98 7f3d
00000190: 9ef1 163d 9c8b 0abd ee68 703d 50b9 e8bb
000001a0: f714 81bd 338a 7bbd 43ba 863d 3a39 103d
000001b0: 4e35 333d ca65 423d b84e e6bc 2a8b 53bd
000001c0: 2aab 373d 80bc 5bbb 1064 913c 7fe6 d6bd
000001d0: d34d 983d ccdc 8ebc c4a6 a5bd c929 c83d
000001e0: 96cf 1e3d d6a2 1a3d cb06 9b3d 5ad3 3d3d
000001f0: 540c 95bc a12b b53d 9615 7c3d ed1b 883d
00000200: 1c4e e6bc 60f6 09bb dc32 89bd 2add 593d
00000210: 5f75 c5bd 548f d5bd 2929 73bd 7d7c 893d
00000220: 24d2 3ebd d5f5 46bd 0c8c d83c 1e22 243d
00000230: 54ce a53c 3e19 2a3d efbf b33d e4bf f1bc
00000240: 34a1 06bd cffa 843d 9c6c a9bc 6861 9ebc
00000250: de0d 583d 80a1 e0bb ddee cd3d c4a8 ec3c
00000260: 9799 9cbd 08c9 813c a018 da3b a0b1 b83b
00000270: 40af cdba f8fb 2f3c 3f15 d4bd 0abd 473d
00000280: 9744 b23d f07d 9fbc a802 e7bc 0332 9d3d
00000290: 0a70 bbbd 1c24 ec3c 1e06 1b3d a071 2b3b
000002a0: 0221 683d ea5f 97bd 945b d7bc 2ba8 a63d
000002b0: 0cf7 c6bc 22d6 7bbd b066 82bc 6d1f 84bd
000002c0: 488b 1c3c 4a0b 6b3d 5e33 313d 7863 2fbd
000002d0: 6afc 153d 2064 ad3b 6cd8 b9bd 40fb 8fbd
000002e0: f71a 993d 3a69 a0bd 4987 9b3d 8eef 8cbd
000002f0: 6d4a c13d ea9b 3f3d c160 c13d ea32 a2bd
00000300: 9ca3 f53c 4416 d03c 612c 4bbd 51bc 9c3d
00000310: c036 633b 864d 85bd 2a59 9fbd cd3f 6abd
00000320: fb94 953d 8403 c8bd 152d 7dbd f583 a23d
00000330: f922 a33d 204d efbb f056 aabc 40dd 79bb
00000340: 9015 873c f0c9 fabc 2e85 103d 4dc6 d5bd
00000350: d530 33bd fbf7 c83d b697 6f3d e091 c0bc
00000360: 19be a5bd 08b5 2c3c eee9 293d 9471 ec3c
00000370: 1204 243d 12e4 96bd 4e3b 1dbd 7034 a83b
00000380: 9415 90bc 9622 343d acd0 b5bd b8d6 70bc
00000390: 2cf5 abbc 6acf 083d 8b7a c93d 4e2b 583d
000003a0: fa7f 58bd bdfe 8a3d e32e bd3d ea7c a4bd
000003b0: 358c bd3d 3a43 12bd 40b5 16bb 4747 8f3d
000003c0: 2152 aebd 00cc 763b 3ba2 c6bd 66ff 713d
000003d0: 8670 cfbd a9b2 d5bd 549f b3bd a03a 87bd
000003e0: 5b08 c53d aedb 273d 692a bf3d 3016 db3b
000003f0: 5cbf 9dbd 98a1 cbbc 22d6 4c3d c26c 5b3d

fc3.bias f4 [90]
-0.15298265 -0.017965332 -0.09788105 -0.14664124 0.17723703 -0.0385995 -0.17170893 -0.08124666
-0.043628253 -0.08852242 -0.048249148 0.06550639 0.013988681 -0.07568208 -0.052558776 0.12694162
0.15881543 0.13920514 0.04693543 -0.05746107 -0.17552668 0.20767641 -0.11584724 0.09952045
0.22872613 -0.09492891 0.008766003 -0.084889166 -0.13775511 0.1665706 -0.0026990995 0.026299916
0.18829647 -0.003677763 0.107917115 0.12709229 0.25741735 -0.065626554 0.2066068 0.046633653
-0.070563726 0.08400903 -0.11627081 -0.07285979 -0.0036201999 -0.022992052 0.1330916 -0.20848006
0.22873354 0.04942491 0.27197233 -0.21408343 -0.07461777 0.017832026 0.048374824 -0.04933337
-0.09496201 0.082864426 -0.050627433 0.13956073 -0.110520735 -0.08797054 -0.09884519 -0.2198577
0.08832853 -0.08056618 -0.06508804 -0.060484823 -0.11212882 0.053593896 0.010443129 -0.19039159
-0.07054667 0.23774399 0.20239395 0.121361576 0.16683277 0.25255448 -0.106696814 -0.09159087
0.22736885 0.22500263 0.2506017 -0.112462536 -0.071741655 0.09313724 0.049981274 -0.09643936
-0.18542796 0.09453413
00000000: 7ca7 1cbe 082c 93bc dc75 c8bd 1f29 16be
00000010: a07d 353e 821a 1ebd 77d4 2fbe a664 a6bd
00000020: 8ab3 32bd 3e4b b5bd e6a0 45bd 3728 863d
00000030: c830 653c 35ff 9abd df47 57bd fcfc 013e
00000040: 83a0 223e cb8b 0e3e 5e3f 403d 4d5c 6bbd
00000050: 44bd 33be 20a9 543e 5141 edbd 61d1 cb3d
00000060: 2f37 6a3e 176a c2bd 489f 0f3c 5fda adbd
00000070: ad0f 0dbe 7c91 2a3e 60e3 30bb ec72 d73c
00000080: cad0 403e a006 71bb a603 dd3d 7b24 023e
00000090: 35cc 833e 3767 86bd bc90 533e ee02 3f3d
000000a0: b783 90bd ed0c ac3d 641f eebd 8337 95bd
000000b0: e040 6dbb d459 bcbc 2a49 083e cc7b 55be
000000c0: 2039 6a3e c671 4a3d f53f 8b3e b038 5bbe
000000d0: 34d1 98bd 7814 923c ae24 463d ca11 4abd
000000e0: 717b c2bd d3b4 a93d b65e 4fbd 02e9 0e3e
000000f0: b258 e2bd e629 b4bd 596f cabd 6022 61be
00000100: 97e5 b43d e2ff a4bd e14c 85bd efbe 77bd
00000110: cba3 e5bd 4685 5b3d a819 2b3c 03f6 42be
00000120: c67a 90bd 2973 733e 5c40 4f3e 6b8c f83d
00000130: 36d6 2a3e d24e 813e dc83 dabd fe93 bbbd
00000140: 61d3 683e 1767 663e de4e 803e c252 e6bd
00000150: 4aed 92bd bdbe be3d 2ab9 4c3d 0082 c5bd
00000160: d4e0 3dbe 1c9b c13d

fc4.weight f4 [1, 90]
0.09376462 -0.069603756 0.031801395 0.09898512 0.20636536 -0.018534586 0.1370918 0.10397719
0.03618852 0.100845434 0.08875141 0.0013179109 0.024290986 0.078175105 -0.08745187 0.22777964
0.19273703 0.1981256 0.0012149811 -0.030410565 0.13039167 0.26901585 0.0907204 0.046133302
0.22510806 0.08706092 0.010007814 -0.072430864 0.099922776 0.18667513 0.021821909 0.06257179
0.23144272 -0.07758601 0.27164903 0.21029055 0.27123225 -0.03063596 0.24687473 -0.019494765
0.0844945 -0.0123701915 0.10866243 -0.09684731 0.061331905 -0.060166743 0.19694473 0.16074055
0.24099725 0.06329372 0.26505393 0.1563581 0.07893572 0.053524353 -0.0282849 -0.03408286
-0.09190075 0.007329449 0.09329044 0.17068945 0.08513448 0.08392594 0.08180828 0.102460146
0.23817348 -0.08426224 0.076199055 -0.09528456 0.09681097 0.08801193 -0.061681885 0.07275952
0.088463195 0.18496405 0.21777724 0.2636119 0.23909375 0.20781073 0.115970865 0.0336364
0.22642452 0.24821833 0.25153768 0.16663401 0.11046693 0.19841543 0.07869328 -0.0012166798
0.15158609 0.19089292
00000000: aa07 c03d 6a8c 8ebd 2e42 023d b6b8 ca3d
00000010: 7151 533e d8d5 97bc cb61 0c3e fef1 d43d
00000020: 6a3a 143d 0d88 ce3d 4dc3 b53d c0bd ac3a
00000030: e4fd c63c 451a a03d f719 b3bd 113f 693e
00000040: db5c 453e 70e1 4a3e 0040 9f3a 941f f9bc
00000050: 6585 053e 72bc 893e 9ecb b93d 46f6 3c3d
00000060: ba82 663e ff4c b23d d0f7 233c a256 94bd
00000070: 50a4 cc3d c427 3f3e dcc3 b23c a325 803d
00000080: 52ff 6c3e 6ae5 9ebd 9515 8b3e 6856 573e
00000090: f4de 8a3e 44f8 fabc bbcc 7c3e 7cb3 9fbc
000000a0: 740b ad3d 58ac 4abc 688a de3d e257 c6bd
000000b0: 2a37 7b3d 6771 76bd e1ab 493e 2c99 243e
000000c0: fcc7 763e 23a0 813d 26b5 873e 561c 203e
000000d0: 0da9 a13d 5a3c 5b3d bcb5 e7bc 789a 0bbd
000000e0: 7636 bcbd e02b f03b 0f0f bf3d 37c9 2e3e
000000f0: fc5a ae3d 5de1 ab3d 198b a73d a0d6 d13d
00000100: c0e3 733e ae91 acbd 400e 9c3d 8d24 c3bd
00000110: d444 c63d 993f b43d 25a6 7cbd f102 953d
00000120: 312c b53d 3767 3d3e ff00 5f3e 24f8 863e
00000130: fed4 743e 56cc 543e 2282 ed3d 52c6 093d
00000140: d4db 673e f22c 7e3e 8cc9 803e 1ba2 2a3e
00000150: 7c3c e23d 6a2d 4b3e f129 a13d 0079 9fba
00000160: 6239 1b3e 6f79 433e
