WantsToSeeTheWorldBurn.pt (torch, 10699 bytes, 7 tensors)

fc1.weight f4 [30, 3]
0	0x3d7170c4	0.058945432
1	0x3d8c5cdd	0.0685365
2	0x3ded4872	0.115860835
3	0x3ee6beca	0.45067436
4	0x3e48f4d4	0.19624645
5	0xbf85bc9c	-1.0448184
6	0x3defd610	0.11710751
7	0xbf55d94e	-0.83534706
8	0x3e21ccbb	0.15800755
9	0x3ee899d6	0.45429868
10	0x3f2b3db6	0.6689104
11	0x3d70e933	0.058816146
12	0xbe768d43	-0.24077325
13	0x3f5ea2b4	0.86967015
14	0xbf734d4e	-0.9503983
15	0x3f96bd18	1.1776457
16	0xbdb59146	-0.08865599
17	0xbe06ed72	-0.13176516
18	0x3fc8bf5d	1.56834
19	0x3f1bb56f	0.6082372
20	0xbe972825	-0.29522815
21	0xbdf4f96a	-0.119616345
22	0x3e9a4b37	0.3013551
23	0xbf2ddd19	-0.67915493
24	0xbf29af70	-0.6628332
25	0xbf7f6cc3	-0.9977533
26	0x3f09c265	0.5381225
27	0x3e1c76be	0.15279672
28	0x3f667742	0.90025723
29	0xbedd0fed	-0.43176213
30	0x3ead0784	0.33794796
31	0xbe5cb306	-0.21552667
32	0xbf742f30	-0.953845
33	0xbf97ae7b	-1.1850122
34	0xbe9c163d	-0.30485716
35	0x3ee19fac	0.44067132
36	0xbfa92d0c	-1.3216872
37	0x3e86cf21	0.26329902
38	0x3db85959	0.09001417
39	0xbf3afb12	-0.7303935
40	0x3e77ff15	0.242184
41	0xbecba74f	-0.39776084
42	0x3f1e5df5	0.6186212
43	0x3c04ec4e	0.00811298
44	0xbf409ed3	-0.75242347
45	0x3e29ccfc	0.16582102
46	0x3f4f80a0	0.8105564
47	0xbecf93e1	-0.4054251
48	0x3eac0f10	0.33605242
49	0xbdaecb59	-0.08534879
50	0xbf2f24b9	-0.6841541
51	0xbf1ab390	-0.6043024
52	0xbf8b1737	-1.086646
53	0x3e548a67	0.20755921
54	0x3d09b20a	0.033617057
55	0xbd917db0	-0.07104051
56	0x3d366469	0.044529352
57	0x3e2588a0	0.161654
58	0x3ca773ae	0.020440903
59	0xbf4373d6	-0.76348627
60	0xbf3c0233	-0.73440856
61	0xbf894fff	-1.0727538
62	0x3e692634	0.2276848
63	0xbf04f8f4	-0.5194237
64	0xbf66ac52	-0.9010669
65	0x3e5b6ef7	0.21429048
66	0xbec206f9	-0.37895945
67	0xbfaa81f9	-1.3320915
68	0x3f01f9be	0.507717
69	0x3f470610	0.77743626
70	0x3dcb3359	0.09921903
71	0xbedac790	-0.4273038
72	0xbfdfd34d	-1.7486359
73	0xbef7fa2c	-0.48433053
74	0xbc68ec38	-0.014216475
75	0x3f8a69cc	1.0813537
76	0xbe959bdc	-0.29220474
77	0xbe60f7c7	-0.2196952
78	0x3e6c0d3d	0.23051925
79	0x3f34ca6e	0.70621383
80	0xbf04153d	-0.5159491
81	0xbd22c916	-0.03974255
82	0xbdf104da	-0.117685035
83	0xbf705d2b	-0.93892163
84	0x3f55e16b	0.83547086
85	0x3cfead82	0.031088594
86	0xbf98d63e	-1.1940382
87	0x3f60e137	0.8784365
88	0x3f3e4882	0.7432939
89	0xbeb47772	-0.3524738

fc1.bias f4 [30]
0	0xbfb8585b	-1.4401964
1	0x3f2341da	0.63772357
2	0xbf14358b	-0.578942
3	0xbfb4da12	-1.412905
4	0xba8e4534	-0.0010854364
5	0xbfaef1a9	-1.3667499
6	0xbf45156c	-0.7698581
7	0x3ea6bf95	0.3256804
8	0xbdb68fb1	-0.08914126
9	0x3f97ea32	1.1868346
10	0xbd88e88f	-0.06684982
11	0xbec233fb	-0.37930283
12	0xbfc055b7	-1.5026158
13	0xbf2640da	-0.64942706
14	0x3f12ba0e	0.57315147
15	0x3f8c60d8	1.0967054
16	0x3cdc3204	0.026879318
17	0x3e39d046	0.18145856
18	0xbf8c7458	-1.0973005
19	0x3f146289	0.5796285
20	0xbec15c24	-0.3776561
21	0x3e3b5c25	0.18296869
22	0xbea8edbf	-0.32993886
23	0x3e051b1b	0.12998621
24	0xbf63d880	-0.8900223
25	0xbec50642	-0.38481337
26	0x3f9a2557	1.2042645
27	0x3f96ef43	1.1791767
28	0x3f51d1a5	0.8196052
29	0x3eb2d523	0.34928235

fc2.weight f4 [30, 30]
0	0xbf2966a4	-0.6617224
1	0x3d0a50fc	0.03376864
2	0xbdcd7ed7	-0.100339584
3	0xbe06cf54	-0.13165027
4	0xbf4077e8	-0.7518296
5	0xbf14e5e0	-0.5816326
6	0xbda06c10	-0.07833111
7	0xbe42305a	-0.18963757
8	0xbee58784	-0.44829953
9	0x3ef2b81e	0.47406095
10	0xbeba2e98	-0.36363673
11	0xbf0fb4c2	-0.5613519
12	0xbec6c3c4	-0.38821232
13	0xbf45ce39	-0.77267796
14	0xbe0cc894	-0.1374839
15	0x3e138f30	0.1441009
16	0xbea256b7	-0.31706783
17	0x3e311e64	0.1729675
18	0xbe33f165	-0.17572553
19	0x3e141ce2	0.14464143
20	0xbf2e4c72	-0.68085396
21	0xbdb2cbb4	-0.087302595
22	0xbf3ee837	-0.7457308
23	0x3e92ecfd	0.28696433
24	0xbef57654	-0.4794184
25	0x3e2df4d5	0.16987927
26	0x3e959ac7	0.29219648
27	0x3d277f59	0.040892933
28	0xbd393764	-0.04521884
29	0x3f0ee637	0.5582003
30	0xbeac007f	-0.33594128
31	0x3f09d948	0.5384717
32	0xbef1614e	-0.4714455
33	0x3f2600ff	0.6484527
34	0x3f3ff9fa	0.7499081
35	0x3ec2ca5f	0.38045022
36	0x3f0e5fc5	0.5561488
37	0x3ef99ef2	0.48754078
38	0xbf82ce3a	-1.0219185
39	0x3f05852f	0.5215635
40	0x3f020194	0.5078366
41	0xbf4a0d67	-0.789267
42	0x3e6dbc3d	0.23216338
43	0xbdc34a10	-0.09535611
44	0x3f3c8fcf	0.73656934
45	0x3ee9aa7d	0.45637885
46	0x3f363b67	0.7118439
47	0xbf8aeb9c	-1.0853152
48	0xbe19116b	-0.1494805
49	0x3f0ad119	0.5422531
50	0xbf5987b7	-0.8497271
51	0xbf637c27	-0.88861316
52	0xbf815b1a	-1.0105927
53	0x3ed479e5	0.41499248
54	0xbeb2461a	-0.34819108
55	0x3e06de28	0.13170683
56	0x3f5040b0	0.81348705
57	0x3f0ac874	0.5421212
58	0x3f3c54c8	0.73566866
59	0xbf1ca6bf	-0.61191934
60	0xbee3cb84	-0.44491208
61	0xbe961bd5	-0.2931811
62	0xbf0bc367	-0.54595035
63	0xbf350b36	-0.7072023
64	0xbf45fa43	-0.77334994
65	0xbf43731a	-0.76347506
66	0xbf4e6033	-0.8061554
67	0xbf0c0b4c	-0.5470474
68	0xbee67b04	-0.45015728
69	0xbf766703	-0.96250933
70	0xbf05d6c9	-0.5228086
71	0xbeedb549	-0.46427372
72	0xbf0364e9	-0.5132585
73	0xbf28c7c8	-0.6592984
74	0xbf42a1ae	-0.76027954
75	0xbdcaaa95	-0.09895817
76	0xbf44b9db	-0.7684609
77	0xbf28ccd5	-0.6593755
78	0xbf22f5f1	-0.63656527
79	0xbf3e0edc	-0.74241424
80	0xbef0169f	-0.4689226
81	0xbf4822b0	-0.7817793
82	0xbf1187e9	-0.5684801
83	0x3e1d6790	0.15371537
84	0xbf10319b	-0.5632569
85	0xbf325915	-0.6966718
86	0xbe978fe7	-0.29601976
87	0xbf3ff636	-0.74985063
88	0xbf5367cf	-0.82580274
89	0xbe5689d8	-0.2095102
90	0xbf0169c9	-0.5055204
91	0x3f67a78c	0.9049003
92	0x3e08ba9a	0.13352433
93	0x3e10a582	0.14125636
94	0x3f10ebe2	0.5660993
95	0x3ec6473a	0.38726217
96	0x3f634386	0.8877491
97	0x3f229d6a	0.63521445
98	0xbee787e1	-0.45220855
99	0x3f21e074	0.63233113
100	0x3f4dbc02	0.80365
101	0x3e9d456d	0.3071703
102	0x3f66ac78	0.90106916
103	0x3eeeca9e	0.4663896
104	0x3f1e16fe	0.61753833
105	0x3f1d1cda	0.6137215
106	0x3efe50ac	0.49670923
107	0xbea78ea4	-0.32726014
108	0x3f45ffb7	0.77343315
109	0x3f218654	0.63095593
110	0xbef9b836	-0.48773354
111	0xbec32580	-0.38114548
112	0xbe5f9567	-0.21834336
113	0x3e9e34cc	0.30899656
114	0x3bf2cbb1	0.007409536
115	0x3ebbabbb	0.36654457
116	0x3f34ceb7	0.7062792
117	0x3f30a3d3	0.68999976
118	0x3f41d8c2	0.7572137
119	0xbece808c	-0.40332448
120	0xbe79c533	-0.24391632
121	0x3e8b9d50	0.27268457
122	0xbe16e287	-0.14734851
123	0x3f73ce44	0.9523661
124	0x3ed5f96e	0.41791862
125	0x3f106288	0.56400347
126	0x3e9c0ab8	0.30476928
127	0x3e853930	0.26020193
128	0xbf5f9e35	-0.8735078
129	0x3f7c7c92	0.9862758
130	0x3d57740f	0.052600916
131	0xbf0b0f24	-0.5431998
132	0x3e77288a	0.24136558
133	0xbf03f09e	-0.5153903
134	0x3d8ebd6d	0.06969724
135	0x3f15f608	0.5857854
136	0xbd07ec8f	-0.033184584
137	0xbf191852	-0.59802735
138	0x3ddd0cb6	0.1079344
139	0x3e7da83d	0.24771209
140	0xbee73027	-0.45153925
141	0xbf3918fa	-0.72303736
142	0xbf33177d	-0.69957715
143	0x3ee29617	0.44255134
144	0xbdee7547	-0.11643463
145	0xbe746909	-0.23868193
146	0x3f62f1ad	0.8865002
147	0x3ed200a6	0.4101612
148	0x3ee9d75b	0.45672116
149	0x3eb5b6bc	0.35490978
150	0xbf815c2b	-1.0106252
151	0x3ed71d04	0.42014325
152	0x3bc2b272	0.0059416825
153	0xbee33b4a	-0.4438117
154	0x3e1bb8e8	0.15207255
155	0x3d9796d3	0.07401814
156	0x3ef0a01a	0.46997148
157	0x3ea28c72	0.31747776
158	0xbfc69d78	-1.5516806
159	0x3eb66ed4	0.3563143
160	0x3de35f72	0.11102189
161	0x3ddb35f2	0.107036486
162	0x3f67ad7d	0.904991
163	0xbde09a70	-0.109669566
164	0x3e83ee8b	0.2576793
165	0x3e26fb82	0.1630688
166	0x3e262375	0.16224463
167	0xbf1955c7	-0.5989651
168	0x3eebda69	0.4606507
169	0x3eb22177	0.34791157
170	0x3ed3a2c7	0.41335127
171	0xbf5b9f3b	-0.8578984
172	0xbfc788eb	-1.5588659
173	0x3dd0128c	0.101597875
174	0xbf44d982	-0.7689439
175	0xbef61ef3	-0.48070487
176	0x3e533b38	0.20628059
177	0x3eb7f61a	0.35929948
178	0x3edb9607	0.428879
179	0xbe38c14a	-0.18042484
180	0xbe13ac08	-0.14421093
181	0x3f16968e	0.5882348
182	0x3e1d44ba	0.15358248
183	0xbe165cad	-0.1468379
184	0x3e74334e	0.23847696
185	0xbe5304c9	-0.20607294
186	0x3e53870a	0.20656982
187	0x3ef7dfc5	0.4841291
188	0xbf3c618f	-0.7358636
189	0x3f5befb0	0.8591261
190	0x3eaafaca	0.33394462
191	0xbf5a9515	-0.8538373
192	0x3e531642	0.2061396
193	0xbe8dedcc	-0.27720487
194	0x3ef477b5	0.4774758
195	0x3f82f6dd	1.0231587
196	0x3ea42f79	0.3206747
197	0xbf0f8885	-0.5606769
198	0xbe6d069c	-0.23147053
199	0x3f0de910	0.5543375
200	0xbf1e8334	-0.6191895
201	0xbefe436d	-0.49660817
202	0xbfa5641a	-1.2921174
203	0x3ede99ab	0.43476614
204	0xbee6ca89	-0.45076397
205	0x3f0cd8fc	0.5501859
206	0x3f8a5cd0	1.0809574
207	0x3f139681	0.57651526
208	0x3f52cc74	0.8234322
209	0x3ed70b98	0.42001033
210	0x3e38130c	0.17976016
211	0xbdea1e2d	-0.11431537
212	0xbef358b9	-0.47528628
213	0x3f2f2222	0.6841146
214	0xbd390420	-0.04516995
215	0xbf03e12b	-0.51515454
216	0xbef6bf38	-0.48192763
217	0xbeff2b05	-0.4983751
218	0xbf32da0b	-0.6986396
219	0xbf159d1a	-0.5844284
220	0x3d840c2e	0.064476356
221	0xbf355d25	-0.7084525
222	0xbee75c6e	-0.45187706
223	0xbf00e65f	-0.5035152
224	0xbf3e87a3	-0.74425715
225	0x3ee7a5cf	0.4524369
226	0xbf292e69	-0.6608644
227	0xbf460028	-0.7734399
228	0xbf3302b7	-0.6992602
229	0x3d043a98	0.03228244
230	0xbf409f14	-0.75242734
231	0xbf3f0788	-0.74620867
232	0xbeed4714	-0.4634329
233	0x3f46ac1d	0.77606374
234	0xbf127e95	-0.572244
235	0x3e3a6b78	0.18205059
236	0xbf478fba	-0.77953684
237	0xbcfc2bf0	-0.03078267
238	0xbc8e8260	-0.017396152
239	0xbf2c041b	-0.67193764
240	0xbdfeebba	-0.12447305
241	0x3cc3aa68	0.023884967
242	0x3c044060	0.008071989
243	0xbbeb8d80	-0.007188499
244	0x3d1f2e18	0.038862318
245	0x3d5ddc9c	0.054165468
246	0xbe23f011	-0.16009547
247	0xbe1099f4	-0.14121228
248	0x3d70fe86	0.058836482
249	0xbe2ae160	-0.16687536
250	0xbbf560a0	-0.0074883252
251	0xbe124210	-0.14283013
252	0xbdc4ed8f	-0.09615623
253	0xbddad5b1	-0.1068529
254	0xbe39944c	-0.18122977
255	0xbd63b6a8	-0.055594116

fc2.bias f4 [30]
0	0x3e68d498	0.22737348
1	0x3d803477	0.06260007
2	0xbf2f5239	-0.68484837
3	0xbe85dcc5	-0.26144996
4	0x3e834acd	0.25643006
5	0x3e0d5ed2	0.13805702
6	0x3f128ae4	0.5724318
7	0xbf3c20c9	-0.73487526
8	0x3d90f638	0.070782125
9	0xbf328064	-0.6972716
10	0xbe4a37d2	-0.19747856
11	0xbf07e69e	-0.5308627
12	0xbf1a76cb	-0.60337514
13	0xbf1e5c4e	-0.61859596
14	0x3f27bfcf	0.6552705
15	0x3efbdff7	0.4919431
16	0xbf3649cb	-0.7120635
17	0xbed78759	-0.4209545
18	0x3f0a8830	0.54114056
19	0xbe01416c	-0.12622613
20	0xbf091823	-0.53552455
21	0x3f144984	0.57924676
22	0xbf0306de	-0.51182353
23	0xbe17b69f	-0.14815758
24	0x3d528040	0.05139184
25	0xbf2fa030	-0.686038
26	0xbf6da14e	-0.92824256
27	0xbf21c0e5	-0.6318496
28	0xbf553953	-0.83290595
29	0x3d4ad5df	0.04952037

fc3.weight f4 [30, 30]
0	0xbf1c656a	-0.61092246
1	0xbf3c754f	-0.736165
2	0x3f1df865	0.61707145
3	0xbf5810f2	-0.84400856
4	0x3f0bf85f	0.5467586
5	0xbed2ef28	-0.41198087
6	0xbf1c7510	-0.61116123
7	0xbcda1570	-0.02662155
8	0x3dca20b4	0.09869519
9	0x3f37f908	0.71864367
10	0xbf02ee53	-0.51144904
11	0xbec0475f	-0.37554452
12	0x3ed8250f	0.42215773
13	0xbef91808	-0.48651147
14	0xbf1bd082	-0.6086503
15	0xbf531dc9	-0.82467324
16	0x3f35ce64	0.7101805
17	0x3d25ff32	0.040526576
18	0xbf1b220a	-0.60598814
19	0x3cd23988	0.025662199
20	0xbee4eb2b	-0.4471067
21	0xbf47cd3d	-0.78047544
22	0xbef69ab1	-0.48164895
23	0xbf0273ff	-0.50958246
24	0x3e383ff2	0.17993143
25	0xbf264871	-0.64954287
26	0xbf0db1a9	-0.5534921
27	0xbf1bd63d	-0.60873777
28	0xbf0061b5	-0.5014909
29	0xbf0ad50c	-0.54231334
30	0xbe017100	-0.12640762
31	0xbf16b3eb	-0.58868283
32	0x3f1cf3df	0.6130962
33	0xbea788fe	-0.32721704
34	0x3f2df302	0.67948925
35	0xbf1c6ee3	-0.611067
36	0xbeb2fafa	-0.34957105
37	0x3ef37138	0.47547317
38	0xbe06eee3	-0.13177066
39	0xbe1bb8c8	-0.15207207
40	0xbf0854f0	-0.53254604
41	0xbedfa86d	-0.43683186
42	0x3ef04a71	0.46931794
43	0xbef97b53	-0.487269
44	0xbe5debe2	-0.21672013
45	0xbd105c08	-0.035244018
46	0xbf3a0c2a	-0.7267481
47	0xbcf973f0	-0.030450791
48	0xbef608b8	-0.48053527
49	0x3d07eec8	0.033186704
50	0xbeb2d826	-0.34930533
51	0xbec54cab	-0.38535056
52	0xbe78fa62	-0.24314263
53	0xbf12a1c4	-0.57278085
54	0xbdff3afc	-0.12462422
55	0x3f052969	0.5201631
56	0xbeee0701	-0.4648972
57	0xbef141b6	-0.47120446
58	0xbecd0559	-0.40043142
59	0xbef7cee3	-0.4840003
60	0xbee3e9bd	-0.44514266
61	0xbf1ed309	-0.62040764
62	0xbf1e08fd	-0.61732465
63	0x3f48decd	0.78464967
64	0xbf61fde2	-0.8827802
65	0x3e2490e9	0.16070904
66	0xbf4ae865	-0.79260856
67	0xbee5054a	-0.44730598
68	0xbd1d7884	-0.03844501
69	0x3f1354a7	0.57551044
70	0xbef5a48a	-0.47977096
71	0xbf242482	-0.64118207
72	0xbf0e2e98	-0.55539846
73	0xbf056b97	-0.52117294
74	0xbc19e229	-0.0093923
75	0xbf2e666e	-0.68125045
76	0x3edb2ab8	0.4280603
77	0xbeea9594	-0.45817244
78	0xbf5db98b	-0.8661124
79	0x3e3556c2	0.17708877
80	0xbf2c4557	-0.67293304
81	0x3e5bb236	0.21454701
82	0xbf15dd19	-0.58540493
83	0xbf7e64b2	-0.993724
84	0x3e2acd16	0.16679797
85	0x3eee3e7d	0.4653205
86	0x3f0f4ffb	0.55981416
87	0xbf3b4d81	-0.73165137
88	0xbf26d2e9	-0.65165573
89	0x3f603189	0.87575585
90	0xbf178329	-0.5918451
91	0xbf2c5455	-0.6731618
92	0x3f065a57	0.524816
93	0xbf1016ca	-0.56284773
94	0xbdb9c9ae	-0.090716705
95	0xbf32f5cc	-0.69906306
96	0xbedd3e78	-0.43211722
97	0xbc8da148	-0.017288819
98	0x3dedd128	0.11612159
99	0xbee3ed4b	-0.44516978
100	0xbf2e219d	-0.6802004
101	0xbf00167a	-0.50034297
102	0xbf454de9	-0.77072006
103	0xbd3c1f18	-0.04592809
104	0xbf264036	-0.6494173
105	0x3f2897ed	0.6585682
106	0x3f3cef86	0.73802984
107	0x3f178234	0.5918305
108	0xbf3454ce	-0.704419
109	0xbde2251f	-0.110422365
110	0x3d04deac	0.03243892
111	0xbedab78c	-0.4271816
112	0xbef5e679	-0.480274
113	0xbf18f597	-0.5974974
114	0xbdc610e7	-0.096711926
115	0xbf0f3b1d	-0.55949575
116	0xbee98134	-0.45606387
117	0xbf32a1d7	-0.697782
118	0xbf1e6764	-0.6187651
119	0xbedb2a52	-0.42805725
120	0xbd0c04c0	-0.034184217
121	0x3f5023f3	0.81304854
122	0x3edbb699	0.42912748
123	0x3f0defaa	0.55443823
124	0x3f14aa2a	0.5807215
125	0x3edfb20f	0.43690535
126	0x3f5cabf9	0.8619991
127	0xbddcee4f	-0.10787641
128	0x3dc3a9a0	0.09553838
129	0xbf3569ab	-0.7086436
130	0x3f13e0a3	0.57764643
131	0x3ef94a0c	0.48689306
132	0x3f1ddea3	0.6166784
133	0x3f18f7db	0.597532
134	0xbf1c49aa	-0.610499
135	0x3f14a5ed	0.5806568
136	0xbf19834c	-0.5996597
137	0x3ea178c0	0.31537437
138	0x3f6e08e1	0.929823
139	0xbd3578e8	-0.04430476
140	0x3f28074b	0.6563613
141	0xbf439545	-0.7639964
142	0x3ed7e569	0.42167214
143	0x3ed0f2f7	0.40810367
144	0x3db350b0	0.08755624
145	0x3e3f1d4c	0.1866352
146	0x3ef62a4e	0.4807915
147	0x3f279f5c	0.6547754
148	0x3f41c079	0.75684315
149	0x3f56d312	0.8391582
150	0xbf04446a	-0.5166689
151	0xbf051b1f	-0.5199451
152	0xbf1c3387	-0.61016124
153	0x3f36d59d	0.714197
154	0xbef54c3a	-0.4790972
155	0x3eb05675	0.3444096
156	0xbf355104	-0.70826745
157	0xbef2a430	-0.4739089
158	0x3c1c5900	0.009542704
159	0xbf025797	-0.509149
160	0xbf294ff1	-0.66137606
161	0xbf47176e	-0.77770126
162	0xbf1de863	-0.6168272
163	0xbef11584	-0.47086728
164	0x3f536f45	0.8259166
165	0xbed68037	-0.41894695
166	0x3f47e974	0.78090596
167	0xbf2f4ed7	-0.68479675
168	0xbf25fdfc	-0.64840674
169	0x3d96656c	0.073435634
170	0xbf384fbb	-0.7199666
171	0x3f03f245	0.5154155
172	0xbf40b5ee	-0.752776
173	0xbf64dbe0	-0.89398
174	0xbcf95ae8	-0.030438855
175	0x3ee25288	0.4420359
176	0xbf3e9b07	-0.744553
177	0xbef6dfb4	-0.48217547
178	0xbeeef884	-0.46673977
179	0x3f41b9ca	0.75674117
180	0x3da28270	0.07935035
181	0xbe07ddcc	-0.13268203
182	0x3e16136e	0.1465585
183	0xbf2f4ba3	-0.6847479
184	0xbd27b4f4	-0.040944055
185	0x3e2ed484	0.17073256
186	0x3cf2b710	0.029628307
187	0xbe25dff0	-0.16198707
188	0xbde163be	-0.110053524
189	0xbd9e45a1	-0.077281244
190	0xbd1244ec	-0.03571026
191	0x3c02d8b0	0.007986233
192	0x3dd46440	0.10370684
193	0xbdcde03a	-0.100525334
194	0xbf05c5e7	-0.522551
195	0x3dd16bc0	0.1022563
196	0xbcf9d888	-0.030498758
197	0x3d16dfe4	0.036834612
198	0xbe2b40aa	-0.16723886
199	0x3e01063c	0.12600034
200	0xbe1bb2d0	-0.1520493
201	0xbeb89ca5	-0.3605701
202	0x3d52f8a4	0.051506653
203	0xbc759470	-0.014989004
204	0xbdaf6022	-0.08563258
205	0xbde5599f	-0.111987345
206	0xbe0666a1	-0.13125087
207	0xbd72a1b4	-0.059236243
208	0xbe306304	-0.17225271
209	0xbd879484	-0.06620124
210	0xbe9c35c2	-0.30509764
211	0x3e9d08e0	0.30670834
212	0xbf1891d3	-0.5959751
213	0x3f361b8b	0.7113578
214	0xbee82477	-0.4534032
215	0xbf330a5a	-0.6993767
216	0xbf2fda85	-0.6869281
217	0xbf084bdd	-0.5324076
218	0xbc86e608	-0.01646711
219	0xbf033905	-0.5125888
220	0xbe16625d	-0.1468596
221	0xbf216e98	-0.6305938
222	0xbee1b9eb	-0.44087157
223	0xbf37da56	-0.7181753
224	0x3f17ab07	0.5924534
225	0xbf13c26d	-0.57718545
226	0x3f396c9c	0.7243135
227	0xbee6312c	-0.4495939
228	0xbf0b8b2c	-0.54509234
229	0xbd2020e8	-0.03909388
230	0xbf46b0f4	-0.7761376
231	0x3f5c1f8b	0.8598563
232	0xbf057bec	-0.52142215
233	0xbf19342e	-0.59845245
234	0x3d4f2b80	0.050578594
235	0x3f0c2391	0.5474177
236	0xbf0e00bb	-0.55469865
237	0xbf0d6701	-0.55235296
238	0xbf0400d6	-0.51563776
239	0x3ebb99bb	0.36640725
240	0x3e5d65fe	0.21620938
241	0xbee54962	-0.4478255
242	0x3eebf75c	0.46087158
243	0xbf0cf27b	-0.55057496
244	0x3f163b3c	0.58684134
245	0xbf14e13d	-0.58156186
246	0xbe82179d	-0.2540864
247	0x3f44715d	0.7673548
248	0xbe0df262	-0.13861993
249	0xbb8136a0	-0.0039432794
250	0xbebf5e84	-0.37376797
251	0xbecbed6f	-0.39829585
252	0x3f101a81	0.5629044
253	0xbe7701a7	-0.24121724
254	0xbefbdd16	-0.49192113
255	0x3ec14ac0	0.37752342

fc3.bias f4 [30]
0	0xbf02a671	-0.5103522
1	0xbeeadedd	-0.45873156
2	0xbd1e4dbf	-0.038648363
3	0xbf4869ef	-0.7828664
4	0xbd44dd81	-0.048062805
5	0x3dba4793	0.09095683
6	0xbf2d3da8	-0.67672205
7	0x3eb3a2fe	0.3508529
8	0xbe7cd7cc	-0.24691695
9	0xbe937629	-0.28801087
10	0x3e510258	0.2041105
11	0xbed68f9f	-0.4190645
12	0xbf20fb18	-0.6288314
13	0x3c23e88a	0.010004172
14	0xbea760c7	-0.32691023
15	0xbebbe046	-0.36694545
16	0xbe855fda	-0.2604969
17	0xbf4f0a9c	-0.80875564
18	0xbee2edce	-0.44322056
19	0xbebcaf99	-0.3685272
20	0xbdf2c2e3	-0.11853578
21	0xbece79db	-0.40327343
22	0xbe34a7f5	-0.17642196
23	0xbf02b62f	-0.5105924
24	0x3e42cefd	0.19024272
25	0x3dc9d12d	0.0985435
26	0xbeaf87df	-0.3428335
27	0xbf454728	-0.770617
28	0x3f57d854	0.84314466
29	0xbe9b3cb5	-0.30319753

fc4.weight f4 [1, 30]
0	0xbed84507	-0.42240164
1	0xbed31959	-0.41230276
2	0x3ead37ca	0.33831626
3	0xbf017f6f	-0.50585073
4	0xbf5b2db7	-0.8561663
5	0x3f03f24a	0.5154158
6	0x3ef48597	0.4775817
7	0x3f0f7d5d	0.56050664
8	0xbe8ef21d	-0.27919093
9	0xbf0e8a28	-0.5567956
10	0x3ed83bca	0.42233115
11	0x3e8d107b	0.27551636
12	0xbef4d3e3	-0.47817907
13	0xbf545be7	-0.8295273
14	0xbebc85a4	-0.3682071
15	0xbf02123a	-0.5080906
16	0xbeb915ed	-0.3614954
17	0x3e9c6716	0.30547398
18	0x3e487858	0.19577157
19	0xbed4f267	-0.41591188
20	0x3e569343	0.20954613
21	0x3e77b510	0.24190164
22	0x3dd00a90	0.10158265
23	0xbee6c215	-0.45069948
24	0xbe9ce16e	-0.3064074
25	0xbf5a8055	-0.8535207
26	0xbe8d3741	-0.27581218
27	0xbee52a23	-0.4475871
28	0x3f47338a	0.7781302
29	0xbed3ac3e	-0.41342348
