Works.pt (torch, 10699 bytes, 7 tensors)

fc1.weight f4 [30, 3]
00000000: 36a2 d33d 7e51 143f d490 863e 3157 1b3f
00000010: c9d0 bebf 03b0 bcbd 9840 593d 0286 0c3f
00000020: b064 fabb 4391 4a3f f22e 143f c6f7 2ebe
00000030: 3593 da3e 22d9 fa3e 2916 a8be f496 2c3f
00000040: 85d9 80bf 3d8a 893e a077 7fbd 23a2 023f
00000050: a2c8 2d3e 8a79 84be f8ec 35bf 6b05 bcbd
00000060: 9bf8 29bc e688 47bf 698f ad3e 279d c03e
00000070: 78ba 98bf df6f ee3e 86b1 1e3e 2504 ce3e
00000080: 8baf 473d 6b8d 86be 6175 ff3f b55e e1be
00000090: b277 5f3d ba6f b23d e16a b83d 2783 b63f
000000a0: e811 a53f 117b 013e 85cc 3dbe 4f80 c4bf
000000b0: bd50 2dbe 56c2 fabd 0e34 cb3f 6065 42be
000000c0: 1b5f a43e 8b44 0bbf 233e 943e a7d1 8c3f
000000d0: 8704 be3d 1dc7 46be 3f32 5c3d 4021 fe3e
000000e0: 1792 c5be 2998 363f f5fc 773f 8819 fd3d
000000f0: e6ae 73bf cf56 3fc0 0e18 ac3f 66c1 213f
00000100: ae86 5ebf 582a c63e 4a3e ca3e b249 813f
00000110: 9bf7 f0be 36fa 2dbe 5edb 0c40 317f b4be
00000120: afa2 73be ffe2 ef3f 4845 fcbd 63a3 c3be
00000130: 293a 163e 73bb 4b3e 9602 953e 7560 083f
00000140: fd7c 40be 1367 d63d cb13 0ebf 4af9 76be
00000150: a544 183e 58d4 cc3e fa0f 2dbe c5de 0d3d
00000160: 3a4d bf3f 2b27 c6be
0.10333674 0.5793685 0.2628237 0.6067992 -1.4907466 -0.09213259 0.053040117 0.5489198
-0.0076413974 0.791279 0.5788413 -0.17086706 0.42690435 0.48993784 -0.32829407 0.67417836
-1.0066382 0.2686328 -0.062369943 0.5102865 0.16971067 -0.25873977 -0.7106471 -0.09180721
-0.010374214 -0.77943265 0.33898476 0.37619898 -1.1931906 0.46569726 0.15497407 0.40237537
0.048751395 -0.26279768 1.9957696 -0.44017568 0.05455751 0.087127164 0.090047605 1.4258775
1.289609 0.12644602 -0.1853505 -1.5351657 -0.1692533 -0.12244098 1.5875261 -0.18983984
0.3210381 -0.54401463 0.28953657 1.1001481 0.09278207 -0.19411893 0.053758856 0.49634743
-0.3858802 0.7132593 0.96870357 0.12358385 -0.9518875 -2.9896734 1.3444841 0.6318573
-0.86924255 0.3870418 0.39500648 1.0100615 -0.47063908 -0.16989979 2.200889 -0.3525329
-0.23792528 1.8741149 -0.12317902 -0.38210592 0.14670624 0.19895725 0.29103535 0.5327218
-0.18797679 0.104688786 -0.5549895 -0.24118534 0.14869936 0.40005755 -0.16900626 0.034636278
1.4945443 -0.38701758

fc1.bias f4 [30]
00000000: 7aef 40bf a606 e5bd 8e07 58bf 47f6 44bf
00000010: 7d7c 78bf 25a7 cb3d 2708 b1bf 9138 213c
00000020: 5928 2cbf f7c0 e9be c72e 82bf 4710 813e
00000030: 080f 16bf 203e 863e 9bd3 52be 0dba 053f
00000040: 3b50 a3bf 5ce2 22bf 2ad3 88bf 4917 9dbf
00000050: 5506 7f3f 97c3 39be 0359 0c3f c482 383f
00000060: 34c2 123e 14c0 26bf 9342 6bbf 0088 98be
00000070: e2a5 9fbf 0b41 803f
-0.7536541 -0.11182909 -0.8438653 -0.7693829 -0.97064954 0.0994399 -1.3830613 0.009840147
-0.67249066 -0.45655033 -1.0170525 0.2520773 -0.58616686 0.26219273 -0.20588534 0.52237016
-1.2758859 -0.63626647 -1.0689442 -1.2272731 0.99619037 -0.18141018 0.5482332 0.7207453
0.14331895 -0.6513684 -0.9189846 -0.2979126 -1.2472498 1.001985

fc2.weight f4 [30, 30]
00000000: 3956 3dbe 33a5 c5be c66e e9bb a4e3 aebe
00000010: 624c 14bd 1c49 44bf a531 cf3e bc27 85bf
00000020: 4bb0 40bf 5649 f2be 5e18 99be 0424 b5be
00000030: 8994 68be f223 b5bf 3643 3dbf e461 29bf
00000040: 934a 4cbe b094 38bf 0301 083e 3976 dbbe
00000050: 4908 28bf 1c84 1fbf 3112 90bf 0185 4cbf
00000060: 291c ebbe a100 d9be 70d5 833d 907b 8dbf
00000070: 5723 5cbd ac16 77bf 72ad 78bf 2673 93bf
00000080: 7101 40bf 48e6 ce3e 042d 3cbf e15b 55be
00000090: 93a0 413f 2ddb 51be 8d6d 5cbf df3a 5dbf
000000a0: 0659 83bf 81b0 d93c 70db 97bf 930f d53f
000000b0: 06c4 abbf d1a3 983f da58 0f3f a121 fcbe
000000c0: 67db 3abf 070a 21bf 0d09 12bf 06af 52be
000000d0: 0be6 173f 63b2 a83f 7a44 8a3e 37bb 8ebf
000000e0: 766b 39bf 2936 633c f429 4ebf f1c9 e23f
000000f0: 0a32 093f c26d d7be 9721 bd3d 9b43 0f3f
00000100: 7b84 b4bc 8bce 203e 19ce 423f b25f a63e
00000110: 8285 02bf 852f b4be f728 fe3e cd2f d43e
00000120: 764d f93e 9740 383e 8a13 8abd cf3b 913e
00000130: 28db d43e dda1 0b3f bdd4 df3b 93ba 903e
00000140: a57e bebe 1142 32be 7b54 dc3e 171b e43d
00000150: e4bf d33e 867a fc3d fe13 d73e f3ea 8a3e
00000160: 00b1 0bbe eb51 033f 59b6 563c 38e3 0ebf
00000170: 1a5f cabe fdde afbe 8d84 c4bd 3652 22bf
00000180: a35f 36bf 729b 46bf 3d69 e7be 4f7f 0abf
00000190: 1144 4abe 2a3a c8be ea09 cabd 6b15 83bf
000001a0: 4d9e 65bf c425 04bf c94c 353e 636e 3cbf
000001b0: e67d 9cbd ab12 96be 2b45 0fbf ee7b 25bf
000001c0: 61cc 8fbf d45f 5ebf bc78 9fbe 827f d8be
000001d0: 0a49 77bd 3d26 76bf 19e9 163e fc6e 3bbf
000001e0: fcc8 a1bd 4389 f73e e31c c2be b32a 91bf
000001f0: 5697 aabb cf06 34bf d86d 563f ce2e 78bf
00000200: 8c77 f7be f6ea 01bf 511e ef3d b52f 11bf
00000210: ad22 3e3d 3ce9 81bf 845a 3bbf 3d13 41bf
00000220: 4bdd 133f 804b febe 8a7e 6ebe 72c0 95be
00000230: 95cc 89be 2f2f ffbe 2c5e 88bf 4e8a 64bf
00000240: 0f08 1dbf af31 cbbe b0c6 e5be c530 61bf
00000250: a146 cbba 3cde 77bf 50ca 27bf a30c 08bf
00000260: 34a5 4bbf a624 d5be 784f c4be a91d c6be
00000270: 1e69 043f 3faf 03bf 49d5 e5be cac9 29bf
00000280: 4fbe a9be b111 50bf 7af8 09bf eac1 1cbf
00000290: a317 48bf fb54 4bbf 70b4 cfbe 06cb 993e
000002a0: e3ce 64bf fc66 73bf d48a 87bf 8d77 cfbe
000002b0: 6e48 9dbe 5757 3abf fecc 28bf cda8 e1be
000002c0: c4e1 4bbf b8f8 e5be 5c32 fc3e 14fd 15bf
000002d0: 2689 0ebf 9e45 4b3e 3587 4bbf b477 dfbd
000002e0: b42c 2cbf 8dad e23e 5c08 813f f529 6a3e
000002f0: f6c5 c13d 3c4c b03e 957b 6dbe 89ac 53bf
00000300: 985d 3bbf 99ad 1abe fb3b 953e aa3c 52bf
00000310: d468 43be cd9c bebe 4931 f6be 8192 00bf
00000320: 07cf a43f d93f dd3e 8d09 b6be d552 53bf
00000330: b022 5abf 9009 c73f 24ad 45bf fd63 ee3d
00000340: 0d70 0fbf 4044 26bf 29d6 31bf 36b5 e4be
00000350: 4094 b7bb aae9 2bbf fe9d 27bf 675f 01bf
00000360: 1bae 00be 53f2 f13e 08ea 453d 2ddd 3bbf
00000370: 1492 c4bd 7025 25bf ec03 2cbf cedf 38bf
00000380: 8137 153f 9026 11bf 8f01 e0be 82ad 3bbf
00000390: 0850 f9bd 1196 15bf fbdd 46bf 4c94 15bf
000003a0: 1fc2 02bf ed9a 2bbf d730 3abf e0f1 183e
000003b0: 6797 05bf 95af 07bf 7cb3 12be 9a64 2cbf
000003c0: 7517 84be f21c e93e 4050 3fbf 5c17 053d
000003d0: 3a6a 4ebf a974 4f3e 5aa7 183f a244 7a3e
000003e0: a830 9f3e 642f d03e 9bf7 67bf 43b6 59bf
000003f0: 00f3 33bf 593b 0d3d 72b9 583e 312a 22bf
-0.18489923 -0.386026 -0.007123801 -0.3415805 -0.036205657 -0.76674056 0.40467563 -1.0402751
-0.75269 -0.47321576 -0.29901403 -0.3537904 -0.22712912 -1.4151595 -0.7393068 -0.66164994
-0.19950323 -0.7210188 0.13281636 -0.42863634 -0.6563764 -0.6231096 -1.1255552 -0.7989045
-0.45919922 -0.42383292 0.06437194 -1.1053333 -0.05374464 -0.9651897 -0.97139657 -1.1519516
-0.750022 0.40410066 -0.7350619 -0.2083583 0.7563564 -0.20493765 -0.8610466 -0.86417955
-1.0261543 0.026573421 -1.1863842 1.6645378 -1.3419197 1.1924993 0.5599495 -0.49244407
-0.7299103 -0.62905926 -0.5704506 -0.20574579 0.5933539 1.3179439 0.27005368 -1.1150883
-0.724296 0.013867893 -0.80532765 1.7717878 0.5359198 -0.42075926 0.092349224 0.5596253
-0.022035828 0.1570379 0.7609573 0.32494885 -0.50984967 -0.35192505 0.4964063 0.4144272
0.4869191 0.17993389 -0.06742008 0.28365943 0.41573453 0.5454386 0.0068307803 0.28267345
-0.37205997 -0.17408015 0.43033203 0.111379795 0.41357338 0.12328057 0.4200744 0.27132377
-0.13641739 0.5129687 0.0131049985 -0.5581546 -0.39525682 -0.34349814 -0.095955946 -0.63406694
-0.7123968 -0.7758094 -0.45197478 -0.5410051 -0.19752528 -0.39106876 -0.09865172 -1.0240911
-0.8969467 -0.51620126 0.17705072 -0.73605937 -0.07641201 -0.29311118 -0.55964917 -0.64642227
-1.1234246 -0.8686497 -0.311468 -0.4228478 -0.06037239 -0.96152097 0.14737357 -0.73216224
-0.07899663 0.4834691 -0.37912664 -1.1341156 -0.005206029 -0.7032289 0.8376136 -0.9694642
-0.48333395 -0.50749147 0.11675704 -0.5671342 0.04641979 -1.0149302 -0.7318499 -0.7541998
0.5775954 -0.49666977 -0.23290458 -0.29248387 -0.26913896 -0.49840686 -1.0653739 -0.89273536
-0.6134042 -0.39686343 -0.4487815 -0.8796504 -0.001550872 -0.9682348 -0.6554308 -0.5314428
-0.79548955 -0.41629523 -0.3834188 -0.38694504 0.51722896 -0.5143928 -0.44889286 -0.6632353
-0.33153006 -0.81276995 -0.5389477 -0.6123339 -0.78161067 -0.79426545 -0.4056735 0.30037707
-0.89378184 -0.95079017 -1.0589242 -0.40520898 -0.30719322 -0.7278952 -0.65937793 -0.44074097
-0.79641366 -0.4491632 0.4925717 -0.5858929 -0.5567802 0.19850776 -0.79503185 -0.109115034
-0.6725571 0.44273034 1.0080676 0.22867568 0.09461586 0.34433162 -0.23191674 -0.8268514
-0.7318969 -0.15105285 0.29147324 -0.82123816 -0.19082958 -0.37229005 -0.48084477 -0.5022355
1.287568 0.43212774 -0.35554162 -0.82548267 -0.8520918 1.5549793 -0.77217317 0.11640165
-0.5603035 -0.6494789 -0.6946741 -0.44669503 -0.0056023896 -0.6715342 -0.6547545 -0.505362
-0.12566416 0.4725519 0.048318893 -0.7338436 -0.09598175 -0.6451025 -0.67193484 -0.722165
0.5828782 -0.56699467 -0.4375119 -0.73311627 -0.12173468 -0.5843211 -0.77682465 -0.5842941
-0.51077455 -0.67033273 -0.72730774 0.14936018 -0.52184147 -0.5300229 -0.1432628 -0.67341006
-0.25799146 0.45529896 -0.74731827 0.03249298 -0.8063084 0.20259346 0.5963036 0.24440244
0.3109181 0.40661156 -0.9061219 -0.85043734 -0.70292664 0.034480426 0.21164492 -0.6334563

fc2.bias f4 [30]
00000000: 049b 92bf 4b90 3e3f ffa2 fe3e c071 8abf
00000010: c082 61bf 9e1a 1ebf d86c 8b3d a4ee 02bf
00000020: e7cf 1bbe 629f 813e 9eec 00bf 5efe 36bf
00000030: e4b7 babd ff4a 0abf ee6b 37bf 5ae8 39bf
00000040: 4a6a 8ebf d1ad ebbe 94bd 8d3e 1cdf 5f3d
00000050: cc1f cf3e 2b60 23bf 36f3 e63e 8f2f 6f3d
00000060: fb9a cabe 9c1d 26be 1e28 71bd d356 30bf
00000070: 1239 3dbf 18e0 46be
-1.1453557 0.74438924 0.4973373 -1.0815964 -0.88090134 -0.61759365 0.0680787 -0.51145387
-0.15216027 0.25316912 -0.5036105 -0.71481884 -0.091171056 -0.54020685 -0.7164906 -0.72620165
-1.1126187 -0.4603105 0.276837 0.054656133 0.40453947 -0.63818616 0.4510743 0.058394965
-0.39571366 -0.16222233 -0.05887615 -0.68882483 -0.7391521 -0.19421422

fc3.weight f4 [30, 30]
00000000: 9283 f03d ee91 04bf 7269 92bf 1e3a 03be
00000010: 744b f8bd 58e4 23bf 5b5c 8ebe 1d05 0bbf
00000020: 215c 44be c815 e0be 4318 23bf 9ab3 41be
00000030: 75c7 bdbe 8394 08be 7982 e1be fefe a0be
00000040: 0459 64bd 49dc 7abe 728a 93bf 3ea2 3abf
00000050: 06b4 5abf 7b18 1b3f 2101 9abf eabd 9dbe
00000060: 2401 1dbe e623 d0be f88a 09be 176a 763e
00000070: e622 fcbe f043 82be a78c 35bf 662e 39bf
00000080: 2f5e 3f3f 0cca 36bf 8619 34bf 7c5b 1b3e
00000090: c645 15bf 6e50 20bf f7da 34bf 4f93 febe
000000a0: d476 03bf bb5e 2abf 3872 32bf 0ed8 fb3e
000000b0: aefb e1be a72d 47bf 3673 24bf e914 0f3f
000000c0: 5240 2bbf e8d6 29bf 2cc0 2ebf c47e ff3e
000000d0: 1840 c63c a4b0 1ebf 1243 36bf 3518 2bbf
000000e0: 1dd1 1ebf 704f 443f 7926 1cbf 1381 f3be
000000f0: 47e3 5a3d 0d91 49bf b327 a2bf 900c c53b
00000100: 24f2 8dbd bba4 c1be 9716 f4bd 5b48 1fbf
00000110: 905b 6fbe 0e18 a9be 12fa 42bf 7189 e0be
00000120: 24f6 bcbe d24b 1cbe ea10 ddbe 1784 82be
00000130: 6002 013d 9d40 a3be 4487 93bf a4ec 01bf
00000140: cf6c 71bf b3f2 1f3f bfde 8abf 46cf 6cbe
00000150: 575f 33be 82f8 debe 0aea dfbd fed4 4f3e
00000160: 0d56 25bf c9d6 6dbe f17a 61bf b6c8 86be
00000170: 959a 95be 7a30 02bf e855 d9be 405e 27bf
00000180: a139 3dbf 20a7 013f 6537 ddbe d352 cfbe
00000190: f698 173f d888 4bbf c799 43bf 6141 50bf
000001a0: 22c5 b13e ca9a f1be be77 34bf ceae 1cbf
000001b0: ef07 bfbe 05cf 1ebf b569 c1be 3151 47bf
000001c0: 5b3f 02bf 6b2f 57bf 1802 3bbf e359 67bf
000001d0: 3545 46bf 4405 32bf 8f73 22bf e564 3cbf
000001e0: 8821 59bf 8460 1ebf 1b5c e3be 6695 49bf
000001f0: bcc9 9d3e fa80 04bf 9c9d 41bf 9f23 093f
00000200: 7636 18bf a399 0dbf 100d 283f d8c7 2fbf
00000210: 96d9 71bf e943 2ebf 077f 8fbe d90d 52bf
00000220: a7ab 5cbf f055 0abf bc6f 0bbf 0ae2 bbbe
00000230: cbca d6be 7910 06bf 5b0b c6be 6eff 5dbf
00000240: 4525 18bf 9dcd 40bf 706d 58bf 77c4 1abf
00000250: 667e 23bf ef68 5abf dc26 813f aab4 943e
00000260: 569e 2b3e a498 0f3f cabf 3a3f fe5e 0f3f
00000270: 5eb2 2dbf c618 013f f094 4abf 33b5 9fbe
00000280: 69d5 293f c5d9 10bf 7df5 95bd bed8 dfbe
00000290: 45b0 303f 0bed 993e e4ae 5a3f 5077 dc3e
000002a0: d273 533e 5c95 99be a03e ec3d 2593 19bf
000002b0: 15ce 31bd 4c01 17bf da22 0ebf 8e0f b8bd
000002c0: 25d2 1ebf 79b5 603e 6688 513f fd56 15bf
000002d0: f0b4 113c efce ccbd 8883 fabd 8c73 04be
000002e0: 2e1b fdbd 90e6 88bc 344c 04bd 5c6e 553d
000002f0: f7de 16be 9027 39bd 4d6a 35be 7aab 243e
00000300: b029 ce3c 3ff3 20be 5b31 d5bd d286 22be
00000310: 08a3 9a3d 3081 253c aadb 01be c03d 853c
00000320: cc18 32bd 6651 6ebd ac71 c23d 90ba fbbc
00000330: c077 033c b903 aebd 7884 333e 582b ad3d
00000340: 3864 2dbe 6c63 2fbd 8ad2 113e 3163 71bf
00000350: 721c 6abf 6a16 b53d 87fc c6be b5f2 f6be
00000360: c2b6 ebbe 3781 e0be 8cf9 8ebe f336 0abf
00000370: 2211 34bf 0a29 8fbe 6f9b a0be 771c febe
00000380: a89f e8be 9cb8 64be 2393 013e 725a 083e
00000390: e1fd 0cbf 687e 2fbf a57a 3bbf 1000 e03e
000003a0: 63f6 65bf 0e6e c1be e6e4 dfbe 6bfc 2ebf
000003b0: 95bb 42bf 8fb5 c73e a634 57bb 8a5d 0cbf
000003c0: e5f9 2f3d 1966 8fbf f204 19bf ea55 c7bd
000003d0: c488 aebe ec8e b9be e17c 1bbf ae0d 3ebf
000003e0: f139 23bf ec07 e7be e90d 1cbf 5d8d 9b3e
000003f0: d0d3 9b3e 130e d83d 8cbb cbbd bfd8 003e
0.11743845 -0.5178517 -1.1438429 -0.12815139 -0.121237665 -0.640203 -0.27804837 -0.5430468
-0.1917577 -0.43766618 -0.63708895 -0.18916169 -0.37066236 -0.13337903 -0.44044855 -0.31444544
-0.055748954 -0.24498095 -1.1526625 -0.7290381 -0.85430944 0.6058423 -1.2031595 -0.30808955
-0.15332466 -0.40652388 -0.13431919 0.24063908 -0.49245375 -0.25442457 -0.70917743 -0.72336423
0.7475309 -0.7140205 -0.70351446 0.15171617 -0.5830959 -0.62622726 -0.70646614 -0.49721763
-0.5135319 -0.665508 -0.69705534 0.49188274 -0.4413733 -0.77804035 -0.642383 0.5589128
-0.6689502 -0.66343546 -0.6826198 0.49901402 0.024200484 -0.6198828 -0.7119609 -0.6683381
-0.6203783 0.7668371 -0.60996205 -0.47559413 0.053439405 -0.78736955 -1.2668365 0.0060134605
-0.0693095 -0.37820992 -0.11918371 -0.6221978 -0.23374772 -0.33026165 -0.76162827 -0.4385486
-0.3690654 -0.15263298 -0.43176967 -0.25491402 0.031496406 -0.31885234 -1.1525655 -0.5075171
-0.94306654 0.62479705 -1.0849227 -0.23125944 -0.17516838 -0.4354897 -0.10933311 0.20296094
-0.6458443 -0.23226465 -0.8807822 -0.26325005 -0.292195 -0.5085522 -0.42448354 -0.6537819
-0.7391606 0.5064564 -0.43206325 -0.40492877 0.59217775 -0.7950568 -0.7640652 -0.8134976
0.34720713 -0.47188407 -0.7049521 -0.6120423 -0.3731074 -0.62034637 -0.3777596 -0.77858263
-0.5087792 -0.8405673 -0.7305007 -0.9037153 -0.7744935 -0.69539285 -0.6345758 -0.7359145
-0.8481679 -0.6186602 -0.44406208 -0.7874359 0.30817974 -0.517593 -0.7563112 0.5356998
-0.594581 -0.55312556 0.6564493 -0.6866431 -0.94472635 -0.6807237 -0.28026602 -0.8205238
-0.8619942 -0.5403738 -0.5446737 -0.36695892 -0.41951594 -0.52368885 -0.3868054 -0.8671788
-0.5943187 -0.7531374 -0.8454199 -0.6045603 -0.63864744 -0.85316366 1.0089984 0.29044086
0.16759619 0.56092286 0.72948897 0.5600432 -0.6785029 0.50428426 -0.7913351 -0.31192932
0.66341263 -0.5658229 -0.07322214 -0.4372005 0.69018966 0.30063662 0.8542311 0.43059778
0.2064965 -0.29996765 0.11535382 -0.5999015 -0.043409426 -0.58986354 -0.5552193 -0.08987342
-0.62039405 0.21944226 0.8184875 -0.5833586 0.0088932365 -0.10000407 -0.12232119 -0.12934703
-0.123587 -0.016711503 -0.032299235 0.0521072 -0.14733492 -0.045203745 -0.17716332 0.16081038
0.025166363 -0.15717791 -0.104098044 -0.15871742 0.07550627 0.0101016015 -0.12681451 0.016264796
-0.04348068 -0.058183096 0.094943374 -0.030728608 0.008024156 -0.08496804 0.17531002 0.08455533
-0.16932762 -0.042819425 0.1424047 -0.9429198 -0.91449654 0.08842166 -0.38864538 -0.48232046
-0.4603787 -0.43848583 -0.27924764 -0.53990096 -0.7033864 -0.27960998 -0.31368586 -0.49631092
-0.45434308 -0.22336048 0.12653784 0.13315752 -0.5507489 -0.68552256 -0.73234016 0.43750048
-0.8982908 -0.37779278 -0.43729323 -0.6835391 -0.7606748 0.39005706 -0.0032837777 -0.5483023
0.042962927 -1.1203033 -0.5977317 -0.09733184 -0.3408872 -0.36241853 -0.60737425 -0.74239624
-0.63760287 -0.4512323 -0.60958725 0.3038129 0.30435038 0.105495594 -0.09947881 0.12582682

fc3.bias f4 [30]
00000000: 3bf3 05bf ca0f eebe 61ee 0ebf 2249 35bf
00000010: 0f38 10bf dc05 7b3e 8a2a 18be d6e9 14bf
00000020: 196c 35bf 23c6 2abf d40b 053d 9dee 2abf
00000030: 9d03 33bf 4563 25bf ab8c d6be fe5e 7cbf
00000040: f109 36bf 56ae 2dbf 6746 10bf 56b9 73bf
00000050: 7b0b 27bf 0884 213e 5e15 92bb 0444 2cbf
00000060: c331 143f 2ec8 f9be cb70 33bf d614 fd3e
00000070: 1320 1cbf 7065 acbf
-0.52324265 -0.4649642 -0.5583249 -0.70814717 -0.5633554 0.24513954 -0.14859977 -0.58169305
-0.7086807 -0.6670858 0.032481983 -0.66770345 -0.6992739 -0.646046 -0.41904196 -0.98582447
-0.7110892 -0.6784414 -0.56357425 -0.95204675 -0.6525189 0.15773022 -0.0044581136 -0.67291284
0.5788843 -0.48785537 -0.70093983 0.4942996 -0.6098644 -1.3468456

fc4.weight f4 [1, 30]
00000000: 8d62 793e 28cd 053f af23 683e 3bcb fdbe
00000010: 47ad ecbe 3a85 0b3f 76d3 083e 1361 ac3e
00000020: 98d5 0ebe cece f03e c2f6 373e 86b2 c73e
00000030: 8a83 0abf d999 fcbe 92fd 583e 4ed1 babe
00000040: c7c0 0d3f 34ae c83e e984 223e 7067 753e
00000050: 3529 fdbe cd1f 2a3d 8226 22be 9f3a abbd
00000060: d3b7 443f a57e 983e 201c 4abe d00e 0abe
00000070: b902 a53e 7032 ea3e
0.24354 0.5226617 0.22669862 -0.49569115 -0.4622595 0.5450016 0.13361916 0.33667812
-0.13948667 0.4703278 0.17965224 0.3900339 -0.5410696 -0.49336126 0.2119048 -0.36487812
0.5537228 0.39195406 0.15871014 0.2396524 -0.494455 0.041534234 -0.15835002 -0.083607905
0.76842993 0.29784122 -0.19737291 -0.13482213 0.3222864 0.45741606
